SPath_my_model/1f4hje06_0/checkpoints/epoch=86-step=86999.ckpt (torch, 110818 bytes, 60 tensors)

net.theta1a.weight f4 [32, 5]
-0.34469363 -0.20671158 0.52906483 -0.3483728 -0.31118688 -0.39485192 -0.23570782 -0.3428588
0.1422692 -0.01147749 0.5480535 0.12283281 -0.25872388 0.85646176 0.478016 0.8195894
-0.40564117 0.28512397 0.54753095 -0.5693611 -0.16586071 -0.057706792 0.23937723 -0.25940764
-0.29651067 0.22207884 -0.9920491 -0.1381557 0.7043481 0.6051624 0.5062393 -0.53491706
-0.21406509 -0.019921176 -0.21704686 0.23635697 0.47736132 -0.44579473 -0.8615456 0.44653738
-0.03511141 0.6015328 0.41773945 -0.84395826 -0.8375283 0.023160512 1.4030694 0.15304264
0.32264927 0.30125767 0.61684304 -0.05303752 0.51847774 -0.26744428 -0.18573903 -0.39090398
-0.34813148 0.6292058 -0.73494303 -0.25796744 -0.44371092 -0.47745597 0.36296993 0.49402833
0.55831045 0.32628784 0.28605354 0.28713515 0.36451665 -0.56502426 0.8220807 -0.44280016
-0.68306404 0.8279826 0.1906421 -0.008314987 0.7111074 0.1695977 -0.7077426 -0.72034514
-0.2940642 0.7493365 -0.53320104 0.3718011 0.31328535 0.4488722 0.22990663 -0.25619042
0.9924785 0.4190233 1.0111334 -1.4541868 0.005041787 0.71839404 0.12345426 0.6639197
-0.15478018 0.2644219 0.94665074 0.3007816 0.11697871 0.61976975 -0.52140325 0.4494243
0.20778051 -0.24912739 -0.48997733 0.3362235 0.70128584 0.5449608 -0.17194536 -0.43845317
0.35857305 0.3570517 0.3333528 0.2532579 -0.95926005 -0.1676269 0.63247705 0.3651293
0.20139779 0.6119226 0.16749111 0.46695855 0.41513082 0.4669103 0.83514524 0.103912264
0.4838286 0.40004653 0.038450755 0.5756438 0.09573039 -0.72316253 -0.7221225 -0.43353716
-0.3925167 0.004103712 0.9245511 0.26860294 0.41633514 0.41393214 0.29105708 -0.12243004
-0.7499588 0.045870304 0.5994401 0.08866092 -0.69349825 -0.72364146 0.6021462 0.59358853
-0.20656529 0.44296739 0.22575472 0.24993332 0.3809323 0.63966024 0.21330449 0.41318443
00000000: af7b b0be 33ac 53be cb70 073f eb5d b2be
00000010: e353 9fbe 082a cabe 645d 71be 308b afbe
00000020: 04af 113e 150c 3cbc 3c4d 0c3f c58f fb3d
00000030: 7577 84be 1441 5b3f 83be f43e 9cd0 513f
00000040: 33b0 cfbe c5fb 913e fd2a 0c3f a6c1 11bf
00000050: 64d7 29be f55d 6cbd 4e1f 753e 14d1 84be
00000060: 3fd0 97be a368 633e eef6 7dbf b078 0dbe
00000070: 2850 343f eceb 1a3f e698 013f 53f0 08bf
00000080: e133 5bbe bc31 a3bc 8841 5ebe 9007 723e
00000090: b468 f43e 353f e4be 418e 5cbf 8ca0 e43e
000000a0: fbd0 0fbd 0efe 193f f2e1 d53e a60d 58bf
000000b0: 4168 56bf 1dbb bd3c c797 b33f 36b7 1c3e
000000c0: 4932 a53e 723e 9a3e 6de9 1d3f df3d 59bd
000000d0: f5ba 043f 75ee 88be 5f32 3ebe 9124 c8be
000000e0: 4a3e b2be a213 213f 3a25 3cbf 4f14 84be
000000f0: 142e e3be 1c75 f4be 32d7 b93e 48f1 fc3e
00000100: 6fed 0e3f 330f a73e 9c75 923e 6103 933e
00000110: eda1 ba3e 6ea5 10bf e173 523f b4b6 e2be
00000120: 49dd 2ebf abf6 533f af37 433e 953b 08bc
00000130: 220b 363f 05ab 2d3e 9e2e 35bf 8a68 38bf
00000140: 958f 96be 84d4 3f3f dd7f 08bf b75c be3e
00000150: f066 a03e 94d2 e53e a56c 6b3e 642b 83be
00000160: 1213 7e3f 398a d63e d26c 813f cb22 babf
00000170: 9335 a53b ace8 373f 96d5 fc3d a4f6 293f
00000180: b27e 1ebe 4f62 873e b457 723f 0c00 9a3e
00000190: 8992 ef3d 3ba9 1e3f af7a 05bf f11a e63e
000001a0: 6ac4 543e 401b 7fbe 4fde fabe 7d25 ac3e
000001b0: 7887 333f 8d82 0b3f 7212 30be ef7c e0be
000001c0: e396 b73e 7bcf b63e 38ad aa3e 05ab 813e
000001d0: 1192 75bf 63a6 2bbe 04ea 213f 3af2 ba3e
000001e0: 393b 4e3e f6a6 1c3f ca82 2b3e 3115 ef3e
000001f0: 078c d43e de0e ef3e 14cc 553f f4cf d43d
00000200: 62b8 f73e e6d2 cc3e 8a7e 1d3d 645d 133f
00000210: 4b0e c43d 2e21 39bf 05dd 38bf 95f8 ddbe
00000220: f3f7 c8be 6e78 863b 62af 6c3f 5386 893e
00000230: e129 d53e eaee d33e 6f05 953e 9abc fabd
00000240: 4dfd 3fbf 80e2 3b3d e874 193f db93 b53d
00000250: 1a89 31bf 9140 39bf 4126 1a3f 6bf5 173f
00000260: da85 53be 9fcc e23e 3f2c 673e 85ee 7f3e
00000270: 8f09 c33e c6c0 233f 7e6c 5a3e e98c d33e

net.theta1a.bias f4 [32]
-0.04873853 -0.43039984 0.1871904 -0.058970533 -0.24583252 0.15350614 0.21107183 -0.2692716
0.2232241 0.24617022 -0.28342286 0.102015436 0.39990073 -0.05183573 0.36019492 -0.026678614
0.40887386 0.018099666 0.0049678087 0.0651615 0.39447683 0.15742208 0.28234342 0.18522741
-0.20344073 0.00041686793 0.06763083 -0.0003419071 -0.08679812 0.024416104 0.38437322 0.09770993
00000000: 0ea2 47bd 5e5d dcbe d7ae 3f3e 168b 71bd
00000010: 85bb 7bbe b730 1d3e 3723 583e f8dd 89be
00000020: dc94 643e 0c14 7c3e cd1c 91be 78ed d03d
00000030: cabf cc3e b451 54bd 786b b83e 1c8d dabc
00000040: ea57 d13e c045 943c 00c9 a23b 6473 853d
00000050: def8 c93e 4133 213e 518f 903e 41ac 3d3e
00000060: c452 50be 118f da39 0882 8a3d ff41 b3b9
00000070: 36c3 b1bd 4804 c83c 91cc c43e 251c c83d

net.theta1b.weight f4 [32, 32]
0.016738683 0.041684538 -0.07976875 -0.033761162 -0.08303538 -0.036401704 0.05379238 -0.062407427
0.007413462 -0.08804468 0.11668391 0.042897843 0.04062191 0.045803677 -0.16342708 0.14224477
0.015444733 0.022090344 0.06567404 -0.02086035 0.11672169 0.15709072 0.11227098 -0.03541157
-0.13100876 0.08231755 0.16734244 -0.14135772 0.144088 -0.13403247 -0.11389241 -0.15403295
0.098571815 0.14316085 0.11126433 -0.18913946 0.048911605 0.09193109 -0.07583274 0.11639556
-0.21069036 0.13102639 -0.113608226 -0.15207008 -0.1767523 -0.5730717 -0.063958645 -0.51671386
0.16240028 0.09559427 0.004027075 0.03363493 0.1609877 -0.23136343 -0.17837846 -0.0834165
0.037541997 0.06247282 -0.3205061 -0.68071574 -0.18323022 -0.5657072 -0.16639511 -0.08663842
-0.10325442 -0.10905469 0.1548956 -0.049201515 -0.045155585 -0.007538301 -0.050082427 0.12946363
0.12906893 -0.08557968 0.034595545 0.15735717 0.13898063 0.09085303 0.076124854 -0.059837356
-0.045671314 -0.033378955 -0.17393047 -0.08407938 -0.10095639 -0.1232126 0.1518338 -0.06533331
0.12096139 0.063500635 0.09503783 -0.14458416 0.008534589 -0.12564737 -0.0020379475 0.024958646
0.1675819 0.0043766764 -0.015047359 -0.07608809 0.08554514 0.12646432 -0.023941172 -0.11548548
0.08064802 0.16334786 -0.172905 0.03519858 -0.15285663 -0.12527688 -0.14023542 0.06003477
-0.059229836 0.046549212 0.11963034 0.13526152 0.03265015 -0.17356506 0.06266286 -0.029389039
-0.17594336 0.15987226 -0.012756201 -0.15906481 0.035952725 -0.028958041 0.14708538 -0.07603994
-0.30921432 0.10309914 -0.10538823 0.037161507 -0.009227673 -0.3689558 0.20820989 0.27552482
-0.23066276 0.0908125 -0.27995488 -0.16738422 -0.33003438 -0.59066135 0.008256369 -0.624285
-0.13937011 0.112832434 0.01637115 0.12268312 -0.013887788 -0.41172844 -0.09671668 -0.032031666
0.387571 0.2058811 -0.15618278 -0.64031637 -0.22068739 -0.60942304 0.10974843 -0.007033213
-0.07572455 0.16822733 0.0445936 0.019875022 0.1349325 0.23977137 0.111967616 -0.12163246
-0.07310029 0.017741269 0.39797962 -0.21753262 0.022977527 0.24158816 0.18420155 0.2181328
0.035921823 -0.06920441 0.31636146 0.13362336 -0.055310227 0.10122304 0.09985053 -0.015764644
-0.34649336 -0.08903762 0.1193849 0.38420257 0.10178569 0.13748465 0.11471787 -0.17399693
0.022223126 -0.13924433 0.10932679 0.09721681 -0.10159925 0.2788214 0.2588411 -0.13926725
0.101956196 0.05691308 0.4654259 0.10291226 0.12278867 0.45868123 0.22660562 0.39524847
-0.03255725 0.005840944 0.35695562 0.17817125 -0.10948677 -0.036426466 -0.02731974 0.033142895
-0.24590607 -0.11206729 -0.03148899 0.5353443 0.15147096 0.34275213 -0.1250944 0.0088978745
-0.1024753 0.03747683 -0.055955313 -0.057016697 0.16880155 -0.15192033 -0.15476821 -0.13519415
-0.004932488 -0.098356016 -0.12859015 -0.124457285 0.12553357 -0.10835405 -0.16634272 -0.06881632
-0.14097442 -0.13159576 0.0965898 0.13464388 -0.048757814 0.0017839497 -0.09549635 -0.17559351
0.12678088 0.1741485 -0.09118108 -0.0433568 -0.04165986 -0.1648465 0.035625994 -0.096036755
00000000: 901f 893c 68bd 2a3d cc5d a3bd 2549 0abd
00000010: 740e aabd f419 15bd 6655 5c3d ee9e 7fbd
00000020: a0ec f23b c550 b4bd f9f7 ee3d a6b5 2f3d
00000030: 2963 263d a39c 3b3d 6e59 27be 9da8 113e
00000040: e80b 7d3c cff6 b43c 1c80 863d 53e3 aabc
00000050: c80b ef3d 64dc 203e 54ee e53d b90b 11bd
00000060: 2927 06be 1b96 a83d d15b 2b3e 14c0 10be
00000070: ce8b 133e cf3f 09be 6d40 e9bd d0ba 1dbe
00000080: 05e0 c93d c298 123e 8ede e33d c6ad 41be
00000090: 8957 483d 5e46 bc3d 324e 9bbd cc60 ee3d
000000a0: 37bf 57be c82b 063e 6eab e8bd 42b8 1bbe
000000b0: 8efe 34be d4b4 12bf c0fc 82bd 5c47 04bf
000000c0: 424c 263e eec6 c33d 8ef5 833b c8c4 093d
000000d0: f6d9 243e 89ea 6cbe d8a8 36be 45d6 aabd
000000e0: a3c5 193d 80e3 7f3d 6019 a4be 6343 2ebf
000000f0: b4a0 3bbe 30d2 10bf 7b63 2abe 7c6f b1bd
00000100: 0e77 d3bd 1158 dfbd f49c 1e3e 8787 49bd
00000110: 10f5 38bd da03 f7bb 3b23 4dbd 1d92 043e
00000120: a52a 043e 6644 afbd 0fb4 0d3d 3d22 213e
00000130: f050 0e3e 2711 ba3d 59e7 9b3d 0418 75bd
00000140: d811 3bbd 5fb8 08bd d41a 32be cf31 acbd
00000150: 39c2 cebd e356 fcbd 527a 1b3e 78cd 85bd
00000160: 9bba f73d 9f0c 823d 32a3 c23d df0d 14be
00000170: a9d4 0b3c b4a9 00be 168f 05bb 1376 cc3c
00000180: 979a 2b3e 396a 8f3b 3389 76bc 13d4 9bbd
00000190: 4a32 af3d dd7f 013e 4720 c4bc a783 ecbd
000001a0: ca2a a53d a944 273e 020e 31be 632c 103d
000001b0: 7386 1cbe 9548 00be e099 0fbe 05e7 753d
000001c0: fc9a 72bd 63aa 3e3d c000 f53d ff81 0a3e
000001d0: 2abc 053d 0abb 31be 6355 803d 48c1 f0bc
000001e0: 7f2a 34be 8eb5 233e 63ff 50bc e3e1 22be
000001f0: 2a43 133d 6a39 edbc 8d9d 163e d4ba 9bbd
00000200: 5751 9ebe a425 d33d c9d5 d7bd aa36 183d
00000210: aa2f 17bc c6e7 bcbe f934 553e 9711 8d3e
00000220: dc32 6cbe e7fb b93d 3f56 8fbe c566 2bbe
00000230: 44fa a8be 9535 17bf b945 073c 24d1 1fbf
00000240: 0ab7 0ebe b114 e73d ca1c 863c 4a41 fb3d
00000250: 9b89 63bc 12ce d2be 6513 c6bd a333 03bd
00000260: b56f c63e 7fd2 523e 61ee 1fbe c6eb 23bf
00000270: e0fb 61be 2603 1cbf c9c3 e03d de76 e6bb
00000280: 7915 9bbd c943 2c3e c7a7 363d f1d0 a23c
00000290: bf2b 0a3e a086 753e 474f e53d 701a f9bd
000002a0: 9bb5 95bd 2356 913c fcc3 cb3e dfc0 5ebe
000002b0: 5e3b bc3c e362 773e 559f 3c3e 345e 5f3e
000002c0: c322 133d 0bbb 8dbd 21fa a13e 90d4 083e
000002d0: fa8c 62bd 064e cf3d 6f7e cc3d db24 81bc
000002e0: 9467 b1be 5b59 b6bd 1280 f43d 33b6 c43e
000002f0: 0475 d03d c7c8 0c3e 34f1 ea3d 402c 32be
00000300: 460d b63c 1196 0ebe b9e6 df3d 9b19 c73d
00000310: 4513 d0bd aec1 8e3e d286 843e 139c 0ebe
00000320: 69ce d03d b11d 693d 4e4c ee3e aac3 d23d
00000330: a078 fb3d 44d8 ea3e 4e0b 683e 025e ca3e
00000340: c05a 05bd 6465 bf3b e3c2 b63e 8672 363e
00000350: 9a3a e0bd eb33 15bd a6cd dfbc d8c0 073d
00000360: cdce 7bbe 8983 e5bd 99fa 00bd 530c 093f
00000370: 341b 1b3e 357d af3e bf18 00be 64c8 113c
00000380: 92de d1bd 4e81 193d 6631 65bd 578a 69bd
00000390: 50da 2c3e 0191 1bbe 8f7b 1ebe 5670 0abe
000003a0: b5a0 a1bb e16e c9bd 23ad 03be 76e3 febd
000003b0: df8b 003e bae8 ddbd bf55 2abe 92ef 8cbd
000003c0: 995b 10be 0ac1 06be e0d0 c53d 16e0 093e
000003d0: 46b6 47bd 6bd3 e93a 9793 c3bd c9ce 33be
000003e0: d9d2 013e fc53 323e 25bd babd e696 31bd
000003f0: 88a3 2abd 85cd 28be 90ec 113d ebae c4bd

net.theta1b.bias f4 [32]
0.009350594 -0.032978784 0.06482173 0.07766666 0.01309265 -0.165226 0.09023443 0.15113887
-0.011810983 0.06787716 0.09255855 -0.10809175 -0.04923643 -0.062752314 0.10862224 -0.09731809
-0.015666068 -0.09691352 -0.058369093 0.052523773 -0.032816857 0.0502386 -0.1570903 0.10557024
-0.12310436 -0.12222612 -0.066788636 0.013764229 -0.0467005 -0.036792923 0.0045293537 0.021836536
00000000: 3c33 193c c314 07bd 41c1 843d b30f 9f3d
00000010: 8e82 563c 0131 29be d4cc b83d 26c4 1a3e
00000020: da82 41bc 2e03 8b3d 568f bd3d 355f ddbd
00000030: 24ac 49bd 4984 80bd 5675 de3d b54e c7bd
00000040: 2056 80bc 987a c6bd 6e14 6fbd 2b23 573d
00000050: f86a 06bd fdc6 4d3d 48dc 20be 3635 d83d
00000060: 241e fcbd b051 fabd 7bc8 88bd 5c83 613c
00000070: 0649 3fbd 2db4 16bd f96a 943b 89e2 b23c

net.theta2.weight f4 [32, 32]
-0.051651638 0.101912744 0.058310524 0.11930559 0.07767689 0.0055520465 -0.057340786 -0.17123505
-0.08079058 -0.14783756 -0.103053935 -0.05875732 0.167577 -0.109481834 -0.083948426 -0.11915026
0.050730243 -0.023028385 0.048067447 -0.11057234 0.071206994 -0.109242395 -0.11349822 -0.03145276
-0.065508105 0.11919866 -0.13854103 -0.13543569 0.11877763 -0.054215852 -0.0921242 -0.13904592
0.022598233 -0.09685346 -0.10167584 0.070885204 0.1215176 -0.09377997 -0.117162116 -0.16783701
-0.15585813 -0.039372236 -0.093800694 -0.184561 -0.0800723 0.10151058 0.016054364 -0.018524934
-0.15203851 -0.1191304 -0.030045984 0.02276126 0.13767827 -0.050128534 -0.11671105 0.35714325
0.14742261 -0.11283971 0.08292177 0.1393981 -0.011165185 0.146277 -0.17516527 -0.006723857
0.17676958 0.024087409 0.115984224 -0.032326844 -0.11877616 -0.15490629 -0.14682363 0.087074906
0.15171714 -0.007190969 -0.08380212 0.037925966 0.1619607 -0.15000027 -0.15898716 -0.03948485
0.17196146 -0.05434933 0.021729777 -0.12238477 -0.14971775 -0.09904162 -0.0063761435 0.11010847
-0.05052996 0.09949996 0.16218574 0.06005144 -0.10404784 0.03069949 -0.008651884 -0.05783321
0.16583613 -0.06599406 -0.091327205 0.09342266 0.14961785 -0.115254804 0.09987934 -0.04590759
0.12839831 0.06679818 -0.11211517 -0.13337393 0.119742446 -0.035448134 0.07411991 0.026806848
0.13120902 0.025802279 0.15825358 -0.0029528756 0.0967624 0.1579447 -0.015731664 -0.07246993
0.13520369 0.13772207 -0.10141615 0.034470644 -0.073876955 0.0045939265 -0.030125815 -0.1269188
0.1544723 0.082712635 0.16243336 -0.102152325 -0.11198301 0.12436022 0.027568657 -0.11176324
-0.15645483 0.030865401 0.1358912 0.015620818 -0.091871895 -0.07475026 0.13197045 0.049799994
-0.09996916 -0.05536174 -0.12462604 -0.15173848 0.043371 -0.17061645 -0.03182614 0.7590477
0.042791717 -0.13875121 0.106174774 0.12853065 0.166582 -0.10807574 0.03749441 0.16120438
0.076282024 -0.10127863 0.12378632 -0.033919953 0.09544041 -0.17073812 -0.08822253 0.025996871
0.13755767 0.09052823 0.018293038 -0.023654694 -0.14594202 -0.15210648 0.08173499 0.084437996
-0.17160231 0.047886554 0.153224 0.11031261 -0.040486176 -0.16294296 0.06906557 -0.52701795
0.061812103 -0.035065867 -0.08143413 -0.16775538 -0.16138642 0.0026246351 -0.050012466 -0.17319256
0.12573558 0.04505168 0.14478578 0.16712153 0.034603454 -0.18465637 -0.05983219 -0.15340917
-0.19506723 0.15163188 -0.12722315 -0.02857934 0.069436856 -0.13305952 -0.0022774346 -0.20454298
-0.15819518 0.072499424 -0.04802203 -0.13698198 -0.021652525 -0.048808746 -0.11049566 0.026529826
0.1411578 0.016054135 0.08525093 0.0798941 -0.031106966 -0.044355813 -0.11199924 -0.0038393221
-0.11112813 0.0007414473 -0.07346486 -0.043050203 0.12719914 -0.08954755 -0.12349355 0.12152879
0.020120336 -0.0024486687 -0.012050669 0.04140755 -0.055928804 0.115665786 -0.026658282 0.0016489322
-0.0539235 0.129007 0.1645485 -0.045694094 0.10951551 -0.17059325 0.050442316 -0.01584947
-0.09784488 -0.060822915 0.021092074 0.06488686 -0.16558231 -0.0040236544 0.0670291 0.03679763
00000000: ab90 53bd a1b7 d03d 04d7 6e3d 7d56 f43d
00000010: 1015 9f3d f1ed b53b 2cde 6abd 3e58 2fbe
00000020: 8875 a5bd bb62 17be f10d d3bd 84ab 70bd
00000030: 4e99 2b3e 0338 e0bd 27ed abbd 0d05 f4bd
00000040: 84ca 4f3d 06a6 bcbc 5fe2 443d c073 e2bd
00000050: f9d4 913d 7aba dfbd c171 e8bd 9cd4 00bd
00000060: 1d29 86bd 6d1e f43d b3dd 0dbe a7af 0abe
00000070: b041 f33d 7111 5ebd 9dab bcbd 0e62 0ebe
00000080: ee1f b93c 1b5b c6bd 6c3b d0bd 432c 913d
00000090: 38de f83d b70f c0bd b1f2 efbd 77dd 2bbe
000000a0: 4699 1fbe c844 21bd 941a c0bd 8ffd 3cbe
000000b0: f2fc a3bd c7e4 cf3d 7184 833c 9ac1 97bc
000000c0: fcaf 1bbe a4fa f3bd ff22 f6bc d275 ba3c
000000d0: 88fb 0c3e 9453 4dbd 3406 efbd 7bdb b63e
000000e0: f4f5 163e 8218 e7bd e4d2 a93d 60be 0e3e
000000f0: 2eee 36bc a3c9 153e 865e 33be cd53 dcbb
00000100: 1603 353e f552 c53c 2389 ed3d 2769 04bd
00000110: ea40 f3bd c19f 1ebe ef58 16be 5454 b23d
00000120: bd5b 1b3e 38a2 ebbb 72a0 abbd 4258 1b3d
00000130: 07d9 253e ac99 19be 88cd 22be deba 21bd
00000140: aa16 303e 679d 5ebd a502 b23c dea4 fabd
00000150: 9c4f 19be 55d6 cabd f8ee d0bb 8d80 e13d
00000160: 81f8 4ebd a3c6 cb3d 0514 263e 80f8 753d
00000170: 0917 d5bd 7f7d fb3c a2c0 0dbc 84e2 6cbd
00000180: f2d0 293e e527 87bd c209 bbbd 6154 bf3d
00000190: 6c35 193e b60a ecbd 8a8d cc3d 9909 3cbd
000001a0: d97a 033e 7ccd 883d a39c e5bd 2d93 08be
000001b0: 873b f53d 1032 11bd 2ecc 973d 099a db3c
000001c0: a85b 063e 4d5f d33c 3a0d 223e 0885 41bb
000001d0: 5d2b c63d 41bc 213e b1df 80bc 1d6b 94bd
000001e0: d672 0a3e 0407 0d3e 45b3 cfbd 1731 0d3d
000001f0: cd4c 97bd a688 963b 6aca f6bc 00f7 01be
00000200: fd2d 1e3e 3e65 a93d ee54 263e 3d35 d1bd
00000210: 5957 e5bd 92b0 fe3d aad7 e13c 20e4 e4bd
00000220: b235 20be 70d9 fc3c 1027 0b3e 76ee 7f3c
00000230: 5527 bcbd aa16 99bd 4323 073e 14fb 4b3d
00000240: a2bc ccbd fec2 62bd f03b ffbd 5561 1bbe
00000250: caa5 313d 14b6 2ebe 205c 02bd f350 423f
00000260: 5e46 2f3d cc14 0ebe 2972 d93d 8a9d 033e
00000270: 7994 2a3e d056 ddbd bd93 193d c312 253e
00000280: c039 9c3d 2c6b cfbd af83 fd3d a6ef 0abd
00000290: 4376 c33d f9d5 2ebe 04ae b4bd 64f7 d43c
000002a0: ebdb 0c3e dd66 b93d 48db 953c 7dc7 c1bc
000002b0: d371 15be cdc1 1bbe ad64 a73d d4ed ac3d
000002c0: 84b8 2fbe b124 443d c1e6 1c3e 94eb e13d
000002d0: d5d4 25bd 85da 26be 4072 8d3d a6ea 06bf
000002e0: b02e 7d3d 3aa1 0fbd f0c6 a6bd 11c8 2bbe
000002f0: 7b42 25be 1202 2c3b dfd9 4cbd 6459 31be
00000300: d4c0 003e 1c88 383d b942 143e e821 2b3e
00000310: 5abc 0d3d 8f16 3dbe 9912 75bd 4b17 1dbe
00000320: b4bf 47be 6345 1b3e c946 02be 381f eabc
00000330: e934 8e3d c140 08be 0341 15bb b773 51be
00000340: ebfd 21be 947a 943d c0b2 44bd 0145 0cbe
00000350: a360 b1bc aeeb 47bd 8c4b e2bd 1455 d93c
00000360: ac8b 103e f683 833c 0a98 ae3d 859f a33d
00000370: 09d4 febc 71ae 35bd dc5f e5bd 239d 7bbb
00000380: 2597 e3bd b05d 423a bf74 96bd 6955 30bd
00000390: 7e40 023e b564 b7bd 30ea fcbd 16e4 f83d
000003a0: 67d3 a43c d879 20bb 2b70 45bc f79a 293d
000003b0: 9a15 65bd 2fe2 ec3d 7862 dabc fc20 d83a
000003c0: e3de 5cbd 691a 043e 677f 283e bb29 3bbd
000003d0: ab49 e03d ffaf 2ebe 9a9c 4e3d bfd6 81bc
000003e0: e562 c8bd 7321 79bd 49c9 ac3c 67e3 843d
000003f0: 698e 29be dcd8 83bb 8e46 893d 1db9 163d

net.theta2.bias f4 [32]
0.13613984 0.14933467 0.016163906 -0.006774349 0.02927891 -0.19082087 -0.050304797 0.12516794
0.034868363 -0.11598684 0.17055249 -0.096631825 0.038114633 -0.08079525 -0.16139756 -0.15671586
-0.078944035 -0.005324538 0.0111422185 -0.16947708 0.14919052 0.13363121 -0.13444118 0.1678376
0.017882843 0.12388024 0.111910895 0.1404533 0.026304249 -0.18878455 -0.15117075 -0.109370105
00000000: 3e68 0b3e 30eb 183e 2b6a 843c 5cfb ddbb
00000010: 53da ef3c 8c66 43be 670c 4ebd 062c 003e
00000020: 21d2 0e3d 828a edbd 50a5 2e3e e8e6 c5bd
00000030: 171e 1c3d fb77 a5bd 6745 25be 1f7a 20be
00000040: 69ad a1bd 7679 aebb da8d 363c 668b 2dbe
00000050: 66c5 183e 9fd6 083e f3aa 09be 9fdd 2b3e
00000060: 0a7f 923c ecb4 fd3d 8a31 e53d fdd2 0f3e
00000070: 027c d73c bd50 41be 81cc 1abe 6ffd dfbd

net.theta3.weight f4 [32, 32]
-0.08453357 -0.12109605 -0.12080152 -0.12835647 -0.022419805 -0.037221 0.10018137 0.15213239
0.05020246 -0.056740277 -0.0049820733 -0.033079732 0.039771978 0.12728874 -0.07091087 -0.04350969
-0.12788132 -0.012372565 -0.054245394 0.16162644 0.095557526 0.13074593 -0.13268262 0.15165623
0.13672933 0.019292235 -0.020273266 -0.069970556 0.117506884 0.11398019 0.055875342 0.09463276
0.12243654 0.12367771 0.059972227 0.06620803 -0.13523299 -0.023265837 -0.09639131 -0.00012720209
-0.014202707 -0.15603682 0.03985487 0.05607411 0.070562564 0.12858483 -0.016598286 -0.070053026
-0.10911627 -0.012149494 0.061723664 0.16560826 0.023591014 -0.19608934 0.13574074 0.106561854
-0.042299952 0.08665282 0.09504322 -0.12903753 -0.026429892 -0.08929284 -0.025010306 -0.029583674
-0.1737359 -0.097168125 0.02521077 -0.10966682 -0.17532395 0.04923506 0.007660527 0.14634606
-0.0252149 0.08268345 -0.07406499 0.16412376 -0.12577231 -0.061038222 -0.03482238 0.14661016
-0.11985543 -0.029421428 0.027530996 -0.09945309 0.117423564 -0.13592318 0.058832552 -0.079511315
0.11477004 0.10059557 0.11515421 0.054210033 -0.12617257 0.09311189 0.023063598 0.16975603
-0.018199911 0.17079405 0.034390345 -0.05720447 0.04423975 0.12472777 -0.01150845 -0.07199262
0.06884932 -0.028855706 0.0086025745 -0.008195135 -0.035130657 0.088444985 -0.16352634 -0.028994739
0.019682309 -0.028475787 -0.17779031 0.15171538 0.13097346 0.010759082 0.068147704 0.04953871
0.14749137 0.14923042 0.084683985 -0.111243814 -0.14205387 0.0063139773 -0.15190119 0.16339469
-0.044242345 -0.197434 -0.11620377 -0.16590625 -0.09855771 0.15813695 -0.027140273 -0.07050049
0.10069128 0.17085642 -0.06555274 -0.099817924 0.16194206 -0.07319562 -0.056986913 -0.08569443
0.095737346 0.15840895 -0.10565144 0.16441932 0.06202668 -0.19768992 0.10066921 0.1720316
-0.093238026 0.09064354 0.10135625 0.029986251 0.057223976 -0.04471696 0.14319773 -0.090333976
0.05555583 -0.07006791 -0.06456114 0.12575549 -0.16030812 0.15286781 -0.06987796 0.08764424
-0.04798729 -0.18444352 0.11049928 0.02816556 0.021131743 0.10725276 -0.18579565 0.15179516
0.024841188 0.1359614 -0.13871779 -0.077764414 -0.06325903 0.15672003 0.03194016 -0.13459261
-0.17293993 -0.12135561 0.1299803 -0.08400029 -0.0638296 -0.1050153 0.06587364 0.13168852
-0.09253213 0.1403575 0.10679835 0.15515985 -0.16237162 0.046734445 -0.026481286 -0.009410312
-0.030018281 0.005120331 0.19431211 -0.15223737 0.054255057 0.13268498 0.07987032 0.1703339
-0.15538366 0.15850438 0.0332864 0.080834955 -0.10949541 -0.022120161 0.15615883 0.11379167
0.056125157 0.047224447 -0.10929591 -0.11765622 0.06838348 -0.078033224 0.095435634 -0.05307538
-0.120376624 -0.14367291 0.007944534 0.020163516 -0.03213438 -0.14273909 -0.15311745 -0.016793832
0.058555458 0.07498076 -0.07543734 -0.10984906 -0.0782437 -0.051068388 0.08196772 0.110727
-0.056326967 0.10172291 0.11146543 0.09227161 0.12400315 -0.10729835 0.039109934 0.112434074
0.08894551 0.16418628 -0.058714774 -0.111669086 -0.0624155 0.11569019 0.025671223 -0.11889737
00000000: f01f adbd 3501 f8bd ca66 f7bd e16f 03be
00000010: bda9 b7bc 0c75 18bd e42b cd3d 98c8 1b3e
00000020: 18a1 4d3d 7e68 68bd a940 a3bb 9d7e 07bd
00000030: f1e7 223d fb57 023e b839 91bd 3737 32bd
00000040: 52f3 02be 4db6 4abc 6b30 5ebd 6781 253e
00000050: aab3 c33d 43e2 053e f4dd 07be c54b 1b3e
00000060: c602 0c3e c00a 9e3c 1f14 a6bc b94c 8fbd
00000070: 73a7 f03d 726e e93d 8bdd 643d d2ce c13d
00000080: 02c0 fa3d bd4a fd3d 70a5 753d 1398 873d
00000090: 847a 0abe ff97 bebc cf68 c5bd 8d61 05b9
000000a0: 79b2 68bc 1ec8 1fbe dc3e 233d f7ad 653d
000000b0: 1b83 903d beab 033e 21f9 87bc f677 8fbd
000000c0: 5a78 dfbd ac0e 47bc f4d1 7c3d 3695 293e
000000d0: f141 c13c a5cb 48be 9fff 0a3e 1a3d da3d
000000e0: b742 2dbd 0977 b13d 05a6 c23d 6a22 04be
000000f0: 8083 d8bc 2adf b6bd 6ae2 ccbc 7659 f2bc
00000100: d3e7 31be 1500 c7bd d186 ce3c ff98 e0bd
00000110: 1f88 33be b4aa 493d 2805 fb3b bedb 153e
00000120: 7a8f cebc f155 a93d 63af 97bd 0f10 283e
00000130: 75ca 00be 3703 7abd e9a1 0ebd f920 163e
00000140: c476 f5bd 3505 f1bc af88 e13c 10ae cbbd
00000150: c47b f03d 722f 0bbe 67fa 703d d4d6 a2bd
00000160: 8e0c eb3d 0d05 ce3d f8d5 eb3d 570b 5e3d
00000170: 6233 01be 72b1 be3d dfef bc3c 86d4 2d3e
00000180: fb17 95bc a3e4 2e3e e4dc 0c3d 3c4f 6abd
00000190: bd34 353d 4671 ff3d f08d 3cbc de70 93bd
000001a0: df00 8d3d cd62 ecbc d0f1 0c3c e344 06bc
000001b0: 2ae5 0fbd a522 b53d 7373 27be 6086 edbc
000001c0: cb3c a13c 0e46 e9bc aa0e 36be 475b 1b3e
000001d0: e81d 063e dc46 303c 0691 8b3d 1ae9 4a3d
000001e0: fa07 173e dccf 183e cc6e ad3d ccd3 e3bd
000001f0: 9276 11be 7be5 ce3b fc8b 1bbe f050 273e
00000200: 7637 35bd 232c 4abe 3efc edbd 54e3 29be
00000210: a0d8 c9bd a7ee 213e 4755 debc 9062 90bd
00000220: 3b37 ce3d fcf4 2e3e 8440 86bd 576d ccbd
00000230: 24d4 253e 96e7 95bd 1c6b 69bd 9080 afbd
00000240: f111 c43d f535 223e c85f d8bd 8a5d 283e
00000250: b00f 7e3d 3a6f 4abe a92b ce3d 0d29 303e
00000260: 94f3 bebd 52a3 b93d de93 cf3d baa5 f53c
00000270: b063 6a3d 2229 37bd 6da2 123e 0501 b9bd
00000280: 838e 633d c47f 8fbd a238 84bd 0cc6 003e
00000290: d027 24be 6189 1c3e 2d1c 8fbd d37e b33d
000002a0: 528e 44bd c3de 3cbe 724d e23d 76bb e63c
000002b0: 7a1c ad3c 56a7 db3d 3741 3ebe 3170 1b3e
000002c0: bf7f cb3c 7739 0b3e 090c 0ebe f342 9fbd
000002d0: f38d 81bd 377b 203e afd3 023d a5d2 09be
000002e0: 2a17 31be 4a89 f8bd 8e19 053e 5808 acbd
000002f0: 18b9 82bd 4312 d7bd c2e8 863d 5bd9 063e
00000300: 7c81 bdbd e0b9 0f3e 18b9 da3d 39e2 1e3e
00000310: bf44 26be 9e6c 3f3d 48ef d8bc b62d 1abc
00000320: e6e8 f5bc 73c8 a73b c1f9 463e 1de4 1bbe
00000330: 8d3a 5e3d 92de 073e 0d93 a33d 036c 2e3e
00000340: e51c 1fbe f94e 223e 5257 083d cc8c a53d
00000350: 213f e0bd 5735 b5bc 1ae8 1f3e 9b0b e93d
00000360: 7ee3 653d 6c6e 413d 89d6 dfbd bff5 f0bd
00000370: a30c 8c3d e2cf 9fbd c273 c33d 9265 59bd
00000380: 0588 f6bd fe1e 13be ca29 023c f52d a53c
00000390: 579f 03bd 322a 12be d2ca 1cbe 3893 89bc
000003a0: d9d7 6f3d 838f 993d e47e 9abd 8bf8 e0bd
000003b0: 3c3e a0bd 162d 51bd b1de a73d d6c4 e23d
000003c0: 1bb7 66bd 1a54 d03d fd47 e43d e6f8 bc3d
000003d0: 5df5 fd3d 3dbf dbbd bd31 203d d643 e63d
000003e0: 1029 b63d 7320 283e e77e 70bd c3b2 e4bd
000003f0: 65a7 7fbd faee ec3d 754c d23c 7780 f3bd

net.theta3.bias f4 [32]
-0.15030201 0.13932817 -0.03628907 0.030401293 -0.10675636 0.03717149 -0.07998455 0.09168613
0.079239644 -0.049823686 0.08159221 0.01133362 -0.10768426 0.013329783 -0.08340988 -0.10046787
0.08396341 -0.082983814 -0.17736122 -0.0905175 -0.02826422 0.025175698 0.0058123507 -0.06504212
0.0052282056 0.05653878 -0.02621016 0.12203138 0.06369162 -0.04104931 -0.12279936 0.02574829
00000000: c5e8 19be 0bac 0e3e d9a3 14bd 220c f93c
00000010: 14a3 dabd 2241 183d f1ce a3bd f0c5 bb3d
00000020: 6548 a23d ec13 4cbd d119 a73d a6b0 393c
00000030: 9189 dcbd 2a65 5a3c cdd2 aabd 19c2 cdbd
00000040: 02f5 ab3d 6bf3 a9bd 2e9e 35be 3d61 b9bd
00000050: 5e8a e7bc 443d ce3c 8875 be3b ce34 85bd
00000060: 5e51 ab3b 3595 673d b1b6 d6bc 97eb f93d
00000070: c170 823d 5223 28bd 3b7e fbbd 14ee d23c

net.theta4.weight f4 [32, 1]
-0.5923641 0.74498576 0.75576466 -0.018029599 -0.8188367 0.641284 0.67646456 0.46157932
0.84389395 -0.69806707 0.86285603 -0.53343874 0.85326356 0.3801213 0.9778086 -0.865576
0.83687013 0.1098811 -0.8753077 0.47633684 -0.21891546 0.52637583 -0.14627278 -0.22009563
0.587313 -0.45049107 0.81967974 0.45104018 0.27967957 0.47502315 0.5832223 -0.09111023
00000000: 2ca5 17bf 63b7 3e3f cb79 413f cfb2 93bc
00000010: 489f 51bf 302b 243f c82c 2d3f 2054 ec3e
00000020: 6f09 583f 86b4 32bf 22e4 5c3f 718f 08bf
00000030: 7b6f 5a3f 429f c23e aa51 7a3f 6496 5dbf
00000040: 1f3d 563f 5809 e13d 2a14 60bf 6ce2 f33e
00000050: 602b 60be 91c0 063f 88c8 15be c060 61be
00000060: 255a 163f c4a6 e6be 88d6 513f bdee e63e
00000070: 2932 8f3e 3c36 f33e 0f4e 153f 0098 babd

net.theta4.bias f4 [32]
0.95770186 -0.6446794 0.25527874 0.8891038 0.4245891 0.7488925 -0.6773014 0.86054444
0.5126726 0.18418571 -0.0612643 0.8274962 0.95081544 0.049245086 0.6937242 0.07133139
-0.3356178 0.61127377 0.24455714 -0.5710025 0.16026197 -0.1805537 0.15150644 -0.7900821
0.07652804 -0.03732717 -0.46347103 -0.09062977 -0.22129045 -0.77712953 0.262858 0.24954236
00000000: f32b 753f b609 25bf e5b3 823e 4e9c 633f
00000010: be63 d93e 6bb7 3f3f a063 2dbf a44c 5c3f
00000020: 833e 033f 2e9b 3c3e 46f0 7abd cad6 533f
00000030: a468 733f 37b5 493d e997 313f 3116 923d
00000040: 19d6 abbe 707c 1c3f 306d 7a3e 382d 12bf
00000050: b71b 243e 12e3 38be 8124 1b3e d242 4abf
00000060: bcba 9c3d 60e4 18bd 134c edbe 1a9c b9bd
00000070: f799 62be f6f1 46bf 5395 863e 0888 7f3e

net.theta5.weight f4 [1, 64]
-0.12267086 -0.050924372 -0.10639538 -0.061703008 -0.08929744 0.054193646 -0.041670356 0.16873842
0.066840135 0.020015284 -0.089547515 -0.039503247 -0.11921467 0.0731711 -0.07398701 0.04500414
-0.07453806 -0.05353166 -0.041094307 -0.009668171 0.059628993 0.08862372 -0.08501203 -0.06851548
-0.11176509 0.08898741 -0.109141216 -0.009846568 0.02142501 -0.040759593 -0.006010413 -0.117303334
-0.071504496 -0.09463745 0.15170947 0.103591345 -0.07867855 0.030210108 0.1234648 0.029338956
0.0345803 0.11386912 0.008770304 0.14530748 -0.12953888 -0.07201514 -0.29577407 -0.15498026
-0.067116916 -0.07263592 0.0017219414 -0.1504235 -0.100740604 -0.10740049 0.103404224 -0.019307695
-0.12588613 -0.10964622 0.16603081 0.10507687 -0.35921818 -0.09999146 0.17859398 -0.110389635
00000000: dc3a fbbd 1396 50bd d2e5 d9bd 4bbc 7cbd
00000010: 94e1 b6bd 28fa 5d3d 89ae 2abd c4c9 2c3e
00000020: 7be3 883d 18f7 a33c b064 b7bd 28ce 21bd
00000030: d226 f4bd bbda 953d 8086 97bd 4356 383d
00000040: 69a7 98bd 0444 5bbd 8152 28bd 4067 1ebc
00000050: 883d 743d 5a80 b53d ca1a aebd d851 8cbd
00000060: 18e5 e4bd 083f b63d 6e85 dfbd 8053 21bc
00000070: 8183 af3c 88f3 26bd 00f3 c4bb bb3c f0bd
00000080: f370 92bd 48d1 c1bd ba59 1b3e b327 d43d
00000090: 3822 a1bd 307b f73c 1ddb fc3d 4058 f03c
000000a0: 13a4 0d3d 3734 e93d 52b1 0f3c 7ccb 143e
000000b0: d7a5 04be ac7c 93bd b36f 97be 25b3 1ebe
000000c0: 9874 89bd 24c2 94bd c4b2 e13a 9e08 1abe
000000d0: 1751 cebd caf4 dbbd 98c5 d33d 2c2b 9ebc
000000e0: 4be8 00be 338e e0bd fb03 2a3e 8b32 d73d
000000f0: 72eb b7be 53c8 ccbd 57e1 363e f613 e2bd

net.theta6.weight f4 [32, 32]
0.10213975 0.16951047 0.0113378605 -0.10437355 0.0877407 -0.010486958 0.15058757 0.08839743
-0.081644386 0.16373293 -0.1732529 0.14448287 -0.16686805 -0.104570016 -0.07991753 -0.07467047
0.11497917 0.16526361 -0.15831754 -0.07551624 -0.028141346 0.13503431 -0.019768199 -0.06899327
0.086719476 0.060445722 0.030469853 -0.09545867 -0.12215977 -0.018403316 0.17415762 0.02171749
0.16637495 0.13523073 0.12502831 -0.074194126 0.1237764 -0.12492397 -0.050829023 -0.044201065
-0.42814273 -0.16374935 -0.07294427 0.14158803 0.014451269 0.006743938 -0.097296886 0.095293835
-0.09634213 0.027539508 0.10556381 0.05644528 -0.39490956 -0.05961605 -0.1891681 0.83014476
-0.06146743 -0.108101904 -0.033434387 -0.07243286 -0.05694545 0.14821433 -0.16105385 -0.024729157
-0.047578987 -0.050507855 -0.13783501 -0.17302902 0.11992612 0.0358389 0.101929076 0.13308032
0.15200263 0.16419773 0.15038429 0.0805782 -0.09984388 0.11018906 0.025146496 0.03560553
-0.15869774 0.08721774 -0.07440919 -0.058724277 0.10929632 0.13479605 -0.09417231 0.17023401
0.0027807436 0.11007113 0.09172722 0.025279384 0.11471101 -0.16453272 0.018623153 -0.09232554
0.049995918 -0.11582984 -0.049983315 -0.09722978 -0.068325855 0.15260625 -0.017315919 -0.00752572
-0.63637453 0.15215348 0.0009267881 -0.06563641 0.039686747 0.06743021 -0.024643768 0.128703
-0.14956467 -0.071994066 -0.03167247 -0.1205839 -0.1976637 -0.025274698 0.07403497 0.5602873
0.07990594 -0.08048162 -0.048191164 -0.07666196 -0.013782335 0.16347484 -0.15130031 -0.12119585
0.12298907 0.16386941 0.08732534 0.13889106 -0.1510524 0.07855167 0.1383079 0.085403904
0.02465561 -0.024877114 -0.13605374 -0.008565905 -0.1320538 -0.16458066 -0.16775788 -0.07488468
-0.120724104 -0.0008996245 -0.08883181 0.04122124 0.17265688 0.09642948 0.17026505 0.06955473
-0.157735 -0.16272523 -0.115596436 -0.16098164 0.06509307 -0.027205221 -0.13556229 -0.16011986
0.10719724 -0.10472923 -0.14421819 0.08152834 -0.19063649 0.03587803 -0.03339271 -0.13832751
0.16502209 0.051481217 0.07695308 -0.035968907 -0.1974767 -0.0818928 0.15359645 -0.009869718
-0.14250556 0.07924577 -8.520601e-05 -0.17343882 0.30244827 0.0224902 0.08483604 -0.21999338
-0.13400398 -0.11814967 -0.12581831 0.006503768 0.0027695957 0.1392898 -0.16899267 -0.13473856
0.1386651 -0.05064366 0.10888362 0.15736988 -0.018974226 0.13403389 -0.07375741 0.1531097
-0.5869429 -0.0695105 0.16413397 0.10304562 -0.117908485 -0.038064674 0.1417081 0.005360203
-0.10517289 -0.10360574 0.092448846 -0.10729989 -0.32907835 -0.105074026 -0.1377517 0.52132654
-0.14333557 0.05968257 -0.24298154 0.016714456 0.07768004 0.044080786 0.10272643 0.09831218
-0.08267098 0.12290851 -0.015086211 0.13684635 -0.14458011 -0.10769865 -0.06452718 0.06962334
0.47895667 0.15397108 -0.03308831 0.023041518 0.112471916 0.033232853 0.10657779 -0.009623717
0.0059545278 0.016202617 0.08383329 0.056381077 0.0965207 -0.12640527 0.285914 -0.92535716
-0.010200315 0.053215284 -0.024555739 0.039844446 0.07351182 -0.057638332 -0.06279777 0.020139197
00000000: a52e d13d 2794 2d3e 6fc2 393c cdc1 d5bd
00000010: 65b1 b33d 7dd1 2bbc a133 1a3e b609 b53d
00000020: 2c35 a7bd 9ba9 273e 3569 31be 51f3 133e
00000030: 75df 2abe ce28 d6bd cdab a3bd d5ec 98bd
00000040: 337a eb3d dd3a 293e fe1d 22be 42a8 9abd
00000050: ae88 e6bc 6f46 0a3e ebf0 a1bc 584c 8dbd
00000060: fb99 b13d ef95 773d ea9b f93c d67f c3bd
00000070: e72e fabd 8dc2 96bc 6056 323e e1e8 b13c
00000080: 325e 2a3e ed79 0a3e 6c07 003e 17f3 97bd
00000090: 7b7e fd3d 23d8 ffbd 1832 50bd 2d0c 35bd
000000a0: 8635 dbbe e9ad 27be ce63 95bd 74fc 103e
000000b0: 04c5 6c3c 41fc dc3b 9743 c7bd 6a29 c33d
000000c0: 064f c5bd 899a e13c d731 d83d 2a33 673d
000000d0: 9631 cabe f62f 74bd 48b5 41be 5e84 543f
000000e0: 46c5 7bbd 8864 ddbd 7ff2 08bd ae57 94bd
000000f0: a23f 69bd 7fc5 173e 4deb 24be cd94 cabc
00000100: 2fe2 42bd 53e1 4ebd 9f24 0dbe 852e 31be
00000110: d39b f53d cfcb 123d 31c0 d03d 3546 083e
00000120: 94a6 1b3e 7323 283e 57fe 193e 2f06 a53d
00000130: f37a ccbd cdaa e13d 0600 ce3c 1bd7 113d
00000140: a981 22be 379f b23d d863 98bd de88 70bd
00000150: c0d6 df3d fa07 0a3e 69dd c0bd d351 2e3e
00000160: 233d 363b f96c e13d 7bdb bb3d b616 cf3c
00000170: 9bed ea3d 447b 28be 958f 983c 2c15 bdbd
00000180: 85c8 4c3d 3238 edbd 4ebb 4cbd 6820 c7bd
00000190: 6dee 8bbd d044 1c3e 1dda 8dbc 519a f6bb
000001a0: 71e9 22bf 1fce 1b3e b2f3 723a 626c 86bd
000001b0: 928e 223d da18 8a3d bae1 c9bc b8ca 033e
000001c0: 7b27 19be a071 93bd feba 01bd b1f4 f6bd
000001d0: 5a68 4abe e20c cfbc a59f 973d fd6e 0f3f
000001e0: baa5 a33d 8cd3 a4bd 1964 45bd f200 9dbd
000001f0: 4ecf 61bc f365 273e 78ee 1abe 8835 f8bd
00000200: b2e1 fb3d 62cd 273e a1d7 b23d 7539 0e3e
00000210: 7bad 1abe b3df a03d 96a0 0d3e 3ee8 ae3d
00000220: 90fa c93c 17cb cbbc ac51 0bbe 0258 0cbc
00000230: 1d39 07be d587 28be b9c8 2bbe 245d 99bd
00000240: 333e f7bd c7d4 6bba 74ed b5bd 9ad7 283d
00000250: f7cc 303e d27c c53d f659 2e3e b672 8e3d
00000260: 4985 21be 71a1 26be d3bd ecbd 5fd8 24be
00000270: 844f 853d 7cdd debc d7d0 0abe 76f6 23be
00000280: 3a8a db3d 477c d6bd efad 13be 55f8 a63d
00000290: 3636 43be d7f4 123d cbc6 08bd baa5 0dbe
000002a0: 8dfb 283e f8dd 523d 9499 9d3d 2254 13bd
000002b0: 5537 4abe 6ab7 a7bd 6348 1d3e 99b4 21bc
000002c0: faec 11be 9b4b a23d a1b0 b2b8 f299 31be
000002d0: 80da 9a3e 5e3d b83c 85be ad3d f245 61be
000002e0: 5738 09be 74f8 f1bd 84d6 00be 8f1d d53b
000002f0: 1b82 353b fca1 0e3e 6a0c 2dbe e8f8 09be
00000300: 39fe 0d3e ba6f 4fbd 60fe de3d 9225 213e
00000310: d66f 9bbc 2e40 093e 200e 97bd cac8 1c3e
00000320: e441 16bf 855b 8ebd bc12 283e 9509 d33d
00000330: 017a f1bd b4e9 1bbd ee1b 113e a4a4 af3b
00000340: e264 d7bd 3f2f d4bd d255 bd3d 0bc0 dbbd
00000350: f57c a8be 0d31 d7bd c80e 0dbe a875 053f
00000360: 8fc6 12be b675 743d 27d0 78be c1ec 883c
00000370: b616 9f3d 0e8e 343d 3c62 d23d e557 c93d
00000380: 674f a9bd 75b7 fb3d 282c 77bc 7321 0c3e
00000390: cf0c 14be 1c91 dcbd d326 84bd af96 8e3d
000003a0: cf39 f53e 98aa 1d3e 9c87 07bd 91c1 bc3c
000003b0: ad57 e63d 2c1f 083d 7545 da3d cbac 1dbc
000003c0: 331e c33b 5abb 843c cab0 ab3d d8ef 663d
000003d0: a5ac c53d 6270 01be 5263 923e 35e4 6cbf
000003e0: 391f 27bc 45f8 593d 1e29 c9bc ee33 233d
000003f0: 5d8d 963d 2c16 6cbd 1e9c 80bd f5fa a43c

net.theta6.bias f4 [32]
0.08037781 0.15345031 -0.06853853 0.012192291 0.17644864 -0.12165566 -0.026446424 -0.07467959
-0.061168388 -0.11081007 -0.11938191 0.12038929 0.1430091 -0.08665204 -0.13218553 -0.027981011
0.17497069 -0.04064189 -0.081471995 0.0047032298 0.049165815 -0.070187986 -0.0028013745 0.023804557
-0.10742711 -0.08932019 -0.072158456 -0.013888735 -0.11263299 -0.08370101 0.06435771 -0.12619613
00000000: 1f9d a43d 1422 1d3e ee5d 8cbd 2dc2 473c
00000010: f4ae 343e 9a26 f9bd 2ca6 d8bc 9df1 98bd
00000020: b48b 7abd 64f0 e2bd 817e f4bd a98e f63d
00000030: fa70 123e a076 b1bd a55b 07be 6f38 e5bc
00000040: 842b 333e 1c78 26bd cada a6bd 8d1d 9a3b
00000050: 1862 493d b8be 8fbd 4497 37bb c601 c33c
00000060: bf02 dcbd 81ed b6bd d0c7 93bd 948d 63bc
00000070: 20ac e6bd 6f6b abbd facd 833d 8f39 01be

net.theta7.weight f4 [32, 32]
0.13825876 -0.1352178 -0.11237515 -0.14868927 -0.13601898 -0.12092406 0.09271341 0.14582339
0.18178976 0.0040670233 0.15508255 -0.2115474 -0.110172525 0.04289862 -0.059923377 -0.0012902275
-0.043152954 -0.0956783 -0.012710076 0.11536643 -0.25646457 -0.17763013 0.16773477 0.120801605
-0.12487989 0.0986362 -0.041062146 -0.032147057 0.025595613 0.13364807 0.0460111 -0.056469273
0.08228201 -0.0359914 -0.04212466 -0.16332036 0.017776396 0.21778674 0.1446231 -0.12796544
0.026760014 -0.12063627 -0.026326228 0.11452786 -0.12359049 0.13232289 -0.15367995 0.18550345
-0.13896552 0.023934014 -0.007526964 0.22553426 -0.3323116 0.2987227 0.007589463 0.39249027
-0.09181426 0.10380796 -0.20048817 -0.25897712 0.0696923 -0.006903956 0.30924895 0.10506575
0.14720085 0.16999532 0.15596148 -0.049178753 0.16996835 -0.13636586 0.15363984 0.114025764
-0.022832228 0.02551391 0.1104734 -0.1485372 0.021461777 -0.05307797 -0.16268091 0.06755722
-0.05382635 -0.16064039 -0.10537764 -0.102129534 -0.0422735 0.022590326 0.15936138 0.19767877
-0.046615448 0.1507676 0.23531368 0.1653349 -0.14219773 -0.081754446 0.13452265 -0.0580286
-0.11884379 -0.08020536 0.14863776 0.13884072 -0.08619896 -0.042415574 -0.015991505 0.031796426
-0.048040524 0.09158036 0.0053003454 0.13075148 0.03127346 -0.15810499 0.043970227 -0.0035838978
0.13799681 -0.069636896 0.013162298 0.13704151 0.15758026 -0.07624442 -0.10852021 -0.045614205
-0.1508937 0.07979001 -0.08798621 -0.087382905 -0.12598947 -0.050937776 -0.044789445 -0.061373144
0.14136757 -0.07841305 0.06536295 0.09506312 -0.042085674 0.04207755 0.056640223 0.041342538
-0.1431932 -0.09018477 0.033945326 0.0684573 -0.02160138 -0.06633859 -0.055890683 0.055021156
0.11742993 0.065333344 -0.0018126279 0.08559812 -0.08693428 0.14444996 -0.14505671 0.05377371
0.08486662 0.09075801 0.10566741 0.0020041207 -0.072719894 -0.095395304 -0.00941509 -0.071582146
-0.109464765 -0.12927626 -0.17393072 -0.13766356 -0.07943511 -0.11866535 -0.074585274 0.08490308
-0.11704595 -0.0049091596 0.0047952156 0.16378416 0.11840535 -0.12104836 -0.04424911 -0.09590087
0.09857267 -0.12019668 -0.09440133 -0.023165002 0.124945596 -0.14273399 0.06223928 -0.0926511
-0.06770025 0.12102199 0.1651562 -0.1434408 0.1669415 -0.07958773 0.034372818 -0.11501076
0.09959372 0.08201238 -0.104841925 -0.16945979 -0.15174423 -0.17363465 0.13431819 -0.0031373904
-0.13243413 0.096150406 0.02002224 -0.19303273 -0.090218306 -0.121694006 -0.12376749 0.14147544
0.108649835 -0.027712502 -0.17032415 0.10429943 0.21664125 -0.15323113 -0.18691806 -0.01701367
0.06364075 0.0028673133 0.031722303 -0.1829338 0.0017204764 0.09490356 -0.018093044 -0.11833248
-0.08832523 -0.0026600773 -0.12002617 0.029845806 0.15714522 -0.084528625 -0.022429584 0.048024647
0.14361909 0.058565743 0.1451573 0.12081286 -0.15017214 -0.16804633 -0.1558413 0.04195609
0.077290386 0.099321574 0.019741604 -0.059900954 -0.16912474 -0.13385116 -0.16882776 -0.13321033
0.07887648 -0.029118141 0.15463284 0.001336034 -0.060854293 -0.101634935 -0.063086286 -0.10382699
00000000: b493 0d3e 8976 0abe f124 e6bd 0042 18be
00000010: 8f48 0bbe 09a7 f7bd 87e0 bd3d ba52 153e
00000020: 1827 3a3e aa44 853b f6cd 1e3e e29f 58be
00000030: 22a2 e1bd 77b6 2f3d 3772 75bd da1c a9ba
00000040: 27c1 30bd fcf2 c3bd ec3d 50bc 3c45 ec3d
00000050: 534f 83be ace4 35be aac2 2b3e d566 f73d
00000060: 07c1 ffbd c701 ca3d c830 28bd a2ac 03bd
00000070: e4ad d13c 0adb 083e 2376 3c3d 534c 67bd
00000080: 7883 a83d b86b 13bd e88a 2cbd 743d 27be
00000090: ce9f 913c 7d03 5f3e 1418 143e 5f09 03be
000000a0: d137 db3c 2610 f7bd 1aaa d7bc 958d ea3d
000000b0: 031d fdbd a77f 073e 475e 1dbe 9ef4 3d3e
000000c0: fa4c 0ebe 4411 c43c c0a4 f6bb 74f2 663e
000000d0: bf24 aabe 2ff2 983e 08b1 f83b 7cf4 c83e
000000e0: 1d09 bcbd 4599 d43d c54c 4dbe a698 84be
000000f0: d6ba 8e3d 953a e2bb e155 9e3e b62c d73d
00000100: d2bb 163e 4113 2e3e 5eb4 1f3e a96f 49bd
00000110: 2f0c 2e3e 7ea3 0bbe c353 1d3e 5786 e93d
00000120: a70a bbbc 8c02 d13c e13f e23d 231a 18be
00000130: 9cd0 af3c 4968 59bd d395 26be 715b 8a3d
00000140: 0579 5cbd ea7e 24be 3bd0 d7bd 4a29 d1bd
00000150: fa26 2dbd 590f b93c a12f 233e 4e6c 4a3e
00000160: d7ef 3ebd d262 1a3e 12f6 703e 8d4d 293e
00000170: 489c 11be e06e a7bd 4ec0 093e 66af 6dbd
00000180: 5f64 f3bd b542 a4bd 7f34 183e 432c 0e3e
00000190: 1589 b0bd f4bb 2dbd 9e00 83bc f83c 023d
000001a0: 24c6 44bd 7c8e bb3d 85ae ad3b b7e3 053e
000001b0: 9918 003d 46e6 21be 201a 343d d4df 6abb
000001c0: 094f 0d3e ca9d 8ebd aea6 573c 9c54 0c3e
000001d0: b85c 213e 0926 9cbd d83f debd f6d5 3abd
000001e0: e183 1abe f268 a33d 1d32 b4bd cff5 b2bd
000001f0: 6203 01be 21a4 50bd 2375 37bd 6862 7bbd
00000200: a9c2 103e 0597 a0bd 03dd 853d 74b0 c23d
00000210: 0762 2cbd 8259 2c3d 94ff 673d cb56 293d
00000220: 3da1 12be cbb2 b8bd 410a 0b3d 5733 8c3d
00000230: 61f5 b0bc 87dc 87bd a1ed 64bd dd5d 613d
00000240: 1a7f f03d 7dcd 853d b395 edba 114e af3d
00000250: 9a0a b2bd b1ea 133e bf89 14be d241 5c3d
00000260: 8dce ad3d 56df b93d 2868 d83d 9157 033b
00000270: 2bee 94bd 9d5e c3bd c041 1abc a999 92bd
00000280: 102f e0bd ff60 04be e51a 32be adf7 0cbe
00000290: e0ae a2bd d206 f3bd 2ac0 98bd aae1 ad3d
000002a0: c9b5 efbd 04dd a0bb 2f21 9d3b 09b7 273e
000002b0: 817e f23d 34e8 f7bd 8e3e 35bd ad67 c4bd
000002c0: 78e0 c93d ad29 f6bd 7c55 c1bd 88c4 bdbc
000002d0: 7ae3 ff3d dc28 12be 9eee 7e3d dcbf bdbd
000002e0: 6ea6 8abd 61da f73d b51e 293e 25e2 12be
000002f0: b6f2 2a3e e4fe a2bd 83ca 0c3d c38a ebbd
00000300: cbf7 cb3d 1bf6 a73d 5db7 d6bd de86 2dbe
00000310: d762 1bbe 48cd 31be b58a 093e ad9c 4dbb
00000320: d09c 07be 81ea c43d ae05 a43c 5faa 45be
00000330: 60c4 b8bd b53a f9bd cf79 fdbd f0de 103e
00000340: ce83 de3d 5405 e3bc 7469 2ebe f19a d53d
00000350: 34d7 5d3e 9fe8 1cbe 7367 3fbe 4160 8bbc
00000360: 1556 823d 89e9 3b3b 3fef 013d 0053 3bbe
00000370: 9c81 e13a cc5c c23d dd37 94bc 4d58 f2bd
00000380: dce3 b4bd b154 2ebb 48d0 f5bd 317f f43c
00000390: adea 203e 581d adbd 3fbe b7bc 7eb5 443d
000003a0: e210 133e a2e2 6f3d 1ea4 143e bc6c f73d
000003b0: bac6 19be 5614 2cbe dd94 1fbe 26da 2b3d
000003c0: 6c4a 9e3d 1c69 cb3d 25b9 a13c b45a 75bd
000003d0: 092f 2dbe 4710 09be 2fe1 2cbe 4a68 08be
000003e0: fe89 a13d 2b89 eebc 1258 1e3e dd1d af3a
000003f0: 5a42 79bd fa25 d0bd 6233 81bd 3fa3 d4bd

net.theta7.bias f4 [32]
6.292444e-09 -0.13721515 0.104828864 -0.16222794 0.027189353 -0.07768861 0.08370177 -0.0026570426
-0.014681764 -0.15832831 0.079352625 -0.0276727 -0.006912294 -0.0016596437 0.106083676 0.17789957
-0.17447783 0.10053568 -0.006307491 -0.079397574 -0.04585642 0.14497066 0.018339086 -0.0054407045
0.1602588 0.03553928 0.15887691 0.055310167 -0.1599661 -0.11334896 0.06981323 0.044813007
00000000: ec34 d831 2182 0cbe 84b0 d63d 151f 26be
00000010: 35bc de3c 351b 9fbd d56b ab3d c721 2ebb
00000020: c88b 70bc d120 22be a183 a23d dcb1 e2bc
00000030: 8680 e2bb 6788 d9ba 6642 d93d 4e2b 363e
00000040: 51aa 32be a7e5 cd3d 12af cebb 329b a2bd
00000050: f1d3 3bbd 3073 143e da3b 963c f047 b2bb
00000060: e21a 243e a391 113d a1b0 223e ea8c 623d
00000070: 27ce 23be 8023 e8bd 3dfa 8e3d d88d 373d

target_net.theta1a.weight f4 [32, 5]
-0.34469363 -0.20671158 0.5295471 -0.3442202 -0.31118688 -0.39485192 -0.23570782 -0.3428588
0.1422692 -0.01147749 0.54773563 0.12261383 -0.25354674 0.85277015 0.48183492 0.81810427
-0.4044005 0.28435993 0.53175986 -0.5686748 -0.16586071 -0.057706792 0.23937723 -0.25940764
-0.29651067 0.2209887 -0.9926397 -0.13835005 0.69933504 0.60637206 0.5067547 -0.53250694
-0.21406509 -0.032648128 -0.21663596 0.23546796 0.47639036 -0.44223726 -0.8583919 0.44922805
-0.032750487 0.6036327 0.41324723 -0.84395826 -0.8375283 0.023401717 1.4026612 0.15723929
0.3260896 0.30445626 0.6168597 -0.051772915 0.5169886 -0.2686902 -0.19085154 -0.39090398
-0.34813148 0.6297284 -0.73494303 -0.25796744 -0.44843012 -0.48156887 0.36295983 0.4977183
0.554485 0.32729754 0.28740418 0.28542274 0.35617003 -0.56659096 0.8204267 -0.44333097
-0.6768559 0.80809677 0.19273779 -0.0069894614 0.7124338 0.16741255 -0.7077426 -0.72034514
-0.2949266 0.747739 -0.52678245 0.37898612 0.31498104 0.44853 0.22941376 -0.2521177
0.9925122 0.42257386 1.0074798 -1.4558454 0.004974415 0.70379615 0.1253755 0.6637136
-0.15483232 0.2642467 0.93870145 0.3040773 0.1164927 0.6191657 -0.5158205 0.45078582
0.21193501 -0.25173452 -0.49060342 0.33565888 0.70029384 0.5440064 -0.17317174 -0.4413002
0.35438117 0.35479292 0.33245412 0.2516375 -0.96075153 -0.16773234 0.626521 0.366544
0.20137179 0.61154944 0.17071341 0.46892542 0.4176065 0.466836 0.8348623 0.10596145
0.48474792 0.4034158 0.039951056 0.5771229 0.092878744 -0.72316253 -0.7221225 -0.43700406
-0.39290184 0.0039316164 0.919572 0.2700835 0.4171281 0.4152163 0.29002193 -0.12603807
-0.7499588 0.047223553 0.6009808 0.086894594 -0.69349825 -0.72364146 0.60205406 0.59341663
-0.2007667 0.4447007 0.22922109 0.25036377 0.38101235 0.63877076 0.21748091 0.41452196
00000000: af7b b0be 33ac 53be 6690 073f a13d b0be
00000010: e353 9fbe 082a cabe 645d 71be 308b afbe
00000020: 04af 113e 150c 3cbc 6738 0c3f f61c fb3d
00000030: e1d0 81be 254f 5a3f 11b3 f63e 486f 513f
00000040: 950d cfbe a097 913e 6a21 083f ac94 11bf
00000050: 64d7 29be f55d 6cbd 4e1f 753e 14d1 84be
00000060: 3fd0 97be dd4a 623e a31d 7ebf a3ab 0dbe
00000070: 9f07 333f 333b 1b3f adba 013f 6052 08bf
00000080: e133 5bbe 0bba 05bd d1d5 5dbe 831e 713e
00000090: 70e9 f33e ec6c e2be 92bf 5bbf 3801 e63e
000000a0: 6025 06bd ac87 1a3f 2495 d33e a60d 58bf
000000b0: 4168 56bf f5b4 bf3c 678a b33f 5603 213e
000000c0: 37f5 a63e b1e1 9b3e 84ea 1d3f d60f 54bd
000000d0: 5d59 043f c391 89be 966e 43be 9124 c8be
000000e0: 4a3e b2be e135 213f 3a25 3cbf 4f14 84be
000000f0: a298 e5be 3290 f6be dfd5 b93e efd4 fe3e
00000100: bbf2 0d3f 8b93 a73e a426 933e ee22 923e
00000110: eb5b b63e 1b0c 11bf 7c07 523f 47fc e2be
00000120: 6e46 2dbf 6edf 4e3f 0e5d 453e da07 e5bb
00000130: 1062 363f 326e 2b3e 9e2e 35bf 8a68 38bf
00000140: 9f00 97be d36b 3f3f 37db 06bf 780a c23e
00000150: 3245 a13e b9a5 e53e 71eb 6a3e 9215 81be
00000160: 4815 7e3f 9a5b d83e 19f5 803f 2459 babf
00000170: 6b00 a33b fc2b 343f 6f62 003e 22e9 293f
00000180: 5d8c 1ebe 584b 873e bd4e 703f 05b0 9b3e
00000190: ba93 ee3d a581 1e3f d00c 04bf 66cd e63e
000001a0: 7e05 593e 59e3 80be 5f30 fbbe 7bdb ab3e
000001b0: 7546 333f 0144 0b3f ef53 31be 1af2 e1be
000001c0: 7371 b53e 6ba7 b53e 6d37 aa3e a1d6 803e
000001d0: d0f3 75bf 07c2 2bbe ae63 203f a8ab bb3e
000001e0: 6834 4e3e 818e 1c3f 7fcf 2e3e fe16 f03e
000001f0: 85d0 d53e 2105 ef3e 89b9 553f 5102 d93d
00000200: e130 f83e 848c ce3e b8a3 233d 54be 133f
00000210: 3637 be3d 2e21 39bf 05dd 38bf ffbe dfbe
00000220: 6e2a c9be cad4 803b 1269 6b3f 6248 8a3e
00000230: d091 d53e 3b97 d43e c17d 943e 2010 01be
00000240: 4dfd 3fbf 7c6d 413d e1d9 193f cbf5 b13d
00000250: 1a89 31bf 9140 39bf 3720 1a3f 27ea 173f
00000260: c995 4dbe cfaf e33e efb8 6a3e ae2f 803e
00000270: 0d14 c33e 7b86 233f 51b3 5e3e 393c d43e

target_net.theta1a.bias f4 [32]
-0.04825681 -0.43039984 0.18724579 -0.061471235 -0.24583252 0.15315326 0.21111238 -0.27020082
0.226084 0.2463715 -0.28342414 0.10171302 0.3986733 -0.051543307 0.3602424 -0.025742946
0.40925333 0.018203087 0.0048958566 0.065286934 0.3945909 0.15689835 0.28087118 0.18464054
-0.20369594 0.00022273559 0.068895064 -0.00020071022 -0.086242 0.02533097 0.38394055 0.097601764
00000000: efa8 45bd 5e5d dcbe 5cbd 3f3e 43c9 7bbd
00000010: 85bb 7bbe 35d4 1c3e d82d 583e c357 8abe
00000020: 9082 673e cf48 7c3e f81c 91be ea4e d03d
00000030: e81e cc3e 131f 53bd b171 b83e dfe2 d2bc
00000040: a789 d13e a41e 953c 6c6d a03b 28b5 853d
00000050: d207 ca3e f6a9 203e 59ce 8f3e 6912 3d3e
00000060: ab95 50be 218e 6939 db18 8d3d bd75 52b9
00000070: a59f b0bd e582 cf3c db93 c43e 6fe3 c73d
