models/dqn_best_model_1.46.pt (torch, 106527 bytes, 4 tensors)

layers.0.weight f4 [128, 200]
-0.29787606 0.11267644 -0.00877255 0.3655077 -0.033446398 -0.115732215 0.10993068 0.35696897
0.25504392 -0.4513488 -0.4460576 -0.098900154 0.18568994 -0.26171917 -0.4353007 -0.3696083
0.17546444 0.047146995 -0.2938199 -0.36210722 -0.032579 -0.008292443 -0.028719733 0.046907414
-0.055816904 -0.032598354 -0.01996691 0.074695654 0.006673895 -0.06983946 0.12108482 -0.060066476
0.08195511 -0.10188989 -0.16693206 0.14379057 0.13297853 0.05713164 0.062815525 -0.022300253
0.005213469 0.024069397 0.029759124 0.11669532 0.040874984 -0.03018084 0.055319868 0.011075696
-0.009009274 -0.043098517 -0.0699971 -0.027319817 -0.05423671 0.058020864 0.020366892 0.029289322
0.022363042 -0.0012300811 0.055338763 0.0069848546 0.004452208 -0.06064212 0.14376217 -0.024351506
-0.012436338 -0.014731968 0.05864686 0.001334196 -0.04217171 -0.021929324 0.06360021 0.037679955
0.08254223 -0.10163083 -0.070136234 -0.055321474 -0.047566302 0.028640665 0.025319789 0.05875523
-0.03651679 -0.048204307 0.03751754 -0.028581575 0.042915996 -0.01677969 0.040449757 0.15962818
-0.013924611 0.021558022 0.014948771 -0.07442988 0.1555644 -0.064518236 -0.051277503 -0.037750185
0.118310355 -0.053524945 0.02640779 -0.10932368 -0.0404939 0.017663788 -0.014494337 -0.05132789
0.0016586387 -0.04830116 -0.059990704 -0.03893773 -0.061886843 -0.045024183 0.070683025 0.013355477
0.021790182 -0.065950744 -0.04644092 -0.023536462 0.011057109 -0.062219836 -0.030467326 -0.04233226
0.00019595756 -0.026311671 -0.0048999507 -0.04791566 -0.04853547 -0.04125274 -0.024204085 -0.05581059
0.059288774 -0.014033527 0.06083924 0.022032183 -0.059877593 0.04893428 -0.019455677 -0.027105246
-0.05869485 -0.07029778 0.020231077 -0.015446315 0.027529303 -0.05802967 0.05249767 -0.05190544
-0.012209849 0.08716158 0.18806368 0.0048984475 -0.055782873 -0.056068067 0.017795563 -0.0304145
-0.0077488166 -0.052926246 0.06440744 -0.05189814 0.037791412 0.024850532 0.022977855 -0.03822946
0.06427258 0.015538701 0.009096226 -0.062314127 0.02968353 -0.010608058 -0.03239428 0.060736697
0.01576486 -0.03912255 -0.035789426 -0.2448669 0.19104128 0.02748963 -0.04034574 -0.024214368
-0.05282617 0.025217725 0.05473291 -0.06656989 0.016422605 0.036528558 0.012821923 -0.025181815
0.036906883 0.037159394 0.02644065 -0.012425381 -0.018724278 0.0075646937 -0.012491331 -0.021071857
0.045198753 0.060768727 -0.00700017 -0.015831899 0.0010318308 0.1023457 0.15406542 -0.053813558
0.16010538 0.3681895 0.32977358 0.0023265923 0.05150843 -0.15176797 0.25814214 -0.3536893
0.20953584 -0.576628 0.3630932 -0.25669006 0.22556637 0.06114865 0.28090364 -0.5805627
-0.21181944 -0.48475835 -0.14229205 -0.6174015 -0.04576789 0.051610824 -0.032152273 -0.01417514
-0.070343286 0.047324583 0.053572863 0.1031326 -0.049304735 -0.0697872 0.011109425 0.052728973
0.107183136 -0.04981713 0.1303693 0.053425007 0.096093975 -0.0537759 -0.154667 -0.06613914
0.13004205 -0.036630116 -0.014230707 -0.20140356 -0.012885152 -0.0016948158 -0.018311476 -0.01169799
0.07609267 0.043652758 -0.022684606 -0.05187104 -0.012476116 -0.03427682 -0.021633338 -0.06731626
00000000: 3683 98be e8c2 e63d beba 0fbc d323 bb3e
00000010: 17ff 08bd 0305 edbd 5623 e13d a3c4 b63e
00000020: 1e95 823e 3117 e7be a961 e4be 2a8c cabd
00000030: 8125 3e3e 0e00 86be bcdf debe 4d3d bdbe
00000040: f3ac 333e 351d 413d 906f 96be 1e66 b9be
00000050: 8f71 05bd 07dd 07bc a545 ebbc fd21 403d
00000060: 44a0 64bd da85 05bd a591 a3bc 09fa 983d
00000070: b0b0 da3b fe07 8fbd 51fb f73d 4408 76bd
00000080: 15d8 a73d a6ab d0bd 3df0 2abe d63d 133e
00000090: 862b 083e de02 6a3d 6da5 803d 05af b6bc
000000a0: bfd5 aa3b 2f2d c53c 68c9 f33c f5fd ee3d
000000b0: 876c 273d cf3d f7bc 1697 623d d676 353c
000000c0: a29b 13bc 1288 30bd a45a 8fbd cfcd dfbc
000000d0: 5027 5ebd 49a7 6d3d 78d8 a63c 29f0 ef3c
000000e0: b332 b73c ac3a a1ba e6aa 623d 35e1 e43b
000000f0: d4e3 913b df63 78bd 6436 133e cf7c c7bc
00000100: c8c1 4bbc 5a5e 71bc b137 703d 30e0 ae3a
00000110: 3ebc 2cbd 20a5 b3bc d440 823d 4c56 1a3d
00000120: e70b a93d d323 d0bd 96a3 8fbd c598 62bd
00000130: e2d4 42bd d49f ea3c 726b cf3c 53a9 703d
00000140: a192 15bd e171 45bd feab 193d e823 eabc
00000150: afc8 2f3d 8f75 89bc a5ae 253d 9275 233e
00000160: 0d24 64bc 739a b03c b1eb 743c b16e 98bd
00000170: 464c 1f3e 2322 84bd 5c08 52bd f09f 1abd
00000180: b34c f23d f93c 5bbd 2655 d83c 18e5 dfbd
00000190: efdc 25bd a6b3 903c a879 6dbc 323d 52bd
000001a0: ae66 d93a 70d7 45bd d0b8 75bd 2b7d 1fbd
000001b0: 0f7d 7dbd 476b 38bd 43c2 903d eed0 5a3c
000001c0: 5381 b23c 2f11 87bd d638 3ebd 8acf c0bc
000001d0: e028 353c 3ada 7ebd 9d96 f9bc 9864 2dbd
000001e0: f579 4d39 938b d7bc c48f a0bb 3643 44bd
000001f0: 21cd 46bd a2f8 28bd a547 c6bc a599 64bd
00000200: c9d8 723d e1ec 65bc 9132 793d d67c b43c
00000210: 3542 75bd 506f 483d 8361 9fbc d20b debc
00000220: 036a 70bd 48f8 8fbd a5bb a53c 8a12 7dbc
00000230: 2285 e13c 85b0 6dbd cc07 573d cc9a 54bd
00000240: d20b 48bc c581 b23d c493 403e 2883 a03b
00000250: 957c 64bd a1a7 65bd 00c8 913c d427 f9bc
00000260: c9e9 fdbb 31c9 58bd 0ce8 833d 2593 54bd
00000270: 2bcb 1a3d 5893 cb3c 0e3c bc3c 7f96 1cbd
00000280: 58a1 833d 0996 7e3c 5608 153c 193d 7fbd
00000290: e02a f33c 6ccd 2dbc ddaf 04bd 0bc7 783d
000002a0: 4f25 813c f83e 20bd ef97 12bd 63be 7abe
000002b0: 53a0 433e ef31 e13c 9341 25bd 365d c6bc
000002c0: 4160 58bd 6795 ce3c 9e2f 603d cb55 88bd
000002d0: b388 863c f89e 153d 0b13 523c 184a cebc
000002e0: ac2b 173d 7334 183d 109a d83c d393 4bbc
000002f0: a863 99bc 40e1 f73b 71a8 4cbc e39e acbc
00000300: 5422 393d a1e8 783d af61 e5bb e6b1 81bc
00000310: 7f3e 873a 9f9a d13d 53c3 1d3e 9b6b 5cbd
00000320: aaf2 233e 5683 bc3e 15d8 a83e be79 183b
00000330: 81fa 523d 1069 1bbe 352b 843e c416 b5be
00000340: 9090 563e e59d 13bf 5ae7 b93e e16c 83be
00000350: dffa 663e 0277 7a3d 9ad2 8f3e c29f 14bf
00000360: 32e7 58be 3f32 f8be 02b5 11be 060e 1ebf
00000370: 1c77 3bbd df65 533d 1ab2 03bd d93e 68bc
00000380: 2410 90bd 6cd7 413d 386f 5b3d 2f37 d33d
00000390: c3f3 49bd 97ec 8ebd 4e04 363c 56fa 573d
000003a0: d582 db3d 0c0d 4cbd 887f 053e 2ed4 5a3d
000003b0: ebcc c43d 1e44 5cbd 0761 1ebe f573 87bd
000003c0: be29 053e 7609 16bd e927 69bc bc3c 4ebe
000003d0: 3f1c 53bc 9524 deba f301 96bc eda8 3fbc
000003e0: 79d6 9b3d 3ccd 323d 11d5 b9bc ba76 54bd
000003f0: a068 4cbc da65 0cbd 6638 b1bc 1bdd 89bd

layers.0.bias f4 [128]
-0.07117737 0.0029537182 0.058770444 -0.07348787 -0.015280565 0.1278135 0.068721205 0.20271587
-0.040112536 0.04812476 0.020586848 0.15155482 0.017694699 0.03914481 0.07146178 0.23888758
-0.04392437 0.099485606 0.13933396 -0.021884955 0.013247374 0.12644789 0.035584226 0.22357324
-0.045621097 0.0021981953 -0.00602012 0.06825735 0.014824179 0.110617176 0.037787456 0.1496061
0.118573576 0.034000535 -0.061547074 0.012228701 -0.013273413 -0.038783852 -0.038509276 0.008339242
-0.017529663 -0.032917347 0.025814446 0.010999713 -0.08150064 0.029640302 0.009879645 0.014372061
0.34345123 0.20922405 -0.024417475 0.046315495 0.097421296 -0.0061895833 8.997355e-05 -0.03273675
-0.09806849 0.11056662 0.11608411 0.074493386 -0.034049623 -0.02957531 0.049849484 0.122380726
-0.007089954 0.07070852 0.31297734 -0.0032345566 0.08229185 0.0034256764 -0.034329314 0.040767364
-0.05644724 0.030698283 0.02489362 0.038900126 0.01922803 -0.014703935 -0.00068693043 0.1749607
0.00339514 -0.00093989214 0.081253484 -0.009730114 0.14349976 0.03097546 -0.006306062 -0.016571471
-0.0698586 0.04973849 -0.04431665 0.2810977 -0.0010640379 0.005470959 0.017334681 0.058487356
0.027300997 0.086176865 0.008145002 0.20244938 0.037064336 0.030963982 0.1612968 0.058179706
0.002503147 0.023993526 -0.013090493 0.065056175 -0.0054896786 0.06783162 0.00979613 0.014123408
0.097597785 0.044140086 0.41429088 -0.06649804 0.2216964 -0.05142188 -0.031448986 0.0389185
0.1038313 0.0806323 0.09879097 0.12244332 0.120291114 0.05959766 -0.004338992 0.047637727
00000000: 71c5 91bd 2b93 413b 47b9 703d cf80 96bd
00000010: 565b 7abc 8be1 023e b4bd 8c3d c094 4f3e
00000020: 0b4d 24bd 781e 453d c0a5 a83c 3031 1b3e
00000030: 79f4 903c 4f56 203d 8e5a 923d f29e 743e
00000040: 0aea 33bd 1cbf cb3d 90ad 0e3e 1448 b3bc
00000050: 840b 593c 8e7b 013e c4c0 113d 62f0 643e
00000060: 30dd 3abd 990f 103b 6d44 c5bb 82ca 8b3d
00000070: 1de1 723c 428b e23d 05c7 1a3d 5732 193e
00000080: b4d6 f23d 2544 0b3d c918 7cbd e45a 483c
00000090: bb78 59bc d1db 1ebd e7bb 1dbd 51a1 083c
000000a0: 5e9a 8fbc 57d4 06bd d178 d33c 2438 343c
000000b0: cfe9 a6bd 38d0 f23c 3cde 213c cb78 6b3c
000000c0: d7d8 af3e d43e 563e 2807 c8bc 51b5 3d3d
000000d0: d184 c73d fdd1 cabb 2fb0 bc38 f816 06bd
000000e0: 22d8 c8bd c170 e23d 82bd ed3d fd8f 983d
000000f0: 9e77 0bbd ec47 f2bc f92e 4c3d bfa2 fa3d
00000100: d852 e8bb a1cf 903d 913e a03e dbfa 53bb
00000110: a188 a83d 5081 603b e59c 0cbd aefb 263d
00000120: 3935 67bd f77a fb3c b4ed cb3c bd55 1f3d
00000130: 1a84 9d3c c6e8 70bc 1f13 34ba e628 333e
00000140: ff80 5e3b 1863 76ba 3a68 a63d 0e6b 1fbc
00000150: 9af1 123e 3fc0 fd3c 15a3 cebb e5c0 87bc
00000160: 0712 8fbd 96ba 4b3d 6085 35bd 0aec 8f3e
00000170: 3077 8bba bb45 b33b 7601 8e3c 7090 6f3d
00000180: 57a6 df3c 7f7d b03d 9d72 053c e44e 4f3e
00000190: c6d0 173d 2da8 fd3c fd2a 253e d84d 6e3d
000001a0: d70b 243b 128e c43c 8279 56bc 2c3c 853d
000001b0: c3e2 b3bb 4eeb 8a3d f27f 203c de65 673c
000001c0: 59e1 c73d 3ccc 343d ef1d d43e 2030 88bd
000001d0: 6204 633e c09f 52bd a7d0 00bd 0169 1f3d
000001e0: 81a5 d43d 8c22 a53d ec52 ca3d 90c3 fa3d
000001f0: 305b f63d ad1c 743d 1a2e 8ebb c71f 433d

layers.2.weight f4 [4, 128]
-0.40895164 -0.16616784 -0.084118396 -0.071358725 -0.6295695 0.2803692 0.87113893 -0.15136954
-0.19537584 -0.12739289 -0.11134508 0.056275826 -0.30765697 0.0667342 0.1317228 0.17208485
-0.5832885 -0.344323 0.005604422 -0.012099418 -0.35054582 0.28815743 -0.28470653 0.23081145
0.15696542 -0.6601103 -0.17870584 0.15180561 0.40701517 -0.13970761 0.25417688 0.2993404
-0.10031867 -0.35504058 0.21828225 0.46059602 -0.03900274 -0.031732854 -0.43302467 -0.22988437
-0.2738373 -0.29589292 -0.16726722 -0.09798775 0.06503821 0.05474729 0.050283086 -0.23388447
0.12409314 -0.08346358 -0.17860875 0.027887685 -0.5083123 0.43272287 -0.107205436 -0.020931907
0.22921906 -0.3044228 0.26407945 0.35698938 -0.4270113 0.060358793 -0.18289638 0.28799346
-0.02616514 -0.074495986 0.32349083 0.06151337 -0.219287 0.14692363 0.05763296 0.4584252
0.053862877 -0.16150665 0.023951922 -0.17427191 0.09371117 0.14686082 -0.20125031 0.30058396
0.13617328 0.17043453 0.35351068 -0.3218953 0.22727077 -0.21339853 -0.07888375 0.22693382
-0.69139415 -0.060893636 0.053087678 0.11154201 0.16836403 -0.47359556 0.018179012 0.49299216
-0.45706058 -0.13629615 0.087357365 0.4206229 -0.16518413 -0.16450576 0.81538916 -0.13534498
-0.41828322 -0.4299007 0.39425674 -0.03742874 -0.14551514 -0.46385285 -0.22549061 -0.04351751
0.21673304 -0.55260676 0.36138967 -0.12045647 -0.060786046 -0.17733023 0.056297924 0.12743151
0.26699272 0.4769442 0.27390593 -0.036681127 0.51462156 -0.26962066 0.07949543 -0.47282723
0.06199377 -0.47967157 0.37398228 -0.17112036 0.14581172 1.3107095 -0.8041136 -0.103099816
-0.8666867 -1.0741339 0.11094674 1.7878561 -0.5873877 -0.27057657 0.029979898 0.31747648
0.5742297 -1.0888339 -0.013119388 -0.0997504 0.097655036 1.1718346 -0.31980535 1.233
-0.48706073 0.0068907924 -0.24110872 -0.5580093 0.0006764449 -0.36438924 -0.2196444 0.08345457
0.2584974 -0.46273145 -0.2856395 -0.9927024 -0.57569134 -0.45796502 -0.1866245 -0.6514618
0.016606173 -0.18062243 0.1677876 0.08271155 0.034280404 -0.5362808 -0.30809784 0.06716923
0.047218684 -0.03902554 0.3796624 -0.23728712 1.2610716 -0.038664784 0.17656694 0.2599839
-0.14026952 0.20208158 -0.16890162 0.03964145 0.107820496 0.024385544 -0.21980697 1.0508721
0.05411843 1.6692672 -0.3332924 0.5636143 0.40976503 -0.5533478 -0.3715432 0.70574087
-0.0056446767 1.0853003 0.16778854 0.24975824 -0.31559724 -0.5355934 -0.5236522 -1.0149492
0.45392802 -0.3649169 -0.11793421 -0.5053898 0.44736806 -0.6415982 -0.41390774 -0.4173073
0.27043113 -0.5826954 0.03128593 -0.22722162 -0.2757354 -0.021316743 -1.0929413 -0.44732347
0.7280391 1.2872444 -0.28161767 -1.1844846 -0.3552725 -0.5478905 -0.80879194 0.25618377
-0.46867704 0.68380934 0.0634095 -0.07050953 0.4407816 -0.27024543 0.16809781 0.25822276
-0.41501802 0.25650492 -0.00090250914 -0.55492973 0.85931873 -0.021731561 -0.15809332 -0.5512769
1.4957815 -0.0983591 -0.38159588 -0.26040897 -0.51501715 -0.40161717 0.02411853 -0.47980654
00000000: 1c62 d1be e727 2abe 4446 acbd 8624 92bd
00000010: 772b 21bf 8d8c 8f3e f602 5f3f 9e00 1bbe
00000020: 9b10 48be 4873 02be e408 e4bd 7b81 663d
00000030: 3785 9dbe f1ab 883d 57e2 063e 0337 303e
00000040: 6552 15bf 1b4b b0be 4da5 b73b a33c 46bc
00000050: be7a b3be 5f89 933e 0ec5 91be d659 6c3e
00000060: 8bbb 203e fdfc 28bf aafe 36be ee72 1b3e
00000070: 4b64 d03e 830f 0fbe 7923 823e 2543 993e
00000080: e073 cdbd e1c7 b5be 6285 5f3e 3ed3 eb3e
00000090: 56c1 1fbd 4ffa 01bd 69b5 ddbe cf66 6bbe
000000a0: 6734 8cbe 477f 97be 1948 2bbe cdad c8bd
000000b0: c132 853d b23e 603d a3f5 4d3d 697f 6fbe
000000c0: 8b24 fe3d f4ee aabd 36e5 36be b774 e43c
000000d0: c120 02bf da8d dd3e 868e dbbd 6479 abbc
000000e0: 67b8 6a3e 4edd 9bbe 6c35 873e 50c7 b63e
000000f0: 3aa1 dabe c83a 773d 3049 3bbe e173 933e
00000100: 4758 d6bc 5a91 98bd 97a0 a53e 72f5 7b3d
00000110: c58c 60be 2673 163e 8a10 6c3d b5b6 ea3e
00000120: 529f 5c3d 0062 25be d236 c43c 5674 32be
00000130: a4eb bf3d af62 163e 9014 4ebe 24e6 993e
00000140: 0271 0b3e 6486 2e3e 5aff b43e 76cf a4be
00000150: abb9 683e 2585 5abe ce8d a1bd 5761 683e
00000160: 35ff 30bf 9b6b 79bd 7772 593d 2370 e43d
00000170: 9f67 2c3e 1e7b f2be 27ec 943c 7869 fc3e
00000180: d803 eabe 3891 0bbe 6be8 b23d e25b d73e
00000190: 0726 29be 3374 28be 58bd 503f e097 0abe
000001a0: 3829 d6be f21b dcbe 05dc c93e e14e 19bd
000001b0: ec01 15be 1f7e edbe 03e7 66be 6b3f 32bd
000001c0: 44ef 5d3e a377 0dbf 1108 b93e e2b1 f6bd
000001d0: cafa 78bd 0e96 35be a798 663d 687d 023e
000001e0: 45b3 883e 0832 f43e 663d 8c3e f33e 16bd
000001f0: 3dbe 033f b80b 8abe 80ce a23d 6916 f2be
00000200: 2eed 7d3d 8397 f5be 9b7a bf3e 2d3a 2fbe
00000210: ab4f 153e 54c5 a73f 64da 4dbf ff25 d3bd
00000220: 2edf 5dbf 387d 89bf 0b38 e33d 78d8 e43f
00000230: 0a5f 16bf 0389 8abe 6798 f53c 478c a23e
00000240: b800 133f e95e 8bbf b4f2 56bc f049 ccbd
00000250: 5dff c73d adfe 953f 87bd a3be f2d2 9d3f
00000260: 0660 f9be 28cc e13b 34e5 76be b3d9 0ebf
00000270: 7353 313a 3a91 babe 76ea 60be 3bea aa3d
00000280: c559 843e 23eb ecbe 573f 92be bf21 7ebf
00000290: 8260 13bf 647a eabe 7e1a 3fbe 33c6 26bf
000002a0: ab09 883c 16f5 38be 83d0 2b3e ac64 a93d
000002b0: 9c69 0c3d b349 09bf 00bf 9dbe 0590 893d
000002c0: 6168 413d 3fd9 1fbd 1c63 c23e 65fb 72be
000002d0: cb6a a13f f75e 1ebd f7cd 343e 9c1c 853e
000002e0: d0a2 0fbe 79ee 4e3e 8cf4 2cbe 135f 223d
000002f0: fed0 dc3d 31c4 c73c 1415 61be fa82 863f
00000300: 49ab 5d3d 8caa d53f 4da5 aabe 0749 103f
00000310: b9cc d13e 34a8 0dbf e93a bebe 6fab 343f
00000320: fbf6 b8bb 1feb 8a3f c2d0 2b3e a0c0 7f3e
00000330: f695 a1be a61c 09bf 120e 06bf dbe9 81bf
00000340: 4169 e83e 63d6 babe 7e87 f1bd 3a61 01bf
00000350: 6d0d e53e c83f 24bf b7eb d3be 4da9 d5be
00000360: f375 8a3e 872b 15bf ad25 003d c9ac 68be
00000370: 312d 8dbe 73a0 aebc 80e5 8bbf 9507 e5be
00000380: c560 3a3f 6dc4 a43f 3130 90be 319d 97bf
00000390: 47e6 b5be 8d42 0cbf fd0c 4fbf 852a 833e
000003a0: 70f6 efbe 210e 2f3f d7dc 813d 4d67 90bd
000003b0: 20ae e13e 9c5d 8abe d521 2c3e c635 843e
000003c0: 3e7d d4be 9d54 833e 5d96 6cba e00f 0ebf
000003d0: 50fc 5b3f 6306 b2bc 37e3 21be 7c20 0dbf
000003e0: c575 bf3f 7f70 c9bd 8960 c3be 5354 85be
000003f0: 2ad8 03bf c4a0 cdbe 3994 c53c 34a9 f5be

layers.2.bias f4 [4]
0.11076741 0.073386505 0.032504454 0.12013983
00000000: 06da e23d aa4b 963d 6423 053d df0b f63d
