models/dqn_best_model_1.36.pt (torch, 15131 bytes, 8 tensors)

lstm.weight_ih_l0 f4 [48, 9]
0	0x3e9b592d	0.30341473
1	0x3ea95fb6	0.33080834
2	0x3caf1da2	0.021376435
3	0x3eab5b10	0.33467913
4	0x3cd1c356	0.025605839
5	0x3d6e999a	0.058251955
6	0xbe0fea7d	-0.14054294
7	0x3e2d9a4b	0.1695339
8	0x3e824b24	0.25447953
9	0xbdf15d5d	-0.11785386
10	0x3eb59a4d	0.35469285
11	0x3e198add	0.14994378
12	0x3e91c311	0.28469136
13	0x3e04e321	0.12977268
14	0x3e0e8952	0.13919571
15	0xbd26f235	-0.04075833
16	0x3e63e05d	0.22253557
17	0x3d2ec56f	0.042668756
18	0xbd9026df	-0.07038664
19	0x3e1a13d7	0.15046631
20	0xbd7ec84e	-0.062202744
21	0x3c7a8692	0.015290873
22	0xbd5a4717	-0.053290453
23	0x3e44183c	0.1914987
24	0xbe695728	-0.22787154
25	0xbe0846b5	-0.13308223
26	0xbda6f11c	-0.08151457
27	0xbd93a915	-0.07209984
28	0x3e0ff48c	0.14058131
29	0xbe390833	-0.18069534
30	0x3eb06ac7	0.34456465
31	0xbe253987	-0.16135226
32	0x3e6436c0	0.2228651
33	0x3d44c6b6	0.048041068
34	0xbdbff7ad	-0.09373412
35	0x3e36ab07	0.17838679
36	0x3e16e783	0.14736752
37	0x3eb304da	0.3496464
38	0x3e0ec1e8	0.13941157
39	0xbd5c7451	-0.053821865
40	0x3e3406fc	0.1758079
41	0xbda052b6	-0.07828276
42	0x3df8d054	0.121491104
43	0x3e83f5ea	0.25773555
44	0x3e2ae057	0.16687141
45	0xbe19ba00	-0.1501236
46	0x3e776c30	0.24162364
47	0x3d94212a	0.07232888
48	0x3e4eee2f	0.20208047
49	0xbde115c3	-0.10990479
50	0xbe924f64	-0.28576195
51	0xbde46b3e	-0.11153267
52	0xbe62bc09	-0.22142042
53	0x3e728dd5	0.23686917
54	0x3e2f4865	0.1711746
55	0x3e5ed102	0.21759418
56	0x3e3f14bf	0.18660258
57	0x3d8ecd8c	0.06972799
58	0x3ea12dc1	0.3148022
59	0xbe5207ba	-0.2051076
60	0x3c94e5f7	0.018176062
61	0xbe49c2db	-0.19703238
62	0x3db64cbd	0.089013554
63	0xbb21d619	-0.0024694263
64	0x3e2a366d	0.16622324
65	0x3d45f12d	0.048325706
66	0x3e93a88f	0.28839538
67	0xbd7ba793	-0.061439108
68	0xbe304c18	-0.17216527
69	0xbe304ed1	-0.17217566
70	0x3e84f06c	0.25964677
71	0x3dc50531	0.09620131
72	0x3eba5379	0.3639181
73	0xbe156b96	-0.14591822
74	0xbe4ba83f	-0.198884
75	0xbe233614	-0.15938598
76	0xbde2f23c	-0.11081359
77	0x3def7662	0.116925016
78	0x3dd3b264	0.1033676
79	0x3e759fc0	0.23986721
80	0xbe18a835	-0.14907916
81	0xbdc780cf	-0.09741365
82	0x3e856cc6	0.2605955
83	0xbc718b89	-0.01474274
84	0x3e801c3b	0.25021538
85	0x3cbfc8aa	0.023411114
86	0x3e291943	0.16513543
87	0xbe65aca1	-0.22429134
88	0xbe152d18	-0.14567983
89	0x3db43eb7	0.088010244
90	0x3e219677	0.15780054
91	0x3cebdd50	0.028792053
92	0x3e8f1130	0.279428
93	0x3e8f73aa	0.28017932
94	0xbde539bf	-0.11192655
95	0xbe1dd02f	-0.15411447
96	0x3e87561c	0.26432884
97	0xbdc77e0a	-0.09740837
98	0xbdd197ab	-0.102340065
99	0xbe6b8494	-0.22999793
100	0xbdeada0d	-0.11467371
101	0x3df457a1	0.119307764
102	0xbb7cfc50	-0.0038602538
103	0xbe2dede1	-0.16985275
104	0x3bdde251	0.006771364
105	0xbe49ebd2	-0.19718865
106	0xbe7ac9f4	-0.24491102
107	0xbe22c718	-0.1589626
108	0xbe2dd13e	-0.16974351
109	0xbdcab5e2	-0.09897973
110	0x3ebf1ec8	0.37328172
111	0x3e00ad93	0.12566213
112	0x3e35a921	0.17740299
113	0xbe89da30	-0.26924276
114	0xbe422500	-0.18959427
115	0xbdc4c95d	-0.096087195
116	0x3d38e532	0.045140453
117	0xbe2686df	-0.16262387
118	0xbd028467	-0.03186455
119	0xbd9fb85c	-0.07798836
120	0x3d990167	0.074709706
121	0xbc7e9157	-0.015537581
122	0xbca3df5a	-0.020003963
123	0xbe484f42	-0.19561484
124	0xbe4ae694	-0.19814521
125	0xbe2c749d	-0.1684136
126	0xbceec359	-0.029145883
127	0xbe1ec9e0	-0.15506697
128	0x3ea081c7	0.31349012
129	0xbb961dbf	-0.0045811827
130	0x3ea13924	0.31488907
131	0x3db8359c	0.089946
132	0xbe7a50e6	-0.24444923
133	0x3e4c9163	0.19977336
134	0xbda2aade	-0.079427466
135	0xbbfd0fa9	-0.007722814
136	0xbe0aa8a2	-0.13540891
137	0xbe3b0ea1	-0.18267299
138	0x3e2b64cd	0.16737671
139	0x3d19e353	0.03757031
140	0x3de62ba1	0.1123879
141	0xbe729742	-0.23690513
142	0x3e5b76eb	0.21432082
143	0xbe58fd1d	-0.21190305
144	0x3d691749	0.056906972
145	0x3e26c79d	0.16287084
146	0x3e82e972	0.2556873
147	0x3ea258ce	0.31708378
148	0x3ebb6a23	0.36604413
149	0xbe6a63f3	-0.2288969
150	0x3d94c991	0.07265008
151	0xbdfe4b18	-0.12416667
152	0xbd019315	-0.03163441
153	0xbe14605c	-0.14489883
154	0x3ea7459e	0.326703
155	0xbe0fb2a9	-0.14032997
156	0x3e502cb6	0.20329556
157	0x3e2c3ac1	0.16819288
158	0x3dc01dba	0.0938067
159	0xbe1fd11b	-0.15607111
160	0x3e865834	0.2623917
161	0x3d81eafc	0.06343648
162	0x3e03dd82	0.12877467
163	0xbe25ea22	-0.16202596
164	0x3e5e7e99	0.2172798
165	0x3d0bf949	0.034173284
166	0xbd308b5a	-0.043101646
167	0x3e7de850	0.24795651
168	0x3d83cf0e	0.06435977
169	0xbe238ce4	-0.15971714
170	0xbe159dc9	-0.14610972
171	0x3d835399	0.06412429
172	0x3e87b881	0.26507953
173	0x3bc02173	0.0058633625
174	0xbd9bc4cb	-0.07605895
175	0xbc90467a	-0.01761173
176	0xbe5cd67b	-0.21566193
177	0x3dd2d7ef	0.10295092
178	0x3e64cf12	0.22344616
179	0xbe8b257e	-0.27177042
180	0x3e1ad190	0.15119004
181	0x3e6f230f	0.23353218
182	0x3e0ce9da	0.13761082
183	0xbd0d47a5	-0.034492154
184	0x3e6e6840	0.23281956
185	0x3e1b57ec	0.15170258
186	0x3ddd117a	0.10794349
187	0xbd4fc67c	-0.0507264
188	0xbd9c8d62	-0.07644154
189	0x3e04a451	0.12953307
190	0x3d3a8c9c	0.04554425
191	0x3c5d9606	0.013524538
192	0x3e84cc09	0.25936916
193	0x3eacce22	0.33751017
194	0xbcea1c91	-0.028578075
195	0xbd845e8c	-0.06463346
196	0x3b8a086f	0.004212431
197	0xbc8d331b	-0.017236283
198	0x3e297fe4	0.16552693
199	0x3e3a4bcb	0.18192975
200	0xbe2623e4	-0.16224629
201	0xbcbd3703	-0.02309752
202	0x3eaec549	0.34134892
203	0x3de64eb8	0.11245483
204	0xbc6b3dd1	-0.014358
205	0xbe323890	-0.1740439
206	0xbe34da04	-0.17661291
207	0xbe56036f	-0.20899747
208	0xbd35c080	-0.044373035
209	0x3e149b88	0.14512455
210	0x3e5d6e95	0.21624215
211	0x3e300d3d	0.1719255
212	0xbe82a5fe	-0.25517267
213	0xbe31c3c7	-0.1735984
214	0xbd3a9ac1	-0.04555774
215	0x3e8ef9d3	0.27924976
216	0xbd101ca7	-0.035183575
217	0xbe267eee	-0.16259357
218	0x3d1845ff	0.03717613
219	0xbe337565	-0.17525251
220	0xbe8b1b61	-0.27169326
221	0x3e57c1d1	0.21070029
222	0xbe06694f	-0.1312611
223	0xbd6d08d9	-0.057869766
224	0xbe9308a2	-0.28717524
225	0x3de0a47f	0.10968875
226	0x3dfa1bc6	0.122123286
227	0x3c85b3a7	0.016321016
228	0xbe8850ff	-0.26624295
229	0xbebda5b9	-0.370405
230	0xbe701533	-0.23445587
231	0x3e5c6e75	0.21526511
232	0x3e0debbe	0.1385946
233	0x3e78c064	0.24292141
234	0x3db4d150	0.08828986
235	0x3b699b13	0.003564541
236	0xbd89149e	-0.066933855
237	0xbe87bb0b	-0.2650989
238	0xbe9d81e6	-0.30763167
239	0xbe8a3eff	-0.27001187
240	0x3df2047c	0.118172616
241	0xbe1121bc	-0.14173025
242	0xbd6df6b7	-0.058096614
243	0xbe8440c6	-0.25830668
244	0xbe208ab2	-0.15677908
245	0xbe9a0334	-0.3008057
246	0xbe872e96	-0.2640273
247	0x3817e205	3.6211703e-05
248	0xbdafb459	-0.085793205
249	0x3e367d1c	0.17821163
250	0xbdbdaa0e	-0.09260951
251	0xbe58d84d	-0.21176262
252	0x3d2c161f	0.042013284
253	0xbd186a20	-0.037210584
254	0x3c1cce69	0.009570696
255	0xbe49c60d	-0.19704457

lstm.weight_hh_l0 f4 [48, 12]
0	0xbe5a6119	-0.21326102
1	0x3d7ae818	0.061256498
2	0xbea81e18	-0.3283546
3	0x3da65e06	0.08123402
4	0xbc0e7177	-0.008694044
5	0x3dd56faf	0.104216926
6	0x3d1fcebe	0.039015524
7	0xbd82f563	-0.0639446
8	0xbe3de683	-0.18544964
9	0x3ddf4f29	0.109037705
10	0x3dc0ec6f	0.09420096
11	0x3ea4ac2e	0.32162613
12	0x3e33c548	0.17555726
13	0xbe79645b	-0.24354689
14	0xbea0ac3f	-0.31381413
15	0x3e00c69c	0.12575763
16	0x3eaabd1e	0.3334741
17	0xbdf05cc5	-0.117364444
18	0x3da1bbad	0.078971244
19	0xbec52b57	-0.38509628
20	0xbead052c	-0.33793008
21	0xbd47e630	-0.04880351
22	0x3e396ff6	0.18109116
23	0x3e2507f2	0.16116312
24	0xbe1b17be	-0.15145776
25	0x3e45f53f	0.19331835
26	0xbd0cb637	-0.03435346
27	0xbe7b03d5	-0.2451318
28	0x3d741ebb	0.05959962
29	0x3e147c6f	0.14500593
30	0x3e32d053	0.17462282
31	0xbe92c614	-0.28666747
32	0x3d0ebded	0.034849096
33	0xbe641984	-0.22275358
34	0xbe29dd8e	-0.16588423
35	0xbdaf6b5a	-0.085653976
36	0x3e29a3a5	0.16566332
37	0x3e087008	0.13323987
38	0x3e13836d	0.14405604
39	0x3d5ca6d5	0.05387004
40	0x3eabb34c	0.3353523
41	0x3d9b824c	0.075932115
42	0xbd4031d7	-0.04692253
43	0x3cf242f7	0.029572947
44	0xbe862840	-0.26202583
45	0xbe9e8f82	-0.30968863
46	0x3cbaf6c0	0.022822738
47	0x3e2f743d	0.17134185
48	0x3d1901ce	0.037355237
49	0xbe65f070	-0.22455001
50	0xbe90ef96	-0.2830779
51	0xbd9ae92d	-0.07564006
52	0xbd614932	-0.055001445
53	0xbd9cf5f0	-0.07664096
54	0x3e829160	0.25501537
55	0xbe11ef94	-0.14251548
56	0x3e1ca036	0.1529549
57	0x3e2b6b09	0.1674005
58	0x3e4c7290	0.19965577
59	0x3e557384	0.20844847
60	0xbbbdd6c5	-0.005793425
61	0xbd8a877f	-0.06764125
62	0xbdbf1042	-0.09329273
63	0xbd940a0d	-0.072284795
64	0x3e3d1023	0.18463187
65	0x3ea6d86c	0.32586992
66	0xb99775b5	-0.00028888663
67	0xbe4ee9e2	-0.20206407
68	0xbe11d2a7	-0.14240514
69	0xbe5b642a	-0.21424928
70	0x3df9c373	0.12195482
71	0x3e9328d0	0.28742075
72	0x3e01a622	0.12661031
73	0x3d031910	0.032006323
74	0xbea12a9c	-0.3147782
75	0xbe83d9b0	-0.2575202
76	0x3d2edd14	0.042691305
77	0x3d416902	0.047219284
78	0x3dff2dbc	0.12459895
79	0xbebe1f3b	-0.37133202
80	0xbc113f72	-0.008865224
81	0xbea4a15c	-0.32154357
82	0xbda71199	-0.08157653
83	0xbe122874	-0.14273244
84	0x3e0d8600	0.13820648
85	0xbec6b416	-0.3880927
86	0x3dd0ddee	0.1019858
87	0xbe029866	-0.12753448
88	0x3da28860	0.07936168
89	0x3e96450f	0.29349563
90	0x3d90036e	0.07031904
91	0x3dbada7b	0.09123703
92	0x3dc427d4	0.09577909
93	0xbebb7eef	-0.3662028
94	0x3e674bd0	0.22587514
95	0x3e2a09d2	0.16605309
96	0xbd04d8b6	-0.032433234
97	0xbd5522ae	-0.052035026
98	0xbc82d479	-0.015970455
99	0xbe70d8bc	-0.23520178
100	0x3d79a451	0.06094772
101	0x3ebd7a6d	0.37007466
102	0x3e926397	0.28591606
103	0xbddf4da7	-0.10903483
104	0xbebaf093	-0.3651167
105	0xbdaae362	-0.08344151
106	0xbdcd9033	-0.100372694
107	0x3ea796b6	0.3273217
108	0xbe8f3d1c	-0.2797631
109	0xbdfeb1d8	-0.12436265
110	0xbe2c4a16	-0.16825137
111	0xbd624855	-0.055244762
112	0x3ec1d7fc	0.37860096
113	0x3e0882b9	0.13331117
114	0x3e899541	0.26871684
115	0x3debc76c	0.11512646
116	0x3e04c7e5	0.12966879
117	0xbe526d99	-0.2054962
118	0x3d28b820	0.04119122
119	0x3e77efe7	0.24212609
120	0xbe3f07ae	-0.18655273
121	0x3cd8c122	0.02645928
122	0xbe302c90	-0.17204499
123	0xbe9d52bc	-0.30727184
124	0x3e6bdc31	0.23033215
125	0x3e1da327	0.15394269
126	0x3e714602	0.23561862
127	0x3e303c25	0.17210443
128	0x3db7560f	0.08951961
129	0x3e274d8b	0.16338174
130	0x3e00fc80	0.12596321
131	0xbe11e8c8	-0.14248955
132	0xbe8151d0	-0.2525773
133	0xbe68ed94	-0.22746879
134	0xbe9f1a10	-0.31074572
135	0xbe467172	-0.19379213
136	0xbe5d409b	-0.21606676
137	0xbe596122	-0.2122846
138	0xbdfb7bfe	-0.12279509
139	0xbeaeccfb	-0.34140763
140	0xbe680424	-0.2265783
141	0x3d78ff2f	0.060790237
142	0x3e940948	0.2891333
143	0xbd0f5500	-0.03499317
144	0xbe3a4651	-0.18190886
145	0x3d660309	0.05615524
146	0xbe74ca91	-0.23905398
147	0xbe72b89a	-0.23703232
148	0x3e8f1e97	0.27953026
149	0xbe1cdb85	-0.15318115
150	0x3e066e28	0.13127959
151	0x3e20e5b7	0.1571263
152	0xbd42f796	-0.047599398
153	0xbcadc6e0	-0.021212995
154	0xbd8b41d0	-0.06799662
155	0x3dbb6769	0.09150583
156	0xbdafabe9	-0.08577711
157	0xbcf420fd	-0.029800886
158	0x3c40985d	0.011755076
159	0x3e151618	0.1455921
160	0xbded00f3	-0.11572447
161	0x3de3a17e	0.111147866
162	0xbd36fd5c	-0.044675216
163	0xbeab0a4e	-0.334063
164	0xbdfe47d8	-0.12416047
165	0xbeb7615a	-0.3581646
166	0x3e9c13cb	0.3048385
167	0x3e08d7e9	0.13363613
168	0xbe6cefdf	-0.23138379
169	0x3d9c43a8	0.07630092
170	0xbeb2b1dc	-0.3490132
171	0xbe42e07f	-0.19030951
172	0x3cb906d4	0.022586264
173	0xbe2b6686	-0.16738328
174	0xbddde5bc	-0.10834834
175	0xbe110912	-0.14163616
176	0x3e126ecf	0.14300083
177	0x3e4d1d11	0.20030619
178	0x3e852d0f	0.2601094
179	0xbdc6145e	-0.096718535
180	0xbe99fdbd	-0.300764
181	0x3e0f0507	0.13966762
182	0xbc366a94	-0.011133809
183	0xbdd8a89e	-0.10579036
184	0x3e20a362	0.15687326
185	0xbded8518	-0.11597651
186	0x3c5dfa6e	0.013548477
187	0x3e25344d	0.16133232
188	0xbe3b2ace	-0.18278047
189	0xbe038531	-0.12843777
190	0xbdfeed9a	-0.12447663
191	0xbd52ff56	-0.05151304
192	0xbdf04c70	-0.11733329
193	0xbe944ad3	-0.28963336
194	0xbe1462e9	-0.14490856
195	0x3a83ca88	0.0010054866
196	0xbe2ddfe1	-0.16979934
197	0x3e494dfa	0.19658652
198	0xbda5bf43	-0.08093121
199	0xbe8462b5	-0.25856557
200	0xb89665ac	-7.171495e-05
201	0x3ded7b4d	0.115957834
202	0x3d098143	0.03357054
203	0xbc0143ca	-0.007889697
204	0xbead0686	-0.3379404
205	0xbe668d5a	-0.22514859
206	0xbea9129f	-0.3302202
207	0xbe175bb7	-0.1478108
208	0x3e0d92b5	0.13825496
209	0xbe45ddd1	-0.19322897
210	0x3ea8ca3f	0.32966802
211	0x3dac9666	0.08427124
212	0xbeb7e583	-0.3591729
213	0xbe5e1c38	-0.21690452
214	0x3e2fad5b	0.17155974
215	0x3c87d487	0.016580833
216	0xbe067357	-0.13129936
217	0xbe6b2507	-0.22963344
218	0x3e070324	0.13184792
219	0xbe86d509	-0.26334408
220	0x3eaf99b2	0.34296948
221	0x3df5182a	0.119674996
222	0x3e1f953a	0.15584269
223	0x3df4a7ed	0.11946092
224	0xbe169611	-0.14705683
225	0xbe88646f	-0.26639125
226	0x3d630c7f	0.05543184
227	0x3eaa5892	0.332707
228	0xbea660d6	-0.32495755
229	0xbd3ca9c6	-0.046060346
230	0xbec8d0e8	-0.39221883
231	0x3d122b73	0.035685968
232	0x3e65fe3d	0.22460265
233	0x3dbee93f	0.09321832
234	0x3e70e4d4	0.23524791
235	0xbdeb5014	-0.11489883
236	0x3d4b91dc	0.04969965
237	0xbeaf4826	-0.34234732
238	0x3d8228cf	0.0635544
239	0x3e73d7d6	0.23812804
240	0x3e4678ee	0.19382069
241	0x3d5db21e	0.054124944
242	0xbe9b4aea	-0.30330592
243	0x3e010f7d	0.12603565
244	0x3d03c1c9	0.03216723
245	0x3d07a5f6	0.033117257
246	0xbe2eb985	-0.17062958
247	0xbe13fec5	-0.14452656
248	0x3de45a08	0.111499846
249	0xbd60cf77	-0.054885354
250	0xbd957b9e	-0.07298969
251	0x3e38fd84	0.18065459
252	0xbe489fd4	-0.1959222
253	0x3e24d794	0.16097862
254	0xbeb56171	-0.35425904
255	0xbe49898f	-0.1968138

lstm.bias_ih_l0 f4 [48]
0	0xbcc38b5c	-0.023870163
1	0x3cb6b0d6	0.022301119
2	0x3e160813	0.14651518
3	0xbdfbdbab	-0.12297758
4	0xbd85bda4	-0.06530312
5	0x3da238b5	0.07920972
6	0x3e0cf19b	0.1376404
7	0x3e8ac653	0.27104434
8	0xbde16978	-0.11006445
9	0x3e4ad091	0.19806124
10	0x3e88d974	0.26728404
11	0x3e56495a	0.20926419
12	0xbe333874	-0.17502004
13	0xbc54879b	-0.012971784
14	0xbe342dc5	-0.17595585
15	0xbd9a8df1	-0.075466044
16	0x3e896a1c	0.26838768
17	0x3cf58c79	0.02997421
18	0x3e5f1bc5	0.21787937
19	0xbd858fcf	-0.0652157
20	0x3e08996c	0.13339776
21	0xbd99c29b	-0.07507821
22	0x3e7baf1f	0.24578522
23	0xbda328ac	-0.07966742
24	0xbe2825fb	-0.16420738
25	0xbeb10315	-0.34572664
26	0xbd8872a8	-0.06662494
27	0x3e2f85b0	0.17140841
28	0x3e778778	0.24172771
29	0xbdaba83f	-0.083817
30	0x3dca8c20	0.09890008
31	0xbe05d91d	-0.13071103
32	0xbea45283	-0.320942
33	0x3e01d335	0.12678225
34	0x3dccf7ce	0.100082025
35	0x3dd81637	0.10551112
36	0xbc9a6329	-0.018846111
37	0xbd08d8d1	-0.033409897
38	0x3df580f6	0.11987488
39	0x3e5e1ced	0.21690722
40	0x3e3386a4	0.1753183
41	0xbd8299f2	-0.06377019
42	0x3ec21f47	0.37914488
43	0x3d8c6837	0.06855815
44	0xbdab8582	-0.08375074
45	0xbcdf07d9	-0.027225422
46	0x3ec690fa	0.38782483
47	0x3d495165	0.04914989

lstm.bias_hh_l0 f4 [48]
0	0x3d6b8abb	0.05750535
1	0xbca3b2cc	-0.019982718
2	0xbb88f39b	-0.0041794307
3	0xbe07afe3	-0.13250689
4	0xbdf5b78c	-0.119978994
5	0x3e79cf9f	0.24395607
6	0x3eb05aa7	0.34444162
7	0x3ec63131	0.38709405
8	0xbdecf082	-0.11569311
9	0x3e862b6a	0.26204997
10	0xbd9a9384	-0.075476676
11	0x3e627eb6	0.22118649
12	0x3e9ab3ea	0.3021539
13	0x3ea423ce	0.32058567
14	0x3e8f6184	0.28004086
15	0x3e935a4a	0.28779823
16	0x3de7df86	0.113219306
17	0x3e52a80b	0.20571916
18	0xbc0322d9	-0.008003914
19	0x3e6b74d4	0.22993785
20	0xbb54ff85	-0.0032500934
21	0x3dc1e8a0	0.09468198
22	0xbe195f4f	-0.14977764
23	0xbceca75d	-0.028888399
24	0xbe7978f8	-0.24362552
25	0xbe4542d0	-0.19263768
26	0xbe80fbfb	-0.25192246
27	0xbeb98389	-0.36233166
28	0x3df698a4	0.12040833
29	0x3e83dd3f	0.25754735
30	0x3eb7427b	0.35792908
31	0x3d8e2147	0.06939941
32	0xbe73e2b6	-0.23816952
33	0xbec527b5	-0.38506857
34	0x3e51d864	0.20492703
35	0x3e536bac	0.20646542
36	0xbe19b475	-0.15010245
37	0x3e521b1d	0.20518155
38	0x3ea1f7ef	0.3163447
39	0x3e02bb64	0.12766796
40	0xbd81bb1d	-0.06334517
41	0x3e9fc2cc	0.31203306
42	0x3e6378e1	0.2221408
43	0x3e9abbab	0.30221304
44	0xbdd1483a	-0.10218854
45	0x3e8d33b6	0.27578515
46	0xbdbf91f3	-0.093540095
47	0x3eab67e5	0.33477703

layers.0.weight f4 [128, 12]
0	0xbdfa7e7e	-0.12231158
1	0x3e321eef	0.17394613
2	0x3d6cc4af	0.05780476
3	0x3d9cad0c	0.076501936
4	0xbd355439	-0.044269774
5	0x3df2d459	0.11856908
6	0xbdf665f8	-0.12031168
7	0xbe8b5096	-0.2720992
8	0xbde324b7	-0.11090987
9	0x3e679ddb	0.22618811
10	0xbd9ba593	-0.0759994
11	0x3db9d3c0	0.09073591
12	0xbe30961c	-0.17244762
13	0x3e1aacbb	0.15104954
14	0x3dd3d218	0.103428066
15	0x3d1688f3	0.0367517
16	0xbda31efa	-0.07964893
17	0xbe2a509d	-0.16632314
18	0x3d9831c6	0.074313685
19	0xbe72a4d5	-0.23695691
20	0x3e303e4e	0.17211267
21	0xbeb0223a	-0.34401113
22	0x3e48c235	0.19605334
23	0x3eb3b4f3	0.3509899
24	0x3dc029bf	0.093829624
25	0x3d4527b1	0.048133556
26	0xbea9d388	-0.33169198
27	0x3e66fbde	0.22557017
28	0x3b65ef89	0.00350854
29	0xbe5ca9ed	-0.21549197
30	0x3eab9de2	0.33518893
31	0xbe34463e	-0.1760492
32	0xbd922aa0	-0.07137036
33	0x3e58b978	0.211645
34	0xbe183546	-0.14864072
35	0xbe1e5027	-0.15460263
36	0xbce5a8a6	-0.02803452
37	0xbde99fc0	-0.11407423
38	0xbc17c5ef	-0.0092635
39	0xbea431d4	-0.32069266
40	0x3db43514	0.08799186
41	0xbd54b720	-0.051932454
42	0xbd89ddd4	-0.067317635
43	0xbeb46a0e	-0.35237163
44	0x3d9f8d2c	0.07790598
45	0xbcb8ce73	-0.02255938
46	0xbe2ab679	-0.1667117
47	0x3e9aa0f4	0.30200922
48	0x3db251fc	0.087070435
49	0x3d5b6994	0.053567484
50	0xbe2d8f3a	-0.16949168
51	0x3d325033	0.043533515
52	0x3e8e69b0	0.27815008
53	0x3e4abfef	0.1979978
54	0xbe663c94	-0.22484046
55	0x3e86ea9f	0.26350877
56	0x3cb74c12	0.02237514
57	0x3e0e2cc6	0.13884267
58	0x3e65968e	0.22420713
59	0x3e7c012a	0.24609819
60	0xbea1d6e7	-0.3160927
61	0x3e23e0bf	0.16003703
62	0xbe93b148	-0.28846192
63	0xbd9a7801	-0.0754242
64	0xbdd38cf3	-0.10329618
65	0x3cf4fdd2	0.029906187
66	0x3da0cb3c	0.07851264
67	0xbe0b3120	-0.13592958
68	0xbe0c1ec1	-0.13683607
69	0xbd93ea5c	-0.07222435
70	0x3ec269a3	0.3797122
71	0x3e82ffa9	0.25585678
72	0x3e256195	0.16150506
73	0x3deca104	0.11554149
74	0x3e64d9bc	0.22348684
75	0xbc5a44d3	-0.013322073
76	0x3cbc085c	0.022953205
77	0x3d735653	0.059408497
78	0xbe80e700	-0.2517624
79	0xbe6e2014	-0.23254424
80	0x3d10f72c	0.03539197
81	0xbde74f4c	-0.112944216
82	0xbbad9379	-0.005297121
83	0xbd87a857	-0.06623905
84	0x3d380ec8	0.04493597
85	0x3e4052fa	0.18781653
86	0xbdc411a4	-0.09573677
87	0x3e6cbcb1	0.23118855
88	0x3e6965a7	0.22792684
89	0xbe62e000	-0.22155762
90	0xbe6445cc	-0.2229225
91	0xbe6f2a4d	-0.2335598
92	0xbe21ff22	-0.15819982
93	0xbde62489	-0.11237437
94	0xbcb1ffcd	-0.02172842
95	0xbd8fc6df	-0.070203535
96	0xbe773971	-0.24143006
97	0xbe406fdc	-0.18792671
98	0xbe4d5c13	-0.20054655
99	0x3e3be435	0.18348773
100	0xbbdb4148	-0.0066911317
101	0xbde0c31f	-0.109747164
102	0x3e5b7846	0.214326
103	0xbded3c6a	-0.11583789
104	0x3e00650f	0.12538551
105	0x3da69a84	0.0813494
106	0x3eba3f0c	0.36376226
107	0xbdf27969	-0.118395634
108	0x3e3f2fa1	0.18670513
109	0x3e793ae5	0.24338873
110	0xbe10ccda	-0.14140645
111	0x3e8870b1	0.26648477
112	0x3e5c6e32	0.21526411
113	0x3b03e829	0.0020127392
114	0x3e0d5e47	0.13805495
115	0xbdcc6330	-0.09979856
116	0xbe8053c0	-0.25063896
117	0x3d97c020	0.07409692
118	0x3daded27	0.08492499
119	0xbe425c0b	-0.18980424
120	0x3e0f5e15	0.14000733
121	0xbe7c82d5	-0.24659283
122	0x3e7e6742	0.24844077
123	0x3e8f2134	0.2795502
124	0x3da0f603	0.07859423
125	0xbe397854	-0.18112308
126	0x3e0fdc94	0.14048988
127	0x3d49807a	0.04919479
128	0x3da0c29c	0.07849619
129	0x3dc24d53	0.09487405
130	0x3e610f2a	0.21978441
131	0xbdfe1f32	-0.12408294
132	0xbd84fd31	-0.06493605
133	0x3da139be	0.078723416
134	0x3d00d64a	0.031454362
135	0x3e6e5e30	0.23278117
136	0xbe1b4323	-0.1516233
137	0xbc2c3cf6	-0.010512581
138	0x3d5cf00c	0.053939864
139	0xbd9d049b	-0.07666894
140	0x3e498489	0.19679464
141	0x3d01558f	0.031575736
142	0xbe889a4d	-0.26680222
143	0xbd001907	-0.031273868
144	0xbe5f298a	-0.2179319
145	0xbd70b33a	-0.058764674
146	0xbdf5ab28	-0.11995536
147	0xbec0e0eb	-0.376716
148	0x3d1ae656	0.03781732
149	0x3d73ed41	0.059552435
150	0xb90d6ce7	-0.00013487377
151	0x3e301acb	0.1719772
152	0xbe1988c0	-0.14993572
153	0x3dc38cd8	0.09548348
154	0x3e2488a3	0.16067748
155	0xbe22401d	-0.1584477
156	0x3d9ecdc4	0.077540904
157	0x3e7e90f5	0.24859984
158	0xbe379994	-0.17929679
159	0xbe3516e4	-0.17684513
160	0x3e8bd932	0.27314144
161	0x3e63a8d1	0.22232367
162	0xbe2e819e	-0.17041633
163	0x3e3b93ad	0.18318053
164	0xbcdff957	-0.027340574
165	0xbe8ce618	-0.27519298
166	0x3c47eedd	0.012202946
167	0x3daaeafc	0.08345601
168	0xbdbf48ec	-0.093400806
169	0x3dc02288	0.09381586
170	0xbe81dac3	-0.25362214
171	0x3e45e5a0	0.19325876
172	0x3e816a73	0.25276527
173	0x3e29da8d	0.16587277
174	0x3d63b892	0.05559594
175	0x3db51bd5	0.08843199
176	0xbe5cc040	-0.21557713
177	0xbda15ddc	-0.078792304
178	0xbcab742b	-0.020929417
179	0xbe1d8110	-0.15381265
180	0xbe756a20	-0.23966265
181	0x3e2c43ca	0.16822734
182	0x3e2d6b10	0.16935372
183	0xbe937f05	-0.28807846
184	0x3df0ecd8	0.11763924
185	0x3e12eb22	0.14347509
186	0x3e999473	0.2999607
187	0x3e10e83e	0.14151093
188	0x3e754ce5	0.23955114
189	0xbdf6a841	-0.12043811
190	0x3e695612	0.2278674
191	0x3e85a55f	0.2610273
192	0xbebda0e1	-0.37036803
193	0xbea92488	-0.33035684
194	0xbd261215	-0.040544588
195	0x3d63658d	0.05551677
196	0xbd24bf12	-0.04022128
197	0x3e064c52	0.13115051
198	0x3dc6a2a2	0.096989885
199	0xbced6486	-0.028978597
200	0xbe817c44	-0.2529012
201	0x3d7cd1ef	0.061723646
202	0x3e95e3b3	0.29275283
203	0xbdd7131c	-0.10501692
204	0x3b3745cb	0.0027965184
205	0x3a51f74f	0.0008009569
206	0x3dbdd884	0.09269813
207	0x3e89b093	0.26892528
208	0x3dad611a	0.08465786
209	0xbd8655cc	-0.06559333
210	0x3e84bedc	0.25926864
211	0xbde0f93b	-0.10985037
212	0xbdabab73	-0.08382311
213	0x3ca17596	0.01970939
214	0xbe611ac4	-0.21982867
215	0x3d00aac5	0.03141286
216	0xbe9085dc	-0.28227127
217	0xbd70476e	-0.05866187
218	0xbd767d8d	-0.06017833
219	0xbd58d779	-0.052939866
220	0xbe18a4e5	-0.14906652
221	0xbe3db3ee	-0.18525669
222	0x3e612d58	0.21989954
223	0x3e17f683	0.1484013
224	0xbeaf8184	-0.342785
225	0x3c8500c7	0.016235722
226	0xbdf96fd8	-0.121795356
227	0x3dcf6191	0.10126031
228	0x3e9b1214	0.3028723
229	0x3e82ecb2	0.2557121
230	0xbe35a4f8	-0.17738712
231	0x3e639054	0.22223026
232	0x3de34505	0.11097149
233	0xbd14c67f	-0.036322113
234	0x3e7a9db1	0.24474217
235	0xbd878d00	-0.066186905
236	0xbd005815	-0.031334
237	0xbddade95	-0.106869854
238	0x3b13ddad	0.002256255
239	0x3d37761b	0.04479037
240	0x3cbc6e0c	0.023001693
241	0xbe265141	-0.16241933
242	0xbe05121a	-0.12995186
243	0x3dc919b6	0.09819357
244	0xbe8198ae	-0.25311798
245	0xbd382481	-0.044956688
246	0xbbd189e7	-0.006394613
247	0xbdef891c	-0.116960734
248	0x3dd7269a	0.105054095
249	0x3c986c00	0.018606186
250	0x3e4f885b	0.20266859
251	0xbcd2061b	-0.025637677
252	0xbe3a910e	-0.18219396
253	0x3e50dbec	0.20396394
254	0x3d251f63	0.040313136
255	0xbda9520d	-0.08267603

layers.0.bias f4 [128]
0	0xbe0ed1a9	-0.13947167
1	0x3d3c630f	0.045992907
2	0x3e7953be	0.24348351
3	0x3e3a6e97	0.18206249
4	0xbe3f335c	-0.18671936
5	0x3e230702	0.15920642
6	0xbe6160fc	-0.22009653
7	0xbe2088c9	-0.1567718
8	0x3e8cb0f6	0.2747876
9	0xbd9fd16c	-0.07803616
10	0xbe169152	-0.14703873
11	0x3ca79fd9	0.020461963
12	0x3e1b78cd	0.151828
13	0xbe413de8	-0.18871272
14	0xbe408ff3	-0.18804912
15	0xbe8195d2	-0.25309616
16	0x3e29e5bc	0.16591543
17	0xbe3ebb63	-0.1862617
18	0x3dcf24f6	0.101144716
19	0xbdbf43b8	-0.09339088
20	0xbe41487f	-0.18875311
21	0xbdbca742	-0.092115894
22	0xbe633a32	-0.22190168
23	0xbdd7a54f	-0.10529577
24	0x3d8d9185	0.06912521
25	0xbe7cb73c	-0.24679273
26	0xbe8597b6	-0.2609231
27	0x3e59c808	0.21267712
28	0x3b9ae8e9	0.004727472
29	0xbdb96ad4	-0.09053579
30	0xbca2c8dc	-0.019871168
31	0x3e5adad7	0.21372543
32	0xbe79413b	-0.2434129
33	0xbe1cb95a	-0.15305081
34	0xbe56310d	-0.20917149
35	0x3d90739d	0.070533015
36	0x3d999bc1	0.07500411
37	0xbe3d626e	-0.18494579
38	0x3e904746	0.28179377
39	0xbe62ffe9	-0.22167934
40	0x3e903c8f	0.28171203
41	0xbe4b7bf3	-0.19871502
42	0x3d4f46e8	0.05060473
43	0x3e082e6a	0.13298956
44	0xbe036396	-0.12830958
45	0x3e922a79	0.2854803
46	0xbe23a9bd	-0.15982719
47	0x3cc3430d	0.023835683
48	0xbe590ccd	-0.2119629
49	0x3e2c7057	0.16839729
50	0x3ea8fdf3	0.33006248
51	0x3e96a0c1	0.2941952
52	0x3da7094b	0.08156069
53	0xbe1a1862	-0.15048364
54	0x3e9678f0	0.29389143
55	0x3dd51c25	0.10405759
56	0x3e8ee1e8	0.27906728
57	0xbdcd7929	-0.10032875
58	0xbe093002	-0.1339722
59	0xbe7563e3	-0.23963885
60	0x3eb311b8	0.34974456
61	0x3e041cca	0.12901607
62	0xbe6877b1	-0.22701909
63	0x3dcbbc93	0.09948077
64	0xbd1de692	-0.038549967
65	0x3db5c9a4	0.088763505
66	0x3e0a40d2	0.1350129
67	0xbe12b04c	-0.14325064
68	0x3e0f53ab	0.1399676
69	0xbdfc1e0f	-0.12310421
70	0x3e11e5f8	0.14247882
71	0xbe8e457a	-0.2778738
72	0x3e02a4d6	0.12758192
73	0x3ec00291	0.37501958
74	0x3ea2b6bb	0.31780037
75	0x3e40a139	0.18811502
76	0x3e98f29b	0.29872593
77	0x3eb9d5db	0.3629597
78	0x3e25fa75	0.16208823
79	0x3e3dfc0f	0.18553184
80	0x3dd7b397	0.10532301
81	0x3e61d225	0.2205282
82	0x3eaaf393	0.33388957
83	0xbe0b02b2	-0.13575247
84	0x3d866d8f	0.065638654
85	0xbdd81188	-0.10550219
86	0x3e4600f3	0.193363
87	0xbe8f37f6	-0.27972382
88	0x3e3eae4b	0.18621175
89	0xbda24177	-0.07922643
90	0x3e435e77	0.19079004
91	0x3e32482f	0.17410348
92	0xbe111919	-0.1416973
93	0x3e6cc360	0.23121405
94	0x3e5300d3	0.20605783
95	0xbe36f7bd	-0.17867942
96	0x3ebf467d	0.37358466
97	0x3ea9d9de	0.33174032
98	0x3e565cf8	0.20933902
99	0xbcf0079b	-0.029300502
100	0x3e31c94f	0.1736195
101	0xbe1fed0d	-0.15617771
102	0xbb921c96	-0.004458974
103	0x3e21afa6	0.15789661
104	0x3db5ed78	0.08883184
105	0x3d974f7f	0.073882096
106	0xbe8cf6ca	-0.27532035
107	0x3ea56652	0.32304627
108	0xbe1d24d7	-0.15346085
109	0x3eab0294	0.33400404
110	0x3ea512e6	0.3224098
111	0x3e28f10c	0.16498202
112	0x3ebf3d95	0.3735167
113	0x3e7c0cbd	0.24614234
114	0x3e7f7e40	0.24950504
115	0xbdc8c1e1	-0.098026045
116	0x3eb3445a	0.35013086
117	0x3d754039	0.0598757
118	0x3e8322f0	0.25612593
119	0xbba0afa8	-0.0049037524
120	0x3e98ae75	0.298206
121	0x3e8d3d14	0.2758566
122	0xbe561879	-0.20907773
123	0x3ea45142	0.32093245
124	0xbde95ff7	-0.11395257
125	0xbe4b83d8	-0.19874513
126	0xbe77080d	-0.24124165
127	0x3e2cede9	0.1688763

layers.2.weight f4 [4, 128]
0	0xbd87ea0d	-0.066364385
1	0xbe00154e	-0.12508127
2	0xbdf41a6d	-0.11919103
3	0xbd743c72	-0.059627958
4	0xbdb1b7be	-0.08677624
5	0xbdfebbaf	-0.124381416
6	0x3a298105	0.0006466064
7	0x3c020c22	0.007937463
8	0xbdf7caaa	-0.12099202
9	0x3cf91d06	0.030409347
10	0xbd6edb42	-0.05831457
11	0xbd994dad	-0.074855186
12	0xbdcf43e6	-0.101203725
13	0xbd8a5ea7	-0.06756335
14	0x3d2498bd	0.040184725
15	0xbdb17afc	-0.086660355
16	0xbdbdf171	-0.09274567
17	0x3d165fc4	0.036712423
18	0xbe27a930	-0.16373134
19	0x3d562bda	0.052287914
20	0xbd24805a	-0.040161468
21	0xbcc50883	-0.02405191
22	0xbd5d76cb	-0.054068368
23	0xbdb110c4	-0.08645776
24	0xbe0ffd55	-0.14061482
25	0xbda115bd	-0.078654744
26	0x3cdfeba8	0.02733405
27	0xbd770479	-0.060307
28	0x3d5f22a4	0.054476395
29	0x3b7934f2	0.0038025943
30	0x3d8e47dd	0.069473006
31	0xbd492052	-0.04910309
32	0x3d3780c1	0.044800524
33	0x3da980f6	0.082765505
34	0x3d9228fb	0.07136723
35	0xbe29076c	-0.16506737
36	0xbde18899	-0.11012382
37	0xbe18cf0d	-0.14922734
38	0xbd9bcb96	-0.0760719
39	0xbcffbc96	-0.031217854
40	0x3b7d3d69	0.003864134
41	0x3c64f5fb	0.013974662
42	0xbdcea8fa	-0.100908235
43	0xbe1d07a8	-0.15334952
44	0xbd8e0d2d	-0.06936107
45	0xbd809af7	-0.06279557
46	0xbdb1d3bd	-0.08682964
47	0xbe03633c	-0.12830824
48	0x3d7df248	0.061998636
49	0xbe08d13f	-0.13361071
50	0xbdf283b4	-0.11841527
51	0xbc12b8bd	-0.008955178
52	0xbd422e62	-0.047407515
53	0xbd763b6d	-0.060115267
54	0xbd3841a0	-0.04498446
55	0xbd2d3a77	-0.042292085
56	0xbe2385bf	-0.15968989
57	0xbda35f51	-0.079771645
58	0x3ca56e10	0.020194083
59	0xbb619b11	-0.0034424702
60	0x3b90ac21	0.0044150506
61	0xbe13a298	-0.14417493
62	0x3d01fae1	0.031733397
63	0xbe09d08d	-0.13458462
64	0xbe2efb2c	-0.17088002
65	0xbd021a80	-0.031763554
66	0xbdd31567	-0.103068165
67	0x3b88213a	0.0041543515
68	0xbd31cba7	-0.04340711
69	0xbe14be45	-0.14525707
70	0xbe2759c7	-0.16342841
71	0x3ceae5ce	0.028674033
72	0xbbf31264	-0.007417964
73	0xbdb3baaa	-0.08775838
74	0xbc894fbf	-0.016761659
75	0xbd5ca58a	-0.053868808
76	0xbd66259a	-0.056188203
77	0xbe0ab772	-0.13546541
78	0x3aa54f8a	0.0012612205
79	0xbd3a8078	-0.045532674
80	0xbd9a5284	-0.0753527
81	0x3c5868a7	0.013208545
82	0xbe209a8a	-0.15683952
83	0x3c9c06ea	0.019046266
84	0xbe0751b3	-0.1321476
85	0xbd84e166	-0.06488304
86	0xbd69bba2	-0.057063706
87	0x3d205885	0.03914692
88	0xbd87a809	-0.06623847
89	0xbd8c19b7	-0.06840842
90	0xbe12473a	-0.14284983
91	0xbda78d67	-0.08181267
92	0xbcae8c53	-0.021307146
93	0xbe1f4210	-0.15552545
94	0x3acfbc55	0.0015848974
95	0xbd683725	-0.056693215
96	0xbe123d5f	-0.14281224
97	0xbd2f6c9e	-0.042828195
98	0xbd25336b	-0.04033224
99	0xbd319a8e	-0.043360285
100	0xbd25b76a	-0.04045812
101	0xbd60969c	-0.054831132
102	0xbd977910	-0.07396138
103	0x3bc84ad8	0.0061124377
104	0x3b883c95	0.0041576126
105	0x3bb59c1b	0.005542291
106	0xbc935080	-0.017982721
107	0xbd807b01	-0.06273461
108	0xbb4b7f81	-0.003105134
109	0xbd6c85aa	-0.05774466
110	0xbdc7a8f2	-0.09749021
111	0xbd90fabc	-0.07079074
112	0xbdebe1ca	-0.11517675
113	0xbe07f6c3	-0.13277726
114	0xbe286d94	-0.1644805
115	0xbd93962f	-0.072063796
116	0xbe0a2e2e	-0.13494179
117	0x3c33c70a	0.010972748
118	0xbd8430f6	-0.06454651
119	0xbe1385ce	-0.14406511
120	0xbe01cb56	-0.12675223
121	0xbd5efabf	-0.05443835
122	0xbd864cd9	-0.06557626
123	0xbdd5f9b2	-0.10448016
124	0xbdeb628a	-0.11493404
125	0xbcb0d938	-0.021587953
126	0x3c2693c1	0.010167063
127	0xbda35cb9	-0.0797667
128	0x3d689a72	0.056787916
129	0xbd03f0cf	-0.032212075
130	0x3b433d3f	0.0029791144
131	0xbda8330c	-0.082128614
132	0xbd21a84c	-0.03946714
133	0xbda2d1c7	-0.07950168
134	0xbd6fbf47	-0.058532026
135	0x3d141e2b	0.036161583
136	0xbdb2ee13	-0.08736815
137	0xbce9c41b	-0.028535893
138	0xbd997868	-0.07493669
139	0x3d2e78ee	0.042595796
140	0xbd127747	-0.035758283
141	0x3d86751c	0.065653056
142	0xbd2a0be0	-0.04151523
143	0x3b0ead33	0.0021770715
144	0xbd9fb670	-0.07798469
145	0xbd669b9b	-0.05630074
146	0xbe0c9b12	-0.1373103
147	0x3d03e74c	0.032203004
148	0xbd4fed62	-0.050763495
149	0x3d83d0b7	0.064362936
150	0x3cfcf695	0.030879298
151	0xbca17143	-0.019707328
152	0xbd43be16	-0.047788702
153	0x3d313001	0.04325867
154	0x3d0e68f5	0.034768064
155	0xbc05c917	-0.008165619
156	0xbd8a0833	-0.06739845
157	0xbdcc86dc	-0.0998666
158	0xbcc44d38	-0.023962602
159	0xbcacdea5	-0.021102259
160	0x3d7b8a58	0.06141123
161	0x3d854e07	0.06509023
162	0xbcebaafc	-0.028768055
163	0xbdd72015	-0.10504166
164	0xbe16fd2b	-0.14745013
165	0xbb8ff8c0	-0.004393667
166	0xbe08ca70	-0.13358474
167	0xbd14f98a	-0.03637079
168	0x3bad24fd	0.0052839504
169	0x3caff5cb	0.021479508
170	0xbe0bf89f	-0.1366906
171	0xbe1478f5	-0.14499266
172	0xbd78f6f0	-0.060782373
173	0xba22f658	-0.00062165176
174	0xbdf4f4a9	-0.11960728
175	0xbc06619d	-0.008201984
176	0x3d90cf26	0.070707604
177	0xbda04580	-0.07825756
178	0xbda752a5	-0.0817006
179	0xbb60cb3d	-0.0034300827
180	0xbd1fe65c	-0.039038047
181	0x3d9a16e9	0.07523901
182	0x3ba2198b	0.0049468926
183	0xbe105051	-0.14093138
184	0xbcb78ea5	-0.022406885
185	0xbd549285	-0.051897544
186	0xbd8086a5	-0.062756814
187	0x3d2de081	0.04245043
188	0xbdf9b1a2	-0.12192084
189	0xbe09ae9f	-0.13445519
190	0xbc365bd7	-0.011130295
191	0xbdc30c26	-0.095238015
192	0xbdf0c539	-0.11756367
193	0xbe15dc9a	-0.14634934
194	0xbbd58294	-0.0065158103
195	0x3db47d2b	0.088129364
196	0xbdd822eb	-0.10553535
197	0xbe03f829	-0.12887634
198	0xbdb54bf1	-0.08852375
199	0xbd9e5ae0	-0.07732177
200	0xbe1bdb25	-0.15220316
201	0xbdd3b158	-0.1033656
202	0xbc9caaa8	-0.019124344
203	0xbe181f1f	-0.14855622
204	0xbdbad1d0	-0.0912205
205	0xbdf6f71b	-0.120588504
206	0xbe23e141	-0.16003896
207	0xbdd0f022	-0.10202052
208	0xbdbb96df	-0.09159636
209	0xbd6f913a	-0.05848811
210	0xbc44d06e	-0.012012584
211	0x3d1104e0	0.03540504
212	0xbd03fea5	-0.03222527
213	0xbc8a156d	-0.01685592
214	0xbd949245	-0.07254461
215	0x3d447ff4	0.047973588
216	0xbe0e5666	-0.13900146
217	0x3d387889	0.045036826
218	0xbd2a4176	-0.041566335
219	0xbdef182c	-0.11674532
220	0xbbf1699e	-0.007367327
221	0xbe1390db	-0.14410727
222	0xbe22b5f9	-0.1588973
223	0xbd890750	-0.06690848
224	0xbd74e89d	-0.05979215
225	0xbdc58a24	-0.09645489
226	0xbd3fddf6	-0.046842538
227	0xbd8bbf51	-0.068236
228	0xbe04914a	-0.12946048
229	0x3d79e0a3	0.061005246
230	0xbe40b867	-0.18820344
231	0xbd7273fd	-0.059192646
232	0x3c9fd7fb	0.019512167
233	0x3d032149	0.032014165
234	0x3cf6ff03	0.030150896
235	0xbe1f158e	-0.15535566
236	0xbc98c89d	-0.018650347
237	0xbdd92f1d	-0.10604689
238	0xbdccd2f9	-0.10001177
239	0xbc3af39b	-0.011410619
240	0xbdd707bd	-0.10499523
241	0xbe113de4	-0.14183766
242	0xbe19541b	-0.1497349
243	0x3d6495d9	0.05580697
244	0xbd90f7a6	-0.07078485
245	0x3c9c4262	0.019074623
246	0xbd75a531	-0.059971992
247	0xbe155b67	-0.14585648
248	0xbd632dce	-0.055463605
249	0x3c2edeb4	0.010673214
250	0x3ca691fc	0.020333283
251	0xbd46b9fd	-0.048517216
252	0xbe157078	-0.14593685
253	0xbd591744	-0.053000703
254	0x3d75d456	0.060016952
255	0xbe0f84a6	-0.14015445

layers.2.bias f4 [4]
0	0xbdf7cce8	-0.1209963
1	0xbdb8a1e8	-0.09015256
2	0xbd77d371	-0.06050438
3	0x3ad4990b	0.0016219927
