models/dqn_best_model_5.03.pt (torch, 106527 bytes, 4 tensors)

layers.0.weight f4 [128, 200]
000000 cc 87 df be b6 16 0c 3d bf 24 41 bd bb 34 e5 3e
       -0.43658292 0.034201346 -0.047154184 0.44766793
000010 e3 a2 85 be cf 3c 3e be 41 15 1c 3e 96 bb d8 3e
       -0.26100835 -0.18577884 0.15242483 0.42330617
000020 42 64 4a 3e 7d 63 0f bf ce 71 14 bf 18 89 14 be
       0.19764808 -0.5601118 -0.5798615 -0.14505422
000030 ae 25 5d 3e e8 a6 b8 be 85 fa 15 bf 4d 5b fb be
       0.21596405 -0.3606484 -0.5858539 -0.49093094
000040 97 5e 90 3e dd 5d 6c 3e c3 2b a9 be c8 97 00 bf
       0.28197166 0.23082681 -0.330412 -0.502316
000050 8f 71 05 bd 07 dd 07 bc a5 45 eb bc fd 21 40 3d
       -0.032579 -0.008292443 -0.028719733 0.046907414
000060 44 a0 64 bd da 85 05 bd a5 91 a3 bc 6a 5c d5 3d
       -0.055816904 -0.032598354 -0.01996691 0.10418017
000070 b0 b0 da 3b fe 07 8f bd 74 58 03 3e 44 08 76 bd
       0.006673895 -0.06983946 0.12826711 -0.060066476
000080 15 24 b9 3d 98 92 fe bd 42 b9 68 be eb 5f 12 3e
       0.09040085 -0.12430304 -0.2272692 0.14294402
000090 70 11 29 3e de 02 6a 3d 0a c3 a5 3c 05 af b6 bc
       0.16510558 0.05713164 0.020234603 -0.022300253
0000a0 f8 c9 a3 3c ea 6a a6 3b 68 c9 f3 3c 36 d9 08 3e
       0.019993767 0.005078663 0.029759124 0.1336411
0000b0 87 6c 27 3d cf 3d f7 bc c5 c5 5e 3d 8d d6 0f bc
       0.040874984 -0.03018084 0.054387826 -0.00877918
0000c0 a2 9b 13 bc 12 88 30 bd a4 5a 8f bd cf cd df bc
       -0.009009274 -0.043098517 -0.0699971 -0.027319817
0000d0 50 27 5e bd 49 a7 6d 3d 78 d8 a6 3c 29 f0 ef 3c
       -0.05423671 0.058020864 0.020366892 0.029289322
0000e0 b3 32 b7 3c ac 3a a1 ba e6 aa 62 3d 6e 1c 68 3c
       0.022363042 -0.0012300811 0.055338763 0.014166934
0000f0 d4 e3 91 3b bf 33 4b bd 4e 1c 34 3e cf 7c c7 bc
       0.004452208 -0.049609896 0.17588922 -0.024351506
000100 db f4 5e bd 5a 5e 71 bc b1 37 70 3d 70 a4 90 bc
       -0.05443273 -0.014731968 0.05864686 -0.017656535
000110 3e bc 2c bd 05 d9 4e 39 d4 40 82 3d 4c 56 1a 3d
       -0.04217171 0.00019726537 0.06360021 0.037679955
000120 22 23 a7 3d c5 c0 f8 bd 96 a3 8f bd c5 98 62 bd
       0.08160998 -0.12146143 -0.070136234 -0.055321474
000130 e2 d4 42 bd d4 9f ea 3c 72 6b cf 3c 53 a9 70 3d
       -0.047566302 0.028640665 0.025319789 0.05875523
000140 a1 92 15 bd e1 71 45 bd fe ab 19 3d e8 23 ea bc
       -0.03651679 -0.048204307 0.03751754 -0.028581575
000150 af c8 2f 3d 8f 75 89 bc a5 ae 25 3d 1e 0f 68 3e
       0.042915996 -0.01677969 0.040449757 0.22662017
000160 f9 22 7e 3a 73 9a b0 3c b1 eb 74 3c a9 6b ff bd
       0.00096945424 0.021558022 0.014948771 -0.124717064
000170 b1 73 1a 3e 6b 9d 12 be 5c 08 52 bd f0 9f 1a bd
       0.15083195 -0.14317863 -0.051277503 -0.037750185
000180 90 80 0a 3e 01 c8 47 bd 84 88 16 3d c8 3d 04 be
       0.13525605 -0.048774723 0.036751285 -0.12914193
000190 ef dc 25 bd a6 b3 90 3c 3f e4 41 bc 32 3d 52 bd
       -0.0404939 0.017663788 -0.011834203 -0.05132789
0001a0 ae 66 d9 3a 70 d7 45 bd d0 b8 75 bd 2b 7d 1f bd
       0.0016586387 -0.04830116 -0.059990704 -0.03893773
0001b0 0f 7d 7d bd 47 6b 38 bd 43 c2 90 3d ee d0 5a 3c
       -0.061886843 -0.045024183 0.070683025 0.013355477
0001c0 53 81 b2 3c 2f 11 87 bd d6 38 3e bd 8a cf c0 bc
       0.021790182 -0.065950744 -0.04644092 -0.023536462
0001d0 e0 28 35 3c 3a da 7e bd 9d 96 f9 bc 98 64 2d bd
       0.011057109 -0.062219836 -0.030467326 -0.04233226
0001e0 f5 79 4d 39 93 8b d7 bc c4 8f a0 bb 36 43 44 bd
       0.00019595756 -0.026311671 -0.0048999507 -0.04791566
0001f0 21 cd 46 bd a2 f8 28 bd a5 47 c6 bc a5 99 64 bd
       -0.04853547 -0.04125274 -0.024204085 -0.05581059
000200 c9 d8 72 3d e1 ec 65 bc 91 32 79 3d d6 7c b4 3c
       0.059288774 -0.014033527 0.06083924 0.022032183
000210 35 42 75 bd 50 6f 48 3d 83 61 9f bc d2 0b de bc
       -0.059877593 0.04893428 -0.019455677 -0.027105246
000220 03 6a 70 bd 48 f8 8f bd a5 bb a5 3c 8a 12 7d bc
       -0.05869485 -0.07029778 0.020231077 -0.015446315
000230 22 85 e1 3c 85 b0 6d bd cc 07 57 3d cc 9a 54 bd
       0.027529303 -0.05802967 0.05249767 -0.05190544
000240 d2 0b 48 bc 76 af c7 3d 5c e7 5c 3e 5a 9a 2e bd
       -0.012209849 0.097502634 0.21572632 -0.04262767
000250 25 00 c0 bd a1 a7 65 bd 00 c8 91 3c d4 27 f9 bc
       -0.093750276 -0.056068067 0.017795563 -0.0304145
000260 c9 e9 fd bb 31 c9 58 bd 0c e8 83 3d 25 93 54 bd
       -0.0077488166 -0.052926246 0.06440744 -0.05189814
000270 2b cb 1a 3d 58 93 cb 3c 0e 3c bc 3c 7f 96 1c bd
       0.037791412 0.024850532 0.022977855 -0.03822946
000280 58 a1 83 3d 09 96 7e 3c 56 08 15 3c 19 3d 7f bd
       0.06427258 0.015538701 0.009096226 -0.062314127
000290 e0 2a f3 3c 6c cd 2d bc dd af 04 bd 0b c7 78 3d
       0.02968353 -0.010608058 -0.03239428 0.060736697
0002a0 4f 25 81 3c f8 3e 20 bd ef 97 12 bd 34 da b4 be
       0.01576486 -0.03912255 -0.035789426 -0.35322726
0002b0 eb f3 5f 3e b8 b3 4e 3d 93 41 25 bd 36 5d c6 bc
       0.21870391 0.050464362 -0.04034574 -0.024214368
0002c0 41 60 58 bd 67 95 ce 3c 9e 2f 60 3d cb 55 88 bd
       -0.05282617 0.025217725 0.05473291 -0.06656989
0002d0 b3 88 86 3c f8 9e 15 3d 0b 13 52 3c 18 4a ce bc
       0.016422605 0.036528558 0.012821923 -0.025181815
0002e0 ac 2b 17 3d 73 34 18 3d 10 9a d8 3c d3 93 4b bc
       0.036906883 0.037159394 0.02644065 -0.012425381
0002f0 a8 63 99 bc 40 e1 f7 3b 71 a8 4c bc e3 9e ac bc
       -0.018724278 0.0075646937 -0.012491331 -0.021071857
000300 54 22 39 3d a1 e8 78 3d af 61 e5 bb e6 b1 81 bc
       0.045198753 0.060768727 -0.00700017 -0.015831899
000310 7f 3e 87 3a de 5e f8 3d 0f 5b 34 3e 10 f2 9a bd
       0.0010318308 0.121274695 0.17612861 -0.07565701
000320 59 dd 0f 3e d4 e7 de 3e 18 f7 a7 3e bf cc de 3c
       0.14049281 0.43536246 0.32805705 0.02719724
000330 5a 91 31 3d 85 85 2a be e4 0d a1 3e bd 9b a1 be
       0.04335151 -0.16652496 0.3145591 -0.3156413
000340 f0 93 3d 3e 10 a3 20 bf b6 89 ad 3e ee 06 4c be
       0.18513465 -0.62748814 0.33894128 -0.19924518
000350 ea 4e 7e 3e 8a d0 1b bc 16 b8 81 3e 0d df 22 bf
       0.24834791 -0.009510169 0.2533576 -0.636216
000360 c3 da 29 be 79 eb 1c bf 47 83 ae bd d3 f3 1c bf
       -0.16587357 -0.612968 -0.08521133 -0.61309546
000370 1c 77 3b bd df 65 53 3d 1a b2 03 bd d9 3e 68 bc
       -0.04576789 0.051610824 -0.032152273 -0.01417514
000380 24 10 90 bd 6c d7 41 3d 38 6f 5b 3d 13 58 d0 3d
       -0.070343286 0.047324583 0.053572863 0.10173049
000390 c3 f3 49 bd 97 ec 8e bd 8e 25 80 3c 56 fa 57 3d
       -0.049304735 -0.0697872 0.015642907 0.052728973
0003a0 02 68 f6 3d c4 ec b1 bb fd 69 13 3e a7 a5 09 3d
       0.12031557 -0.005429836 0.143959 0.033605244
0003b0 a8 a4 c6 3d 1e 44 5c bd 07 38 d8 bd f5 73 87 bd
       0.096993744 -0.0537759 -0.10557561 -0.06613914
0003c0 b6 06 40 3e d2 9f 49 bd e9 27 69 bc 9e 14 5e be
       0.1875256 -0.049224682 -0.014230707 -0.21687552
0003d0 3f 1c 53 bc 31 d5 fa 3a ca 57 8b bc 41 6f 2f bc
       -0.012885152 0.0019137022 -0.017009635 -0.010707677
0003e0 71 e0 b9 3d 3c cd 32 3d 11 d5 b9 bc ba 76 54 bd
       0.09076012 0.043652758 -0.022684606 -0.05187104
0003f0 a0 68 4c bc da 65 0c bd 66 38 b1 bc 1b dd 89 bd
       -0.012476116 -0.03427682 -0.021633338 -0.06731626

layers.0.bias f4 [128]
000000 c4 52 8c bd d2 b4 79 3c 60 8d 82 3d 61 93 aa bd
       -0.06851724 0.015240865 0.063746214 -0.083288915
000010 8b 9d 95 bb df 35 ef 3d c1 ab db 3d d4 5a 59 3e
       -0.0045658997 0.11680197 0.10726119 0.21226054
000020 8b 7f c5 bc f9 f9 5d 3d 97 76 20 3d 8b 0c 1a 3e
       -0.024108669 0.05419347 0.039175596 0.15043847
000030 62 51 02 3d 06 9c 07 3d 6a 1c a3 3d a2 a2 74 3e
       0.031815894 0.03310778 0.07964404 0.23890164
000040 38 00 65 bd 40 05 dd 3d bf 06 0b 3e b1 85 83 bb
       -0.05590841 0.10792017 0.13576792 -0.00401374
000050 ce 80 8a 3c 5b 78 0f 3e 47 69 1b 3d 09 22 72 3e
       0.016907122 0.14010756 0.037942197 0.23645796
000060 30 b1 1f bd 20 6d ba 3b 41 4c e4 bb 5f 5f 8d 3d
       -0.03898734 0.0056892782 -0.006967098 0.06902956
000070 a2 c6 7a 3c 3a 02 e8 3d 4d b3 27 3d 34 16 11 3e
       0.015306147 0.1132855 0.04094248 0.14168626
000080 24 09 04 3e b9 30 14 3d fc 8c 40 bd fb 80 43 3d
       0.12894112 0.036179278 -0.047009453 0.047730427
000090 d7 e2 c9 3a 75 bc 08 bd 51 d3 3a bd c1 06 da 3c
       0.0015402687 -0.03338285 -0.045611683 0.026614549
0000a0 00 2f ae bb d4 33 b0 bc 48 c4 09 3d d1 99 84 3c
       -0.0053156614 -0.021509089 0.033634454 0.016186627
0000b0 cf e9 a6 bd f3 d1 01 3d 03 2a eb 3b a6 cf c8 3c
       -0.08150064 0.031694364 0.007176639 0.024513077
0000c0 76 52 b3 3e 4e c5 53 3e c6 66 d2 bc f0 60 44 3d
       0.3502385 0.20680735 -0.025683772 0.04794401
0000d0 32 8b d7 3d 62 46 8a bc f7 fc 82 3c e7 c4 57 bc
       0.10524596 -0.016879264 0.015989764 -0.013169504
0000e0 af 70 e4 bd c1 37 e4 3d 7e a3 f9 3d aa 69 8f 3d
       -0.11154305 0.11143447 0.12189387 0.07002576
0000f0 06 6b 3d bd ec 47 f2 bc ce a9 a4 3d 66 bd 05 3e
       -0.046244644 -0.02957531 0.080402 0.13060531
000100 d8 52 e8 bb d0 0d 6e 3d 2b f9 9d 3e 78 45 37 ba
       -0.007089954 0.05811864 0.30854163 -0.00069912476
000110 fa 8d b4 3d dd 2e 35 3c 9a 3b f9 bc a7 e2 e1 3c
       0.088161424 0.011058536 -0.030423928 0.027573897
000120 39 35 67 bd 26 93 61 3d f7 4b 24 3d e9 dd 2a 3d
       -0.05644724 0.055071972 0.04011151 0.041715536
000130 fa 5e ba 3c 82 04 92 bc a9 1b 5c 3c 4e 5a 2d 3e
       0.022750366 -0.017824415 0.013434329 0.1692898
000140 7c 55 3e 3b b8 d7 fb 3b 9f 97 a6 3d 34 ae 07 3c
       0.0029042652 0.007685628 0.08134388 0.008281279
000150 45 aa 10 3e 8c d1 42 3d 42 81 66 bb 8b a5 10 bc
       0.14127453 0.04756312 -0.0035172259 -0.008828531
000160 7b 11 2c bd 40 bc 44 3d 60 85 35 bd 40 6b 8d 3e
       -0.04200886 0.04803109 -0.04431665 0.27620888
000170 2d ad 3a 3c 89 c9 a6 3c f3 87 9c 3c 64 4c 8c 3d
       0.011393827 0.020359771 0.019107794 0.06850508
000180 6a 1d 32 3d 3d 57 b0 3d b7 c2 21 3b cf 7b 3f 3e
       0.043485083 0.086103894 0.002468271 0.18699573
000190 f7 2d 0c 3d 50 83 48 3d f7 1c 36 3e 84 56 8e 3d
       0.034223523 0.048953354 0.17784487 0.06950095
0001a0 fb 6f 72 3c 8b 82 14 3d d5 f4 5b bc 28 25 8e 3d
       0.014797206 0.036257308 -0.013425072 0.06940681
0001b0 ea 96 67 bc 39 b4 90 3d 54 00 00 3d 9d 71 6b 3c
       -0.014135102 0.07065625 0.031250313 0.014370349
0001c0 a9 f0 e3 3d 63 fc 6b 3d 1a f5 d4 3e bb d3 78 bd
       0.11129887 0.05761374 0.41593248 -0.060748797
0001d0 26 40 66 3e ca 57 35 bd 04 e5 0c bd fa 10 1b 3d
       0.22485408 -0.044273175 -0.034398094 0.037857987
0001e0 5e 45 cf 3d 22 17 a6 3d a6 e0 d8 3d 9e c9 f9 3d
       0.101206526 0.08109881 0.10589723 0.121966586
0001f0 48 64 07 3e b4 51 89 3d 1a 2e 8e bb 8a ed 38 3d
       0.13221848 0.06705037 -0.004338992 0.04514841

layers.2.weight f4 [4, 128]
000000 85 f9 0f bf 0e 5c 42 be c8 f4 e7 bc b1 f0 7e bd
       -0.5624011 -0.18980429 -0.028314963 -0.06224126
000010 2c ef 3d bf f0 8d ae 3e 59 79 7e 3f f8 e0 3e be
       -0.7419307 0.34092665 0.9940391 -0.18640506
000020 d0 51 5e be 12 77 5a be 4d 38 0d be 49 ce 85 3d
       -0.21710896 -0.21334484 -0.13791008 0.065334864
000030 06 ca c9 be 15 67 6a 3d 66 13 ff 3d 38 fa 0f 3e
       -0.39411944 0.057227213 0.12454872 0.14060295
000040 f5 a3 22 bf 25 f7 bf be 5f 62 8e bc 5a 37 26 bd
       -0.6353143 -0.37493244 -0.017380891 -0.04058013
000050 72 18 d4 be 2c 2d a1 3e 15 66 ae be 68 0b 42 3e
       -0.414249 0.31479776 -0.34062257 0.18949664
000060 57 9a 58 3e c3 73 39 bf 12 07 68 be 67 e7 44 3e
       0.21152626 -0.72442263 -0.22658947 0.19228898
000070 02 c9 04 3f 86 ac 19 be 07 f9 96 3e ba 7b 93 3e
       0.51869214 -0.15007219 0.29486868 0.28805333
000080 a6 48 ba bd c8 0b c8 be 3e aa 8f 3e db 10 dc 3e
       -0.09095888 -0.39071488 0.28059572 0.4298161
000090 4d 06 13 bd 78 ed 6e bc 56 40 02 bf 04 78 8d be
       -0.03589468 -0.014582984 -0.5087942 -0.27630627
0000a0 b8 b4 87 be fc a3 9f be b4 18 28 be 96 5c 4b bd
       -0.26505065 -0.31179798 -0.16415673 -0.049648844
0000b0 c1 32 85 3d d3 5e 77 3d f8 dd f2 3d 16 fc 72 be
       0.06503821 0.060393166 0.118587434 -0.23728976
0000c0 d1 3a e2 3d 5d 28 e6 bd 1c 0f 22 be 7a b5 06 3e
       0.110463746 -0.112381674 -0.15826076 0.13155165
0000d0 ec 1a 04 bf 6f bf f5 3e 0d 84 0a be f6 ab 6c 3d
       -0.5160358 0.47997615 -0.13526936 0.057781182
0000e0 19 50 c8 3e 98 03 ba be ac ff 94 3e 5b 75 d4 3e
       0.3912361 -0.36330867 0.29101312 0.41495785
0000f0 97 4f 04 bf c8 3a 77 3d 34 17 52 be d9 91 aa 3e
       -0.51683944 0.060358793 -0.20516664 0.33314398
000100 47 58 d6 bc b3 9f bc bd 13 21 9d 3e d2 aa c0 3d
       -0.02616514 -0.09210148 0.30689296 0.094075814
000110 18 0a 5c be 4b 8c 5c 3e cf 0d 98 3d 42 c4 01 3f
       -0.21488225 0.21537893 0.07424509 0.5069009
000120 52 9f 5c 3d 74 4f 2d be 68 a8 95 3d d0 10 18 be
       0.053862877 -0.1692484 0.073075116 -0.14850163
000130 4b f8 ad 3d 9b 79 9b 3e 8e 22 8f be 41 e7 d0 3e
       0.08494624 0.30366215 -0.2795605 0.40801433
000140 b6 0c 65 3e 5a a9 41 3e 99 d1 b6 3e 6a 75 ba be
       0.2236813 0.18912259 0.35706785 -0.36417705
000150 a5 33 79 3e 7e a9 8c be 0f ba 7c bd 59 37 b3 3e
       0.24336107 -0.27473062 -0.061700877 0.35003164
000160 7f c9 46 bf 58 6e 1a bd 77 72 59 3d fc cb c0 3d
       -0.7765121 -0.03770289 0.053087678 0.09413907
000170 a0 5a 9e 3e 51 75 13 bf 47 f3 c7 3d 4e af 12 3f
       0.30928516 -0.57600886 0.09763198 0.57298744
000180 a5 ea 04 bf 20 19 43 be e2 1d fc 3d 79 35 de 3e
       -0.5192054 -0.19052553 0.12310387 0.4340017
000190 e3 31 48 be 7d b3 2f be ea e1 67 3f 13 cf 7a bd
       -0.1955028 -0.17158313 0.9057909 -0.061232638
0001a0 71 63 f8 be f9 49 f7 be 77 d4 ef 3e 21 8d bf bc
       -0.48513368 -0.48298624 0.46841785 -0.023382725
0001b0 24 94 fe bd 3f 1b 01 bf ae b1 38 be a4 74 07 3d
       -0.12430599 -0.504322 -0.1803653 0.03307022
0001c0 72 7e 83 3e 94 61 1c bf 76 66 b6 3e a0 10 c5 bd
       0.25682408 -0.6108639 0.35625046 -0.096223116
0001d0 77 86 aa bd 5b 36 28 be 8e f1 19 3d 18 4d 50 3e
       -0.083264284 -0.16426985 0.03758388 0.20341909
0001e0 e9 cf 93 3e ba 04 f3 3e 09 90 97 3e d2 2e a0 bd
       0.2886956 0.47464544 0.29602078 -0.0782143
0001f0 c4 db 0b 3f 38 64 9e be 80 ce a2 3d d1 51 08 bf
       0.5463221 -0.30935836 0.07949543 -0.5324984
000200 87 ac 38 3c 91 85 00 bf 58 fe fd 3e 5c b4 4b be
       0.0112716025 -0.50203806 0.4960811 -0.1989302
000210 c6 52 2a 3e 7a a8 aa 3f a4 c6 48 bf df 91 cc bd
       0.16633138 1.3332665 -0.784281 -0.0998876
000220 45 36 68 bf 3a 33 8e bf f7 89 1f 3e 3f 44 e9 3f
       -0.9070781 -1.1109383 0.15579973 1.8223952
000230 a4 0a 1b bf 12 ec 89 be 44 d5 37 3d 75 87 9d 3e
       -0.6056311 -0.2693792 0.04488112 0.30767408
000240 7c bf 29 3f 67 31 92 bf af 5c 05 bc c3 63 a8 bd
       0.66307807 -1.1421326 -0.008139773 -0.08222153
000250 dd e0 cb 3d a8 c9 97 3f bb 6a af be e7 fe a3 3f
       0.09954999 1.1858416 -0.34261116 1.2812165
000260 e0 7d ff be 7c bf 0a 3d 60 20 7c be f0 4d 17 bf
       -0.49900723 0.03387402 -0.24621725 -0.591033
000270 22 2e 93 3c 93 70 c1 be 5c e5 43 be e6 52 7e 3d
       0.017966334 -0.377812 -0.19130462 0.062090777
000280 a7 14 9a 3e e9 48 f9 be 92 75 9c be fc e5 82 bf
       0.3009388 -0.4868844 -0.3055845 -1.0226436
000290 47 f0 1e bf e2 fe f2 be 89 4d 17 be a1 f4 30 bf
       -0.62085384 -0.47460085 -0.14775671 -0.69123274
0002a0 96 0f da 3d 43 91 55 be 4d 27 63 3e ae 45 23 3e
       0.10647504 -0.20856194 0.22182961 0.1594455
0002b0 9c 69 0c 3d 10 7e 10 bf a9 93 9d be b9 33 f6 3d
       0.034280404 -0.56442356 -0.30776718 0.12021584
0002c0 10 56 2e 3d 0c 62 60 bd 1d a6 04 3f 87 cc 62 be
       0.042562544 -0.054781005 0.5181597 -0.22148333
0002d0 c1 50 a2 3f 31 c2 39 bc e4 ee 63 3e a3 f4 b9 3e
       1.2680894 -0.011337803 0.22259098 0.36319456
0002e0 1c 0f f5 bd a7 d2 42 3e 8e 55 36 be ba 22 3a 3d
       -0.119657725 0.1902567 -0.17806074 0.045443274
0002f0 ab ba fa 3d 31 c4 c7 3c 5b 96 77 be a5 0e 8b 3f
       0.12242635 0.024385544 -0.2417845 1.0863844
000300 49 ab 5d 3d fe 8f da 3f 1d d1 ac be 11 00 18 3f
       0.05411843 1.7075193 -0.3375329 0.593751
000310 ed 42 fa 3e 24 ef 16 bf 43 cf bc be 2e 5b 3a 3f
       0.48879185 -0.5895865 -0.36876878 0.7279538
000320 fb f6 b8 bb d8 f1 8d 3f ad 2d 88 3e ef 2d aa 3e
       -0.0056446767 1.108943 0.26597348 0.3323817
000330 91 df a6 be 45 6a 0f bf 54 aa 07 bf 24 d0 83 bf
       -0.32592443 -0.5602153 -0.52994275 -1.0297894
000340 e2 eb f7 3e c7 f1 bc be 39 c0 9e bd ec d4 07 bf
       0.48422152 -0.3690321 -0.07751507 -0.5305927
000350 2f 21 d4 3e 17 cd 2f bf 8e c3 e6 be 82 92 d7 be
       0.41431567 -0.6867232 -0.4507107 -0.42103964
000360 53 ed 82 3e b5 38 18 bf ad 25 00 3d d8 27 6a be
       0.2557169 -0.5946153 0.03128593 -0.22866762
000370 8a 9c 83 be 01 ea 5a bd 56 38 8e bf ff 24 ef be
       -0.25705367 -0.05344582 -1.1110942 -0.46707913
000380 c1 5a 5c 3f 4f 88 a8 3f 82 f3 84 be 12 72 98 bf
       0.8607598 1.3166598 -0.25967032 -1.1909811
000390 25 e1 a9 be 15 02 16 bf 7d 6d 56 bf 8b 66 9e 3e
       -0.33179584 -0.58596927 -0.83760816 0.3093761
0003a0 09 c4 00 bf 1a 06 3f 3f 73 e2 d2 3d 78 83 b0 bd
       -0.50299126 0.74618685 0.10297098 -0.08618826
0003b0 57 32 13 3f 0b 82 91 be b2 b3 6a 3e 1b 64 88 3e
       0.5749869 -0.28419527 0.22920111 0.26638874
0003c0 33 a7 d4 be 4d b9 7f 3e 14 6d 07 bc 77 38 0a bf
       -0.41533813 0.2497303 -0.008265752 -0.5399241
0003d0 4d b5 68 3f 6c e2 ee 3c e7 7d db bd c2 a6 12 bf
       0.90901643 0.0291607 -0.10717373 -0.572857
0003e0 92 de c5 3f 3a ff 8a bd fe ca cb be a1 77 8e be
       1.5458548 -0.06786962 -0.39803308 -0.27825645
0003f0 4b d2 0d bf 18 f2 d0 be 39 94 c5 3c 89 e7 09 bf
       -0.55399007 -0.40809703 0.02411853 -0.5386892

layers.2.bias f4 [4]
000000 c4 f3 d3 3d 79 fc 94 3d ef c9 28 3d 69 3d 08 3e
       0.10349229 0.07274718 0.041208204 0.13304676
