models/dqn_best_model_4.86.pt (torch, 106527 bytes, 4 tensors)

layers.0.weight f4 [128, 200]
00000000: 4f43 d9be bf43 fb3c 976b 3ebd bc18 e13e
00000010: 90f2 55be 9542 2abe c4c6 163e b127 d63e
00000020: 04d4 653e 988b 0abf bb68 0cbf ebc6 fabd
00000030: 4eac 453e 3500 b1be dfff 0cbf 7eb7 f4be
00000040: e172 8e3e c619 283e 9da7 9fbe 9035 f8be
00000050: 8f71 05bd 07dd 07bc a545 ebbc fd21 403d
00000060: 44a0 64bd da85 05bd a591 a3bc 2073 ca3d
00000070: b0b0 da3b fe07 8fbd f6c9 f93d 4408 76bd
00000080: db0d b93d 9892 febd cd93 62be f219 0b3e
00000090: 2071 1c3e de02 6a3d e801 3b3d 05af b6bc
000000a0: 2cd8 9d3c ebee 443c 68c9 f33c aed2 053e
000000b0: 876c 273d cf3d f7bc a9fd 583d 7d15 43bb
000000c0: a29b 13bc 1288 30bd a45a 8fbd cfcd dfbc
000000d0: 5027 5ebd 49a7 6d3d 78d8 a63c 29f0 ef3c
000000e0: b332 b73c ac3a a1ba e6aa 623d afe4 003c
000000f0: d4e3 913b e471 59bd fe7b 273e cf7c c7bc
00000100: c305 25bd 5a5e 71bc b137 703d 668f 2fbc
00000110: 3ebc 2cbd 75eb 16bb d440 823d 4c56 1a3d
00000120: 1d3f a43d a6e0 ecbd 96a3 8fbd c598 62bd
00000130: e2d4 42bd d49f ea3c 726b cf3c 53a9 703d
00000140: a192 15bd e171 45bd feab 193d e823 eabc
00000150: afc8 2f3d 8f75 89bc a5ae 253d c84c 5e3e
00000160: ccaf 5bbb 739a b03c b1eb 743c f135 d2bd
00000170: 27c5 123e 6f78 10be 5c08 52bd f09f 1abd
00000180: 087a 073e 20d5 50bd c120 2a3d 719c fcbd
00000190: efdc 25bd a6b3 903c e3f0 69bc 323d 52bd
000001a0: ae66 d93a 70d7 45bd d0b8 75bd 2b7d 1fbd
000001b0: 0f7d 7dbd 476b 38bd 43c2 903d eed0 5a3c
000001c0: 5381 b23c 2f11 87bd d638 3ebd 8acf c0bc
000001d0: e028 353c 3ada 7ebd 9d96 f9bc 9864 2dbd
000001e0: f579 4d39 938b d7bc c48f a0bb 3643 44bd
000001f0: 21cd 46bd a2f8 28bd a547 c6bc a599 64bd
00000200: c9d8 723d e1ec 65bc 9132 793d d67c b43c
00000210: 3542 75bd 506f 483d 8361 9fbc d20b debc
00000220: 036a 70bd 48f8 8fbd a5bb a53c 8a12 7dbc
00000230: 2285 e13c 85b0 6dbd cc07 573d cc9a 54bd
00000240: d20b 48bc c08f b73d 7de7 573e 50d4 fcbc
00000250: 0d36 a3bd a1a7 65bd 00c8 913c d427 f9bc
00000260: c9e9 fdbb 31c9 58bd 0ce8 833d 2593 54bd
00000270: 2bcb 1a3d 5893 cb3c 0e3c bc3c 7f96 1cbd
00000280: 58a1 833d 0996 7e3c 5608 153c 193d 7fbd
00000290: e02a f33c 6ccd 2dbc ddaf 04bd 0bc7 783d
000002a0: 4f25 813c f83e 20bd ef97 12bd 1be8 aebe
000002b0: 0cf4 5a3e 1328 453d 9341 25bd 365d c6bc
000002c0: 4160 58bd 6795 ce3c 9e2f 603d cb55 88bd
000002d0: b388 863c f89e 153d 0b13 523c 184a cebc
000002e0: ac2b 173d 7334 183d 109a d83c d393 4bbc
000002f0: a863 99bc 40e1 f73b 71a8 4cbc e39e acbc
00000300: 5422 393d a1e8 783d af61 e5bb e6b1 81bc
00000310: 7f3e 873a 597d f23d 8910 303e 1131 98bd
00000320: 3ed3 123e 77da dc3e 90e7 aa3e bc24 f03c
00000330: 62aa 3b3d 75ec 23be ccb6 9f3e 5926 a7be
00000340: ac03 483e 5157 1ebf 9cb9 b03e 3810 5fbe
00000350: bcc4 793e 403b d4bc 925a 873e ec6b 1ebf
00000360: 3f57 41be 81a7 17bf 5f3b a8bd 6224 20bf
00000370: 1c77 3bbd df65 533d 1ab2 03bd d93e 68bc
00000380: 2410 90bd 6cd7 413d 386f 5b3d 720f cb3d
00000390: c3f3 49bd 97ec 8ebd 4e33 373c 56fa 573d
000003a0: f058 f23d 44e3 27bd be70 123e af0e 273d
000003b0: 7101 c23d 1e44 5cbd 7e91 babd f573 87bd
000003c0: d086 433e 6783 2ebd e927 69bc 3d8d 59be
000003d0: 3f1c 53bc 9e62 ce39 294e 97bc 9386 61bc
000003e0: 68d7 bf3d 3ccd 323d 11d5 b9bc ba76 54bd
000003f0: a068 4cbc da65 0cbd 6638 b1bc 1bdd 89bd
-0.42434165 0.030671952 -0.046489324 0.43964183 -0.20893312 -0.16626962 0.1472426 0.41827157
0.22444159 -0.54119253 -0.54847306 -0.12244972 0.1930401 -0.3457047 -0.5507793 -0.47796243
0.2782202 0.16416082 -0.31182566 -0.48478365 -0.032579 -0.008292443 -0.028719733 0.046907414
-0.055816904 -0.032598354 -0.01996691 0.098852396 0.006673895 -0.06983946 0.12196724 -0.060066476
0.09035846 -0.12430304 -0.22126694 0.13584116 0.15277529 0.05713164 0.045656115 -0.022300253
0.019268118 0.012019853 0.029759124 0.13068649 0.040874984 -0.03018084 0.052976284 -0.0029767447
-0.009009274 -0.043098517 -0.0699971 -0.027319817 -0.05423671 0.058020864 0.020366892 0.029289322
0.022363042 -0.0012300811 0.055338763 0.007867022 0.004452208 -0.05308713 0.16355893 -0.024351506
-0.040288698 -0.014731968 0.05864686 -0.010715341 -0.04217171 -0.0023028527 0.06360021 0.037679955
0.080198504 -0.11566286 -0.070136234 -0.055321474 -0.047566302 0.028640665 0.025319789 0.05875523
-0.03651679 -0.048204307 0.03751754 -0.028581575 0.042915996 -0.01677969 0.040449757 0.21708977
-0.003352153 0.021558022 0.014948771 -0.10264195 0.1433302 -0.14108442 -0.051277503 -0.037750185
0.13230145 -0.0509845 0.041535143 -0.12334526 -0.0404939 0.017663788 -0.014278623 -0.05132789
0.0016586387 -0.04830116 -0.059990704 -0.03893773 -0.061886843 -0.045024183 0.070683025 0.013355477
0.021790182 -0.065950744 -0.04644092 -0.023536462 0.011057109 -0.062219836 -0.030467326 -0.04233226
0.00019595756 -0.026311671 -0.0048999507 -0.04791566 -0.04853547 -0.04125274 -0.024204085 -0.05581059
0.059288774 -0.014033527 0.06083924 0.022032183 -0.059877593 0.04893428 -0.019455677 -0.027105246
-0.05869485 -0.07029778 0.020231077 -0.015446315 0.027529303 -0.05802967 0.05249767 -0.05190544
-0.012209849 0.08962965 0.210844 -0.030862957 -0.07969294 -0.056068067 0.017795563 -0.0304145
-0.0077488166 -0.052926246 0.06440744 -0.05189814 0.037791412 0.024850532 0.022977855 -0.03822946
0.06427258 0.015538701 0.009096226 -0.062314127 0.02968353 -0.010608058 -0.03239428 0.060736697
0.01576486 -0.03912255 -0.035789426 -0.34161457 0.21382159 0.04813392 -0.04034574 -0.024214368
-0.05282617 0.025217725 0.05473291 -0.06656989 0.016422605 0.036528558 0.012821923 -0.025181815
0.036906883 0.037159394 0.02644065 -0.012425381 -0.018724278 0.0075646937 -0.012491331 -0.021071857
0.045198753 0.060768727 -0.00700017 -0.015831899 0.0010318308 0.118403144 0.17193808 -0.07431234
0.14338395 0.43135425 0.33379793 0.029314391 0.045816787 -0.1600817 0.3119415 -0.32646444
0.1953265 -0.61851984 0.3451661 -0.2178353 0.24391454 -0.025907159 0.26436287 -0.61883426
-0.18880938 -0.59239966 -0.08214449 -0.62555516 -0.04576789 0.051610824 -0.032152273 -0.01417514
-0.070343286 0.047324583 0.053572863 0.09915055 -0.049304735 -0.0697872 0.011181666 0.052728973
0.1183337 -0.04098822 0.1430082 0.040785488 0.09472931 -0.0537759 -0.09109782 -0.06613914
0.19094396 -0.042605784 -0.014230707 -0.21245284 -0.012885152 0.00039364857 -0.018469887 -0.013764995
0.09367257 0.043652758 -0.022684606 -0.05187104 -0.012476116 -0.03427682 -0.021633338 -0.06731626

layers.0.bias f4 [128]
00000000: 5a54 91bd 0cc4 643c 9f82 863d acdf a5bd
00000010: 0d41 fdbb ca46 f33d 0cc3 cf3d 4597 563e
00000020: 486b edbc 00a0 603d 9330 173d 9253 193e
00000030: 2fe8 bb3c 6725 0f3d 2105 a23d d94d 773e
00000040: b125 70bd eb8f d33d a3cd 073e 89c0 06bc
00000050: 3eb2 793c c8f1 0b3e bedc 183d ebcf 703e
00000060: ffd7 21bd 5190 453b 6f98 8bbb 60aa 8b3d
00000070: fbe5 6e3c 83d6 ea3d ab45 183d a67c 143e
00000080: b8d1 013e 484a 043d 80ab 4ebd 05da 203d
00000090: b2fb 2cbb 98d6 1bbd 351b 3ebd ab5f aa3c
000000a0: 2c8d 06bc b084 c2bc 51d1 003d 088a 823c
000000b0: cfe9 a6bd f952 e83c 3d27 0c3c 88d5 b73c
000000c0: d32c b33e 991e 543e 78b2 dabc 5c04 493d
000000d0: 9819 d33d ed6e 5bbc 7827 813c db52 a3bc
000000e0: 8bfc dbbd 6a0d e23d efe1 f73d 3b0b 923d
000000f0: 156d 44bd ec47 f2bc ad73 8f3d dd90 003e
00000100: d852 e8bb 8356 823d 6bef 9d3e 3b6d 39bb
00000110: c000 b13d 8a2c 033c 1a91 04bd a0e6 023d
00000120: 3935 67bd 3d27 4f3d 1d6e 133d ccbc 233d
00000130: 6d23 b73c c27d c3bc 6c7e 243c b591 2d3e
00000140: 02ac 023b 65c1 253c 6fe3 a63d 6db3 4d3b
00000150: c5e0 123e 6e75 323d 257d cbba 7e1e 29bc
00000160: c5a9 37bd 18c8 3c3d 6085 35bd 9623 8d3e
00000170: 35ab 203c ea09 a73c f400 ac3c 7079 823d
00000180: ebdc 263d b432 ad3d 2d56 ab3a df4b 433e
00000190: 0800 ec3c 067b 343d 7f27 2f3e 32fe 843d
000001a0: 0d82 663c 54dc 113d eb8b 21bc d038 883d
000001b0: d49c 42bc 87ab 833d 7bad f23c c3fd 423c
000001c0: 7b50 e23d 62ed 603d f8e8 d53e 6f68 80bd
000001d0: 961f 653e 65b1 57bd 990e 04bd ad48 1f3d
000001e0: 8c18 d33d 1885 ae3d 6a0a d23d 2df0 f33d
000001f0: 3cdd 033e b4fd 803d 1a2e 8ebb 11ce 263d
-0.07096167 0.013962757 0.06567883 -0.08099303 -0.007728702 0.11878736 0.10144624 0.20956142
-0.02898182 0.054840088 0.03691156 0.14973286 0.022937862 0.03494778 0.079111345 0.2415079
-0.058629695 0.103301845 0.13262038 -0.008224615 0.01524025 0.13666451 0.03731989 0.23516814
-0.03951263 0.0030145834 -0.004260115 0.06819606 0.014581199 0.11466696 0.037175816 0.14500675
0.12677658 0.032297403 -0.050456524 0.03927042 -0.002639514 -0.03804645 -0.046412665 0.020797571
-0.008212369 -0.023744911 0.03144962 0.015934959 -0.08150064 0.028359877 0.008554277 0.022440687
0.34995136 0.20714797 -0.026696429 0.049076423 0.10307616 -0.013393146 0.01576589 -0.01993697
-0.10741528 0.11037715 0.1210364 0.07131048 -0.04795559 -0.02957531 0.07004485 0.12555261
-0.007089954 0.06364157 0.30846724 -0.0028293866 0.08642721 0.008006224 -0.032364942 0.031958222
-0.05644724 0.05057453 0.035993684 0.039974973 0.02235576 -0.023863677 0.010039907 0.16950114
0.001993895 0.01011691 0.08148848 0.0031387464 0.14343555 0.04356902 -0.0015524967 -0.010322211
-0.04483964 0.04608926 -0.04431665 0.27566212 0.009806444 0.02039047 0.020996548 0.063708186
0.040738028 0.084569365 0.0013071947 0.19071911 0.028808609 0.044062637 0.1710491 0.064937964
0.014069092 0.035610512 -0.009860019 0.06651461 -0.011878211 0.064292006 0.029623738 0.011901322
0.11050507 0.054913886 0.41779304 -0.06269919 0.2237533 -0.05265941 -0.032240484 0.03888767
0.10307416 0.08521479 0.102558926 0.11911044 0.12877363 0.0629839 -0.004338992 0.040723864

layers.2.weight f4 [4, 128]
00000000: 87ec 07bf 2a18 3cbe 2354 0fbd a5d9 8bbd
00000010: 89f6 37bf a77f a83e 3572 753f 7200 38be
00000020: 5715 5abe a890 45be 2aa9 04be f520 593d
00000030: 53fb bfbe 480d 773d afc6 fa3d 0582 193e
00000040: f682 1ebf 5677 bcbe be0c 3bbc bb21 05bd
00000050: 6396 c8be 74a9 9e3e 28d0 abbe d77a 4d3e
00000060: 35b3 4d3e 9bca 34bf 54fc 5cbe 6184 3d3e
00000070: 5947 fe3e ef8c 18be d76c 983e a2b2 953e
00000080: f177 bdbd 98ad c3be a05a 893e 0fd4 d93e
00000090: 8e6a 0fbd 4253 45bc 9e3b fcbe f1f5 89be
000000a0: 29d9 88be f09a 9bbe cc5e 28be 1568 6bbd
000000b0: c132 853d 62d7 843d 5dbc e03d ace3 6ebe
000000c0: e85f ea3d ef2d dbbd 3c0e 1fbe 488e f23d
000000d0: 8064 04bf 0931 f43e d642 02be ba01 2c3d
000000e0: b09f b73e 0e91 b3be 2923 953e b511 d23e
000000f0: a79d fcbe c83a 773d be04 51be 5b19 a33e
00000100: 4758 d6bc 5eb8 b3bd 4bc4 9e3e 99ce a53d
00000110: 5dce 58be 26ef 523e 637f 923d cbe0 ff3e
00000120: 529f 5c3d bdf1 2fbe 6832 763d c694 19be
00000130: 33ff b33d 0031 893e 1f09 86be 3f0f c53e
00000140: 495a 4b3e dcbf 433e b62e b93e 1e07 b7be
00000150: e738 713e b2eb 86be 4418 83bd 9341 ac3e
00000160: 6ef1 41bf bcfa 2bbd 7772 593d e497 c83d
00000170: ffe8 923e 0a0f 0ebf 44e4 a23d be14 103f
00000180: eda4 00bf 6a94 3bbe 7cc0 e43d b000 df3e
00000190: 96b7 44be f65a 33be 3d77 643f 0892 95bd
000001a0: cada f0be 27d1 f2be d767 e73e 3885 04bd
000001b0: cc8c fdbd af3a fabe 6dd8 41be 9acb 583c
000001c0: 0772 7b3e 8e08 18bf a3b1 b73e cf69 cabd
000001d0: f589 9cbd bd9e 28be 37b2 4e3d c835 433e
000001e0: aad0 8f3e 8048 f43e 62f8 983e 2d0b 95bd
000001f0: 8e16 0b3f df70 96be 80ce a23d 575d 05bf
00000200: e137 863c 693d ffbe c27f f43e 7ce1 4abe
00000210: 5b8d 1d3e b0d7 aa3f a86a 49bf 15bc c5bd
00000220: 9557 65bf e160 8dbf e706 183e 497b e83f
00000230: ee7e 19bf 5f25 8abe 7eb9 2e3d 1eaf 9f3e
00000240: ccd0 253f e354 90bf 8f24 06bc 5084 aebd
00000250: 8e02 ae3d 1285 973f 2747 acbe e726 a23f
00000260: 8076 00bf 296e c73c 32a6 80be f968 14bf
00000270: fcf2 743c bad7 bebe dc4b 48be 203c 883d
00000280: 9495 953e b568 f7be ad5a 97be 8d8e 82bf
00000290: 9fd4 1bbf 182e f0be 7f39 29be c6cc 2ebf
000002a0: d6f8 ae3d 1395 54be 0556 583e 1c4b 0d3e
000002b0: 9c69 0c3d c1c7 0ebf 7645 9ebe b887 c53d
000002c0: 2156 3d3d 8646 42bd cb90 f93e 9252 6abe
000002d0: abb3 a13f 90af 82bc 331e 5b3e da1e ae3e
000002e0: 5876 ffbd 0a98 473e 4cc8 32be 528d 453d
000002f0: 88a3 f03d 31c4 c73c 527c 70be 80ef 893f
00000300: 49ab 5d3d 8b50 d93f c2a3 abbe 6caa 153f
00000310: 9030 f13e 3923 14bf a4c1 bcbe 33b3 393f
00000320: fbf6 b8bb 682b 8d3f 2636 7d3e b59a a23e
00000330: 05ef a4be 3f94 0cbf 1443 07bf 82be 82bf
00000340: c7ae f23e e98c bcbe 7926 b7bd 4bc0 06bf
00000350: c5cc d93e 77cb 2cbf 1e44 e3be 94cb d8be
00000360: 7d39 833e 1411 17bf ad25 003d aed6 67be
00000370: fce4 86be f3eb 1bbd dfc6 8cbf 03aa ebbe
00000380: 4d72 543f 027d a73f e61c 87be ad09 99bf
00000390: f967 afbe faa2 12bf 4f45 53bf 5713 953e
000003a0: 64e5 ffbe a5ef 3b3f 2008 c93d 1694 a4bd
000003b0: fa08 0c3f 790d 90be 15e9 553e 3ee0 873e
000003c0: c668 d6be 2904 753e 5bcb 9dbb c3c0 09bf
000003d0: f7ab 653f 2543 7e3c 66c1 fcbd b268 12bf
000003e0: 4763 c43f fc63 9abd 119c c8be 8993 8bbe
000003f0: 9c8a 0abf e3c1 cebe 3994 c53c 6dac 06bf
-0.5309529 -0.18368593 -0.03499235 -0.06828622 -0.7186056 0.3290989 0.9587739 -0.1796892
-0.21297203 -0.19293463 -0.12955156 0.053009946 -0.37496433 0.0603154 0.12244927 0.14991005
-0.6191858 -0.36809796 -0.011416612 -0.03250287 -0.39177236 0.30988657 -0.33557248 0.20066391
0.20087893 -0.7062165 -0.2158063 0.1850753 0.4966381 -0.14897512 0.29770538 0.2923785
-0.09251393 -0.3821838 0.26826954 0.425446 -0.035013728 -0.012043776 -0.49264234 -0.2694545
-0.2672818 -0.30391645 -0.16442412 -0.057472307 0.06503821 0.064863935 0.109734274 -0.23329037
0.11444074 -0.107021205 -0.15532774 0.11843544 -0.5171585 0.4769366 -0.12720808 0.041993834
0.3586402 -0.35071605 0.29128388 0.41029134 -0.4933903 0.060358793 -0.20411965 0.31855282
-0.02616514 -0.087753996 0.31009135 0.08096046 -0.21172471 0.2059904 0.07153203 0.4997619
0.053862877 -0.1718206 0.060106665 -0.14998159 0.0878891 0.26795197 -0.26178834 0.38488194
0.1985866 0.19116157 0.3616845 -0.35747617 0.23556863 -0.26351696 -0.06401113 0.3364378
-0.7575902 -0.041987166 0.053087678 0.09794596 0.28693387 -0.554917 0.079536945 0.5628165
-0.50251657 -0.18318334 0.11169526 0.43555212 -0.19210657 -0.17515168 0.89244443 -0.07303244
-0.47041923 -0.47425196 0.4519641 -0.03235361 -0.123803705 -0.48872897 -0.18930216 0.013232136
0.24555217 -0.59388053 0.35877714 -0.09883463 -0.07643501 -0.16466804 0.050462928 0.19063485
0.28088886 0.47711563 0.29877 -0.07277522 0.5433129 -0.2938299 0.07949543 -0.5209555
0.016384067 -0.4985154 0.4775372 -0.19812578 0.15385954 1.3347073 -0.7867837 -0.096550144
-0.89586765 -1.104519 0.14846383 1.8162624 -0.59959304 -0.26981637 0.042657368 0.3118829
0.64771724 -1.1275905 -0.008187427 -0.0852133 0.08496581 1.1837485 -0.33648035 1.2668122
-0.50180817 0.02434452 -0.25126797 -0.57972676 0.01495051 -0.3727396 -0.19560188 0.06652093
0.29215682 -0.48322073 -0.29561368 -1.0199753 -0.6087131 -0.46910167 -0.1652584 -0.6828121
0.085435554 -0.20759992 0.21126564 0.13798183 0.034280404 -0.5577355 -0.3091237 0.09645027
0.046224717 -0.047430538 0.4874328 -0.2288306 1.2632955 -0.015952855 0.21398239 0.34007913
-0.12473744 0.19491592 -0.1745922 0.048230477 0.11749941 0.024385544 -0.23484924 1.0776215
0.05411843 1.6977705 -0.33523375 0.5846317 0.47107363 -0.57866246 -0.36866486 0.7253906
-0.0056446767 1.1028872 0.24727687 0.31758657 -0.32213607 -0.54913706 -0.5283673 -1.0214388
0.4739897 -0.36826256 -0.08942885 -0.52637166 0.4253904 -0.6749796 -0.44387907 -0.42342818
0.25629798 -0.59010434 0.03128593 -0.22640488 -0.26346576 -0.038066816 -1.0998191 -0.46028146
0.8298691 1.3085024 -0.26389235 -1.1956078 -0.34259012 -0.5727993 -0.8252763 0.29116318
-0.499797 0.73412544 0.09816003 -0.08036058 0.547012 -0.2813528 0.20889695 0.2653827
-0.4187681 0.23927368 -0.0048155016 -0.53809756 0.8971552 0.015518938 -0.12341575 -0.57191
1.5342797 -0.07538602 -0.3918157 -0.27260998 -0.5411775 -0.403823 0.02411853 -0.5260685

layers.2.bias f4 [4]
00000000: 4c89 dc3d a202 9a3d e372 243d 1fcc 053e
0.10768375 0.075200334 0.040148627 0.13066147
