models/dqn_best_model_3.53.pt (torch, 106527 bytes, 4 tensors)

layers.0.weight f4 [128, 200]
-0.38142526 0.061147235 -0.045899425 0.41285518 -0.15893479 -0.13188843 0.12706043 0.39859214
0.23666029 -0.4948771 -0.5172958 -0.10721166 0.18394548 -0.33536083 -0.5147563 -0.44637063
0.24119094 0.11767036 -0.2788651 -0.4575247 -0.032579 -0.008292443 -0.028719733 0.046907414
-0.055816904 -0.032598354 -0.01996691 0.093626395 0.006673895 -0.06983946 0.11953786 -0.060066476
0.079121575 -0.123767085 -0.21135093 0.13836893 0.14639713 0.05713164 0.057364754 -0.022300253
0.018318115 0.0103616575 0.029759124 0.12722778 0.040874984 -0.03018084 0.05392004 0.009226187
-0.009009274 -0.043098517 -0.0699971 -0.027319817 -0.05423671 0.058020864 0.020366892 0.029289322
0.022363042 -0.0012300811 0.055338763 0.0054377913 0.004452208 -0.060332492 0.15718077 -0.024351506
-0.030406035 -0.014731968 0.05864686 -0.012373537 -0.04217171 -0.0053977557 0.06360021 0.037679955
0.081142396 -0.10347225 -0.070136234 -0.055321474 -0.047566302 0.028640665 0.025319789 0.05875523
-0.03651679 -0.048204307 0.03751754 -0.028581575 0.042915996 -0.01677969 0.040449757 0.20981295
-0.012753579 0.021558022 0.014948771 -0.09245328 0.14612406 -0.12772542 -0.051277503 -0.037750185
0.12884274 -0.048657227 0.026474983 -0.11116092 -0.0404939 0.017663788 -0.018326748 -0.05132789
0.0016586387 -0.04830116 -0.059990704 -0.03893773 -0.061886843 -0.045024183 0.070683025 0.013355477
0.021790182 -0.065950744 -0.04644092 -0.023536462 0.011057109 -0.062219836 -0.030467326 -0.04233226
0.00019595756 -0.026311671 -0.0048999507 -0.04791566 -0.04853547 -0.04125274 -0.024204085 -0.05581059
0.059288774 -0.014033527 0.06083924 0.022032183 -0.059877593 0.04893428 -0.019455677 -0.027105246
-0.05869485 -0.07029778 0.020231077 -0.015446315 0.027529303 -0.05802967 0.05249767 -0.05190544
-0.012209849 0.087754585 0.20054121 -0.026073055 -0.06721848 -0.056068067 0.017795563 -0.0304145
-0.0077488166 -0.052926246 0.06440744 -0.05189814 0.037791412 0.024850532 0.022977855 -0.03822946
0.06427258 0.015538701 0.009096226 -0.062314127 0.02968353 -0.010608058 -0.03239428 0.060736697
0.01576486 -0.03912255 -0.035789426 -0.32636687 0.20351881 0.04676934 -0.04034574 -0.024214368
-0.05282617 0.025217725 0.05473291 -0.06656989 0.016422605 0.036528558 0.012821923 -0.025181815
0.036906883 0.037159394 0.02644065 -0.012425381 -0.018724278 0.0075646937 -0.012491331 -0.021071857
0.045198753 0.060768727 -0.00700017 -0.015831899 0.0010318308 0.10624042 0.16786222 -0.0701586
0.14944898 0.41579345 0.3317157 0.022164319 0.05321694 -0.15681393 0.29708114 -0.33565485
0.19890781 -0.6070601 0.35017028 -0.23345818 0.22635016 -0.0018065135 0.27212074 -0.6086221
-0.2173865 -0.53181773 -0.08534966 -0.61992407 -0.04576789 0.051610824 -0.032152273 -0.01417514
-0.070343286 0.047324583 0.053572863 0.10396732 -0.049304735 -0.0697872 0.012435055 0.052728973
0.112999886 -0.04981713 0.13864483 0.044134658 0.09525932 -0.0537759 -0.10592165 -0.06613914
0.17293252 -0.04317503 -0.014230707 -0.21056369 -0.012885152 1.9317322e-06 -0.018956948 -0.011775548
0.087805346 0.043652758 -0.022684606 -0.05187104 -0.012476116 -0.03427682 -0.021633338 -0.06731626
00000000: 2c4a c3be 8675 7a3d 0901 3cbd c161 d33e
00000010: cdbf 22be c30d 07be 211c 023e 4514 cc3e
00000020: 1357 723e 8860 fdbe 7f6d 04bf c991 dbbd
00000030: 345c 3c3e 6ab4 abbe 12c7 03bf b18a e4be
00000040: c2fa 763e 28fd f03d 68c7 8ebe ad40 eabe
00000050: 8f71 05bd 07dd 07bc a545 ebbc fd21 403d
00000060: 44a0 64bd da85 05bd a591 a3bc 32bf bf3d
00000070: b0b0 da3b fe07 8fbd 44d0 f43d 4408 76bd
00000080: 7e0a a23d 9979 fdbd 616c 58be 96b0 0d3e
00000090: 21e9 153e de02 6a3d 4ef7 6a3d 05af b6bc
000000a0: df0f 963c f1c3 293c 68c9 f33c 0048 023e
000000b0: 876c 273d cf3d f7bc 43db 5c3d 6f29 173c
000000c0: a29b 13bc 1288 30bd a45a 8fbd cfcd dfbc
000000d0: 5027 5ebd 49a7 6d3d 78d8 a63c 29f0 ef3c
000000e0: b332 b73c ac3a a1ba e6aa 623d 802f b23b
000000f0: d4e3 913b 341f 77bd fff3 203e cf7c c7bc
00000100: 1416 f9bc 5a5e 71bc b137 703d 60ba 4abc
00000110: 3ebc 2cbd a8df b0bb d440 823d 4c56 1a3d
00000120: fc2d a63d 42e9 d3bd 96a3 8fbd c598 62bd
00000130: e2d4 42bd d49f ea3c 726b cf3c 53a9 703d
00000140: a192 15bd e171 45bd feab 193d e823 eabc
00000150: afc8 2f3d 8f75 89bc a5ae 253d 35d9 563e
00000160: 63f4 50bc 739a b03c b1eb 743c 2558 bdbd
00000170: 8ca1 153e 74ca 02be 5c08 52bd f09f 1abd
00000180: 5aef 033e cd4c 47bd 10e2 d83c 56a8 e3bd
00000190: efdc 25bd a6b3 903c fa21 96bc 323d 52bd
000001a0: ae66 d93a 70d7 45bd d0b8 75bd 2b7d 1fbd
000001b0: 0f7d 7dbd 476b 38bd 43c2 903d eed0 5a3c
000001c0: 5381 b23c 2f11 87bd d638 3ebd 8acf c0bc
000001d0: e028 353c 3ada 7ebd 9d96 f9bc 9864 2dbd
000001e0: f579 4d39 938b d7bc c48f a0bb 3643 44bd
000001f0: 21cd 46bd a2f8 28bd a547 c6bc a599 64bd
00000200: c9d8 723d e1ec 65bc 9132 793d d67c b43c
00000210: 3542 75bd 506f 483d 8361 9fbc d20b debc
00000220: 036a 70bd 48f8 8fbd a5bb a53c 8a12 7dbc
00000230: 2285 e13c 85b0 6dbd cc07 573d cc9a 54bd
00000240: d20b 48bc adb8 b33d ad5a 4d3e 2997 d5bc
00000250: d8a9 89bd a1a7 65bd 00c8 913c d427 f9bc
00000260: c9e9 fdbb 31c9 58bd 0ce8 833d 2593 54bd
00000270: 2bcb 1a3d 5893 cb3c 0e3c bc3c 7f96 1cbd
00000280: 58a1 833d 0996 7e3c 5608 153c 193d 7fbd
00000290: e02a f33c 6ccd 2dbc ddaf 04bd 0bc7 783d
000002a0: 4f25 813c f83e 20bd ef97 12bd 8f19 a7be
000002b0: 3c67 503e 3591 3f3d 9341 25bd 365d c6bc
000002c0: 4160 58bd 6795 ce3c 9e2f 603d cb55 88bd
000002d0: b388 863c f89e 153d 0b13 523c 184a cebc
000002e0: ac2b 173d 7334 183d 109a d83c d393 4bbc
000002f0: a863 99bc 40e1 f73b 71a8 4cbc e39e acbc
00000300: 5422 393d a1e8 783d af61 e5bb e6b1 81bc
00000310: 7f3e 873a 9494 d93d 13e4 2b3e 50af 8fbd
00000320: 2709 193e e1e2 d43e a4d6 a93e f291 b53c
00000330: 02fa 593d d593 20be 051b 983e f4da abbe
00000340: 7dae 4b3e 4a68 1bbf 8549 b33e a90f 6fbe
00000350: 56c8 673e 89c8 ecba 6953 8b3e a8ce 1bbf
00000360: 919a 5ebe 3525 08bf cdcb aebd 58b3 1ebf
00000370: 1c77 3bbd df65 533d 1ab2 03bd d93e 68bc
00000380: 2410 90bd 6cd7 413d 386f 5b3d d1ec d43d
00000390: c3f3 49bd 97ec 8ebd 67bc 4b3c 56fa 573d
000003a0: 7c6c e73d 0c0d 4cbd e9f8 0d3e 8bc6 343d
000003b0: 5217 c33d 1e44 5cbd 73ed d8bd f573 87bd
000003c0: 3915 313e 4dd8 30bd e927 69bc 029e 57be
000003d0: 3f1c 53bc e8a2 0136 9a4b 9bbc 3aee 40bc
000003e0: 4ad3 b33d 3ccd 323d 11d5 b9bc ba76 54bd
000003f0: a068 4cbc da65 0cbd 6638 b1bc 1bdd 89bd

layers.0.bias f4 [128]
-0.07500975 0.011533827 0.061842937 -0.07891889 -0.011699711 0.1175504 0.09151172 0.20777029
-0.032402616 0.050437696 0.031521965 0.14847393 0.024007767 0.038382344 0.08016014 0.24173248
-0.055708323 0.10345107 0.13464919 -0.011149059 0.011998989 0.1337814 0.038459927 0.23513977
-0.04265645 0.004644645 -0.0029417933 0.06697753 0.014657342 0.11369588 0.036385145 0.14602293
0.12277636 0.034065165 -0.055671945 0.028840983 -0.00454327 -0.04276852 -0.04502909 0.015926996
-0.014313892 -0.028766321 0.026096 0.012229085 -0.08150064 0.026365932 0.0108344145 0.020697035
0.34751388 0.21013094 -0.028583195 0.04800894 0.10032758 -0.011031244 0.011653927 -0.02440636
-0.10732575 0.11007977 0.117354296 0.071788356 -0.045442075 -0.02957531 0.059872128 0.12459975
-0.007089954 0.066192895 0.3103202 -0.0031198577 0.087161005 0.0054159733 -0.03431337 0.034686305
-0.05644724 0.041050024 0.03012391 0.039365143 0.022304168 -0.019411493 0.004464469 0.16923308
0.00043481635 0.008713899 0.082967505 -0.00216521 0.14370021 0.038920138 -0.0034517222 -0.012479874
-0.049534183 0.04452628 -0.04431665 0.2777549 0.006503683 0.019938989 0.022486793 0.062299624
0.036436718 0.083211385 0.00083953 0.19320191 0.031032793 0.042520884 0.1653366 0.059936933
0.012090834 0.03303385 -0.016121138 0.0639188 -0.0126170805 0.061950307 0.02384959 0.014824173
0.10609945 0.050383456 0.41660476 -0.06390285 0.22524987 -0.052233104 -0.031292215 0.036098156
0.10166514 0.085480675 0.09988648 0.118575275 0.12482235 0.05891679 -0.004338992 0.04588818
00000000: b69e 99bd 60f8 3c3c 054f 7d3d 3aa0 a1bd
00000010: 25b0 3fbc 44be f03d 7f6a bb3d bcc1 543e
00000020: 9bb8 04bd c297 4e3d 2d1d 013d 8d09 183e
00000030: f0ab c43c ce36 1d3d 002b a43d b888 773e
00000040: 692e 64bd 28de d33d 7ae1 093e 8baa 36bc
00000050: 6897 443c fefd 083e 2888 1d3d 7bc8 703e
00000060: 88b8 2ebd 1b32 983b 1acb 40bb 842b 893d
00000070: 5925 703c 63d9 e83d 9708 153d 0987 153e
00000080: 2c72 fb3d ea87 0b3d 4408 64bd ed43 ec3c
00000090: b6df 94bb 0b2e 2fbd 6c70 38bd 5579 823c
000000a0: d184 6abc 59a7 ebbc 47c7 d53c 805c 483c
000000b0: cfe9 a6bd 5efd d73c d482 313c d48c a93c
000000c0: 57ed b13e 912c 573e 4e27 eabc 06a5 443d
000000d0: 8c78 cd3d 64bc 34bc 1df0 3e3c d9ef c7bc
000000e0: 9acd dbbd 8171 e13d 7357 f03d c605 933d
000000f0: 7821 3abd ec47 f2bc 7a3c 753d 272e ff3d
00000100: d852 e8bb 2490 873d 4ae2 9e3e 8776 4cbb
00000110: 7881 b23d 7a78 b13b 2d8c 0cbd 3a13 0e3d
00000120: 3935 67bd 1224 283d 6bc6 f63c 583d 213d
00000130: 3bb7 b63c da04 9fbc ae4a 923b 704b 2d3e
00000140: 10f8 e339 bec4 0e3c deea a93d 32e6 0dbb
00000150: 2626 133e b96a 1f3d 4a36 62bb 6378 4cbc
00000160: 5be4 4abd 3061 363d 6085 35bd e435 8e3e
00000170: d91c d53b 1757 a33c 3936 b83c e42d 7f3d
00000180: ab3e 153d bb6a aa3d e813 5c3a b9d6 453e
00000190: 7c38 fe3c 612a 2e3d ff4d 293e 6e80 753d
000001a0: a218 463c 814e 073d 7a10 84bc dce7 823d
000001b0: dfb7 4ebc 9bbf 7d3d 3760 c33c 17e1 723c
000001c0: ab4a d93d e25e 4e3d 384d d53e 7fdf 82bd
000001d0: e7a7 663e 61f2 55bd 442c 00bd a9db 133d
000001e0: d035 d03d 7e10 af3d 4891 cc3d 98d7 f23d
000001f0: dca2 ff3d bb52 713d 1a2e 8ebb 3ff5 3b3d

layers.2.weight f4 [4, 128]
-0.49018264 -0.17478925 -0.047224242 -0.060323894 -0.68900037 0.31371105 0.92287767 -0.1687914
-0.21497525 -0.1725979 -0.121457495 0.045191854 -0.35989475 0.059607375 0.1210743 0.1578256
-0.60077184 -0.36299968 -0.0051457244 -0.02477465 -0.3716817 0.3018415 -0.32541108 0.2062865
0.18963332 -0.6956744 -0.20373578 0.17421995 0.47558463 -0.14616834 0.2912539 0.29335192
-0.090891756 -0.37869698 0.2494077 0.43228793 -0.03646319 -0.0195513 -0.47858506 -0.25359347
-0.2740834 -0.292333 -0.15985122 -0.06861271 0.06503821 0.0612696 0.09068551 -0.2290962
0.11937398 -0.09652776 -0.16207781 0.093122326 -0.50252944 0.4677494 -0.11654984 0.024848837
0.3128864 -0.34008503 0.28298348 0.39824712 -0.46940082 0.060358793 -0.19702885 0.30547035
-0.02616514 -0.0888562 0.31485817 0.07776356 -0.21421465 0.1908241 0.06276408 0.4889796
0.053862877 -0.17336543 0.05171532 -0.15584104 0.08665616 0.21858163 -0.25053284 0.36178508
0.17781818 0.18920243 0.3539742 -0.34154755 0.23259515 -0.2529975 -0.06698552 0.30408332
-0.72326934 -0.046218436 0.053087678 0.10361114 0.25250354 -0.52510554 0.060610022 0.5483586
-0.48471716 -0.16640007 0.105385154 0.42692846 -0.18563819 -0.17145064 0.8675482 -0.087727115
-0.44577554 -0.4602511 0.43384668 -0.033888455 -0.13213739 -0.4849486 -0.19663452 -0.004756008
0.23341988 -0.5732933 0.35846698 -0.109248735 -0.07130215 -0.17395976 0.05642723 0.17447342
0.27365634 0.4752884 0.2954059 -0.058187176 0.5384452 -0.2927891 0.07949543 -0.51225007
0.022808036 -0.48909596 0.4463035 -0.19276342 0.14050227 1.3314248 -0.79153466 -0.09815784
-0.8880764 -1.1010419 0.13725945 1.809459 -0.5904501 -0.2697301 0.04053839 0.31284592
0.6232529 -1.1187191 -0.010601438 -0.09098204 0.08657543 1.1830233 -0.33243078 1.2572194
-0.5020813 0.014879357 -0.24974954 -0.57595044 0.017738966 -0.37009066 -0.20534202 0.06964958
0.28152683 -0.4814731 -0.28942704 -1.0145855 -0.5992353 -0.47103733 -0.17820895 -0.67322093
0.061161704 -0.1983144 0.19662347 0.12319763 0.034280404 -0.5550399 -0.31016317 0.08673856
0.04722012 -0.044866975 0.45260116 -0.2275992 1.2691579 -0.022721725 0.20348062 0.3166585
-0.12647125 0.19880015 -0.1706027 0.046513047 0.10944759 0.024385544 -0.2270083 1.0708176
0.05411843 1.6889272 -0.33426437 0.58252746 0.45389557 -0.5736427 -0.36877602 0.7238533
-0.0056446767 1.0978014 0.22204357 0.29713368 -0.3194729 -0.53897244 -0.533037 -1.0169219
0.4699931 -0.3712887 -0.09780079 -0.5202269 0.43430406 -0.66876465 -0.4338649 -0.4187446
0.25812095 -0.58602256 0.03128593 -0.22575322 -0.27036577 -0.025362758 -1.0929085 -0.45576802
0.8028693 1.3040769 -0.2711042 -1.1970181 -0.35150453 -0.5617635 -0.82136947 0.28312308
-0.49296752 0.7224013 0.09063535 -0.072595514 0.5149909 -0.28259644 0.19786082 0.26583248
-0.42156145 0.23889345 -0.0032221258 -0.54924816 0.8849079 0.002579461 -0.14059962 -0.5683873
1.5200119 -0.08181464 -0.39075413 -0.26375934 -0.53049546 -0.40495485 0.02411853 -0.51811194
00000000: 38f9 fabe f4fb 32be 356e 41bd 3016 77bd
00000010: 5462 30bf bc9e a03e b641 6c3f a7d7 2cbe
00000020: 7922 5cbe 81bd 30be b5be f8bd 181b 393d
00000030: 2044 b8be dd26 743d cdf5 f73d 099d 213e
00000040: 2fcc 19bf 18db b9be 779d a8bb 35f4 cabc
00000050: 104d bebe f88a 9a3e 489c a6be c53c 533e
00000060: 3d2f 423e b817 32bf 1da0 50be b766 323e
00000070: d47f f33e 27ad 15be 3b1f 953e 3932 963e
00000080: 7525 babd 92e4 c1be bb64 7f3e d854 dd3e
00000090: 6d5a 15bd 0c2a a0bc 1a09 f5be 01d7 81be
000000a0: a954 8cbe acac 95be 0ab0 23be d284 8cbd
000000b0: c132 853d d5f5 7a3d 53b9 b93d 3298 6abe
000000c0: 587a f43d 59b0 c5bd baf7 25be ebb6 be3d
000000d0: c5a5 00bf d97c ef3e afb1 eebd ca8f cb3c
000000e0: a532 a03e a01f aebe 36e3 903e 0ce7 cb3e
000000f0: 4e55 f0be c83a 773d eec1 49be 9c66 9c3e
00000100: 4758 d6bc 3dfa b5bd 1735 a13e 8042 9f3d
00000110: 165b 5bbe 6567 433e 748a 803d 895b fa3e
00000120: 529f 5c3d b586 31be 72d3 533d cb94 1fbe
00000130: c978 b13d ddd3 5f3e d745 80be e53b b93e
00000140: f815 363e 48be 413e 1b3c b53e 52df aebe
00000150: 6c2d 6e3e e388 81be b42f 89bd cfb0 9b3e
00000160: 2e28 39bf 8b4f 3dbd 7772 593d 1432 d43d
00000170: 2548 813e 516d 06bf 3742 783d 3b61 0c3f
00000180: d92c f8be c864 2abe 2cd4 d73d 5e96 da3e
00000190: f017 3ebe c290 2fbe a417 5e3f 46aa b3bd
000001a0: b13c e4be 08a6 ebbe 2721 de3e 9fce 0abd
000001b0: 064f 07be 2f4b f8be 8f5a 49be 49d8 9bbb
000001c0: 9f05 6f3e 5ac3 12bf fc88 b73e cdbd dfbd
000001d0: dd06 92bd 8222 32be 3d20 673d 29a9 323e
000001e0: af1c 8c3e 0059 f33e 713f 973e ad55 6ebd
000001f0: 8bd7 093f 74e8 95be 80ce a23d d222 03bf
00000200: ebd7 ba3c c96a fabe e481 e43e c663 45be
00000210: d4df 0f3e 216c aa3f 04a2 4abf fa06 c9bd
00000220: fa58 63bf f1ee 8cbf be8d 0c3e 5a9c e73f
00000230: bd27 17bf 101a 8abe 950b 263d 572d a03e
00000240: 818d 1f3f 3032 8fbf a7b1 2dbc cb54 babd
00000250: 764e b13d 4f6d 973f 5e34 aabe 91ec a03f
00000260: 6688 00bf 8cc8 733c 58be 7fbe 7d71 13bf
00000270: 4f51 913c 867c bdbe 2e45 52be 70a4 8e3d
00000280: 4924 903e a483 f6be c82f 94be f0dd 81bf
00000290: 7c67 19bf ce2b f1be 687c 36be 3558 2cbf
000002a0: b284 7a3d ee12 4bbe aa57 493e 0a4f fc3d
000002b0: 9c69 0c3d 1817 0ebf b5cd 9ebe fca3 b13d
000002c0: e269 413d 6fc6 37bd 57bb e73e c40f 69be
000002d0: c473 a23f e922 babc 395d 503e 1021 a23e
000002e0: ae81 01be 4492 4b3e 79b2 2ebe 7784 3e3d
000002f0: 0f26 e03d 31c4 c73c dd74 68be 8d10 893f
00000300: 49ab 5d3d c42e d83f b324 abbe 8520 153f
00000310: 0065 e83e 3fda 12bf 36d0 bcbe 734e 393f
00000320: fbf6 b8bb c284 8c3f 645f 633e e821 983e
00000330: f491 a3be 19fa 09bf 1d75 08bf 7f2a 82bf
00000340: f0a2 f03e 8d19 bebe c84b c8bd 972d 05bf
00000350: 1a5d de3e 2934 2bbf 8a23 debe b165 d6be
00000360: 6e28 843e 9305 16bf ad25 003d da2b 67be
00000370: 626d 8abe 8fc5 cfbc 6de4 8bbf 6d5a e9be
00000380: d888 4d3f feeb a63f 2bce 8abe e437 99bf
00000390: 67f8 b3be bccf 0fbf 4545 52bf 82f5 903e
000003a0: 3d66 fcbe 4bef 383f 079f b93d f5ac 94bd
000003b0: 72d6 033f 7bb0 90be 079c 4a3e 321b 883e
000003c0: e7d6 d7be 7ca0 743e 4d2a 53bb 879b 0cbf
000003d0: 5389 623f 2d0c 293b 59f9 0fbe d581 11bf
000003e0: c08f c23f 6f8e a7bd ed10 c8be 770b 87be
000003f0: 8dce 07bf 3e56 cfbe 3994 c53c fca2 04bf

layers.2.bias f4 [4]
0.10885235 0.07512504 0.038261596 0.12882893
00000000: fbed de3d 28db 993d 31b8 1c3d bbeb 033e
