models/dqn_[256,128]_packed_best_model_3.08.pt (torch, 213463 bytes, 6 tensors)

layers.0.weight f4 [256, 75]
00000000: b123 653d 3d3a a53d d44d 81bd 1a1c 103e
00000010: d41f 4a3e b78f 7e3e 3e70 59bb c469 9c3e
00000020: b577 bc3b c5fe 06be adaa 583d 80d9 1bbe
00000030: be7b a13d 3226 bcbe 3929 f73d 2699 503d
00000040: a239 b8bd 0d87 0e3e a062 a4bc a878 b1bc
00000050: 97e9 59bd 2edd 5dbc 4c19 40bd 30e0 9c3d
00000060: 20ac babd 2525 04bc cb9e 32bd 5280 913c
00000070: bd44 433e 99b3 de3d 459f 723d fc88 bdbd
00000080: 239b 5cbd eb57 f43d ddc1 69bc afc9 923d
00000090: 21eb fbbc 82c8 673e 8bea 8b3d f6ab b8be
000000a0: f74b 6439 f358 c1bd 5780 7d3d 85c0 233e
000000b0: 6858 caba e52c 5cba 1e11 5d3c 8a58 d93d
000000c0: 1bc4 aebd 8a40 823d 19bc cbbd dbe8 a2bd
000000d0: 91e2 a0bd b605 613e a7db 053e 7503 f23d
000000e0: b872 92bc 2822 6fbc 1f98 143e e93f 97bc
000000f0: 8c25 d53c 5ea4 aebd c17c 07bd 442e 853d
00000100: d3b2 7abc ee7f 2bbd afc2 d83d f6cc 4ebd
00000110: fe7a 813d 21ed d0bd 7d80 6bbc 6a70 453a
00000120: 3d54 2b3e 9f52 cdbd c5da 9c3b 2aa3 8bbd
00000130: 18b0 90bd fd30 5c3e e6fe a43d c46e 6abe
00000140: c8ce f6be 29ef 963d b40a 3b3d 4b27 f23c
00000150: d4ea 3b3e f117 7a3d c970 4dbe 134e 833c
00000160: 2dcc 1ebd 5133 79bb 2510 3c3d 553b 3bbd
00000170: 9055 f33d 0efe b5bd 6f9d 4ebd 4b80 7cbd
00000180: c689 d83d 0898 1fbd 89ac 27bd c1d1 e4bd
00000190: 73d6 8a3d ecd6 9a3c ab3f 71be bd40 c63d
000001a0: 1167 923d 6b6f 373d 11a3 01be 50d8 a6bd
000001b0: 0e68 f3bc c262 4abe 3db9 873e 1617 d93d
000001c0: a0b5 fe3d 8546 74bd 0d7a 3cbe 3b84 1dbd
000001d0: a8ee 2f3d 9ace 623c cf46 2abd a74f 71bd
000001e0: 472c 433d e29c febd 5e0c 723d 03d6 2ebd
000001f0: 30ca cabd b799 fcbc 7f92 4e3d d60c fc3c
00000200: e7ff 233e be19 b63d 31b3 753d c631 9bbc
00000210: 0345 53bd 3a04 243d ce7d 62bc 900c 62bd
00000220: 7803 3bbc 2cc0 2bbd 3807 7fbd e3af 503d
00000230: e0cc e23d f0dd 65bd 5de5 1d3e 78f4 4f3d
00000240: 561f dfbc 16b9 ae3d 0594 4c3d 9853 273e
00000250: 03b5 463e a4f1 7d3d 5fd2 053d 8da0 9abd
00000260: 4485 c4bc 676a b3bd 8e7f 063e baf0 8c3c
00000270: cf22 953d 1384 823d c986 103d cc45 023c
00000280: 1fe5 233e 7eff c5bd 08c2 983d b452 edbd
00000290: b553 d53d a834 423e 31e3 eebc 8a3e 533e
000002a0: f9a3 263e d439 ec3d dc62 6fbd c4b1 b4bb
000002b0: f30a 843d 9fb7 f1bc 5bee 86bd 648e 97be
000002c0: 29c0 e1bd 1860 ec3d 132f 383e 8774 123c
000002d0: 73e5 723d 84a1 353d 16f7 7e3d 51da bc3c
000002e0: 57a5 0f3d cc46 c13d 424d c43d a16d 663a
000002f0: 1d24 ce3c fdee 7c3d e2a4 b1bc 6f0f d8bb
00000300: 84f3 cd3d e8c7 433e 8dec 4e3d 89af 483d
00000310: f233 643d 6f0d b33c fc88 c83d 791b 823d
00000320: 0cd1 28be 65a0 0cbd e21d 153e 36ab ee3d
00000330: 389f 213d 1611 2dbd 679e efbc 05e2 4abd
00000340: e778 8cbd 7d9c 753d 7609 e83d d077 923d
00000350: 6cca 42bd 5c1c eebc c60d 97bd 664c 233e
00000360: dc79 613d cfbb 573d 6195 ac3d c3d0 a4bc
00000370: 9085 2abc bc0a 9c3d f50c d6b9 49df 8d3d
00000380: 296f d4bd ea38 4a3e 6178 213d 357b 913e
00000390: 31d7 7dbd 81cd 0dbe 9986 eebd 6c03 af3e
000003a0: 2841 ac3d 2398 6dbd 0af5 fd3d 8885 afbb
000003b0: 4e35 2dbf 10a3 f6bd c3ac 62be 2bcb d7be
000003c0: dc7d 6dbe e64a 92be 02e8 64be d92d 20be
000003d0: 5674 0d3d db71 a6bd 8085 9abd 41e3 1c3d
000003e0: 4790 0cbd b0fd 913d ad2e 2dbf 2395 f9be
000003f0: 9f74 133d b0f0 0ebd c192 9e3d 95ce 08be
0.05594224 0.08067749 -0.06313673 0.1407322 0.19738704 0.2485951 -0.0033178474 0.30549443
0.005751575 -0.13183124 0.052897144 -0.15219688 0.0788493 -0.3674789 0.120684095 0.050927304
-0.089953676 0.13918705 -0.02006656 -0.021663979 -0.053201284 -0.013541503 -0.046899125 0.07659948
-0.091148615 -0.008065497 -0.043608468 0.017761383 0.1906919 0.10874099 0.059233923 -0.09254643
-0.053858887 0.119308315 -0.014267412 0.07167374 -0.030751767 0.22635081 0.06831845 -0.36068696
0.00021772074 -0.09440794 0.061889973 0.15991409 -0.0015437724 -0.0008399024 0.013492851 0.106125906
-0.08533498 0.06359966 -0.09947986 -0.0795457 -0.07855714 0.21974835 0.13072072 0.118170656
-0.017876968 -0.014595546 0.14511155 -0.018463092 0.02601888 -0.08527444 -0.03307796 0.06502965
-0.015301424 -0.04187005 0.10584008 -0.050488435 0.06322287 -0.10201479 -0.014373896 0.00075317046
0.16731353 -0.10025524 0.0047868215 -0.068182305 -0.07064837 0.21503063 0.080564305 -0.22893816
-0.48204637 0.07369835 0.045664504 0.029559752 0.18351299 0.06105799 -0.20062555 0.01602844
-0.038768936 -0.0038024972 0.045913834 -0.04571088 0.11881554 -0.08886348 -0.05044311 -0.061645787
0.10573153 -0.038963348 -0.040936027 -0.1117282 0.06779184 0.01890131 -0.23559444 0.096803166
0.071485646 0.04478399 -0.12659861 -0.08146727 -0.029712703 -0.19764236 0.26508513 0.106001064
0.12436986 -0.059637565 -0.18405934 -0.038456183 0.04295221 0.013843203 -0.041571435 -0.058913853
0.047649648 -0.12432267 0.059093826 -0.042684566 -0.099018455 -0.030835016 0.05043268 0.03076784
0.16015588 0.08891629 0.059985343 -0.018944632 -0.051579487 0.040043093 -0.0138239395 -0.05518776
-0.011414401 -0.041931316 -0.062262744 0.05094899 0.11074233 -0.05611986 0.15419526 0.050770253
-0.027236622 0.08531396 0.04994585 0.16340482 0.19404988 0.061998025 0.03267133 -0.07550154
-0.023989327 -0.08760529 0.13134596 0.017204631 0.0728203 0.063728474 0.03528479 0.007951211
0.16005372 -0.09667872 0.074588835 -0.1158804 0.104163565 0.189654 -0.029161068 0.20629326
0.16273488 0.11534467 -0.05844389 -0.0055143554 0.06447401 -0.029506503 -0.065884314 -0.29600823
-0.1102298 0.11541766 0.17986707 0.008938915 0.05930085 0.044343486 0.06224736 0.02305332
0.03506979 0.094373316 0.09585048 0.00087901397 0.025163705 0.061751354 -0.021685068 -0.0065936367
0.100562125 0.19119227 0.05051856 0.04899553 0.0557136 0.021856992 0.09791753 0.06352896
-0.16485995 -0.03433265 0.1456218 0.1165375 0.039458483 -0.042252623 -0.029250337 -0.049531955
-0.06858998 0.059963692 0.113299295 0.07151759 -0.047556326 -0.029066257 -0.07375674 0.15947112
0.055047855 0.052669343 0.08426929 -0.020119077 -0.01040782 0.07619235 -0.00040826914 0.06927354
-0.103727646 0.19748273 0.039421443 0.28414312 -0.0619728 -0.13847925 -0.11646766 0.34182298
0.08410865 -0.058006417 0.12400253 -0.0053564943 -0.6765946 -0.120428205 -0.22136216 -0.42147192
-0.23192543 -0.28572768 -0.22354129 -0.1564249 0.034534775 -0.08127185 -0.07544994 0.038302664
-0.03431728 0.07128465 -0.67649347 -0.48746595 0.03599989 -0.034897506 0.07742835 -0.13360055

layers.0.bias f4 [256]
00000000: d996 d53d 4b6c 0b3d 6ac9 dd3d c658 af3d
00000010: 1c75 da3d a491 bf3c 2b95 11bd 3160 833a
00000020: 0d1f 0abc eb6e d33d dab8 33bd 82b9 a93d
00000030: 5c87 1abd 4236 b13d d035 1f3d 675c 12bc
00000040: 06a8 113d 23fb d8bd cfb4 8c3d d820 ee3d
00000050: 0c34 febd c4e8 cd3d b5ce 46bd a5d3 5b3c
00000060: 1cf6 8abd bb62 ddbd 4eee 293d 7b68 a23d
00000070: c2e8 af3c c91d 053d 60fd efbc 20a3 f93d
00000080: 9f5f c9bd e4a9 e33b 1699 1bbd 7ea0 88bc
00000090: afa4 fb3d b88b 983d 36db ad3d 679f edbc
000000a0: 9081 73bd 4a50 a8bc 96d8 23bd 3d64 86bc
000000b0: b9c2 743c ad08 0e3e 15ab ce3d 1132 bcbd
000000c0: 20bb c63d 01b6 c9bc a3f4 ff3a dbcb a43c
000000d0: 1a59 37bd 1d3e 9fbd 2194 50bd 5c9a 0c3d
000000e0: 1c66 84bd 4ff8 cc3c 7806 983d 823a f03d
000000f0: 1b71 3e3c 6163 3f3d b288 07be d36e 92bd
00000100: 8101 d9bd 3999 90bb 9721 99bd ec5b 033d
00000110: 863e 80bd 3ca9 f83b c6e0 7e3d 882e a9bd
00000120: 10a5 d93c 42e1 f9bd 0afc 0d3d 905e 37bd
00000130: 6892 3cbd ea2e 063d 52e9 13bd 95b5 5e3d
00000140: 5c96 0c3e d506 21bc afcf c13b ba9d 2e3e
00000150: 8317 01bd ad6f 8c3d b3bb cd3d 97d2 04be
00000160: 6c07 15bd 9feb df3c 6986 e0bd 6c99 773c
00000170: 0f02 3cbd bc21 74bc cd18 0a3e 56de c73d
00000180: d285 003e 0fc5 c639 1952 cdbd a712 82bd
00000190: 6d55 173d 7cef ba3d ef3f 05bd 9405 d5bc
000001a0: 89d7 d73d 3d3b bc3c f031 7a3d e2d6 e13d
000001b0: 5911 dd3d 1ea1 d53d ad9d 43bd 09a6 1d3d
000001c0: 3fa9 e63d bf3c fc3d 8044 a7bd 1b99 d73d
000001d0: b34c a6bd 3409 20bd 6ebe 03bd 3189 00bd
000001e0: b05a 42bc ca28 d5bb cd9e 00bd 49a5 df3d
000001f0: 8803 02bd 3e2f fd3d 4bd9 a6bd 4646 fa3c
00000200: 71a6 c7bd 02ce 9ebd 5692 1cbc ee06 89bc
00000210: cd78 8d3c 109a 3e3c da41 a1bd d6f1 21bd
00000220: 00ee 1c3d b75c 8d3c af3c 5abb b83e 913d
00000230: 16f1 cabb aeb6 aa3d 682f 153d b9be 2e3d
00000240: dc5e 39bd d115 6bbd 7329 b63d 5ce4 063d
00000250: 8f18 e33d 1bb2 123d 7d7a 9e3c c425 cdbd
00000260: 76ed 813d 67ce b4bc b316 b9bb f87e dc3b
00000270: 09d8 363d 8432 f73d 9b91 60bd c621 5bbc
00000280: acbf ccbd a5d1 623d dfd5 94bd 6ab7 95bd
00000290: 8fac bcbd f7c3 12bc b74d 233d a59b 51bd
000002a0: cb9c 073d 0059 2cbd 7aa6 18bd 2086 d9bc
000002b0: d63d fabc 57c3 183d 083d 67bd 82ba 6c3c
000002c0: 2ef1 8abd 1d0e 2a3c 14b5 003e c83d fa3c
000002d0: 4d0e 2e3d 21fc abbd a684 90bd 3ae2 fc3d
000002e0: 6c13 c83d 1ca9 623b 2a13 d93d bdb8 3abd
000002f0: 35c1 9cbd e58e cc3d 08d0 5bbd 54d3 bb3c
00000300: 0260 b6bd ce77 ae3d 2885 293d ca34 1cbd
00000310: 1369 b9bd 4591 e43c db22 cebd f3c8 823d
00000320: d37d c83d 05fe 87bd 6f96 06bd e8d5 c73c
00000330: 9334 55bd 7ab9 cabd bf39 a63d d3e0 28bd
00000340: 2c03 243d 9531 71bc 1c35 91bd 977c 08bd
00000350: 30a5 233d 60c4 d9bd f190 a6bc 2c2f 39bc
00000360: ec67 fcbc 05c7 d33d 1742 5bbd 192a e3bd
00000370: ee78 f0bd 7197 ab3d 1982 debd 9af9 a23d
00000380: 6421 d83d 559f bd3d 36e3 f63d 8322 603d
00000390: 91f3 84bd 4ab5 b237 b994 1e3c a04c c8bc
000003a0: de95 32bd 8f9e ae3d faf2 203d 033d a03d
000003b0: d7a0 873c 83d8 9dbd 9687 d63d 9abb 22bd
000003c0: ab51 31bd 5831 4c3d 0ef8 14bd e921 ec3d
000003d0: 4474 443d f1f7 42bc b282 de3c 59b6 533d
000003e0: 3435 4ebb 9fb4 983d 91a7 943c 4141 04bd
000003f0: 33c0 1bbd 8207 a9bd ba07 2abb 5f38 0b3b
0.104291625 0.034038823 0.10829432 0.08561854 0.10666868 0.023384877 -0.03554265 0.0010023174
-0.008430255 0.1032389 -0.04387746 0.08287336 -0.037726745 0.08652927 0.03886968 -0.008933163
0.03556063 -0.105947755 0.06870424 0.11627358 -0.12412271 0.10054162 -0.048536975 0.013417159
-0.06785223 -0.10809847 0.04148703 0.07930084 0.021473292 0.03249911 -0.029295623 0.12189317
-0.098326914 0.006947743 -0.03798779 -0.016678091 0.1228727 0.07448524 0.08489077 -0.029006673
-0.059449732 -0.020546097 -0.040001474 -0.01640522 0.014939004 0.13870497 0.10091225 -0.09189237
0.0970366 -0.024622919 0.0019527863 0.020116737 -0.04476271 -0.07775519 -0.050922517 0.034326896
-0.06464788 0.025020747 0.07423109 0.117299095 0.011623646 0.046725634 -0.13235739 -0.07150044
-0.1059599 -0.004412797 -0.0747711 0.032070085 -0.062619254 0.0075885337 0.06222608 -0.08260828
0.026567966 -0.12201168 0.03466419 -0.044767916 -0.04603806 0.032759584 -0.036111183 0.05437239
0.13729233 -0.009828289 0.0059146504 0.17052355 -0.031516563 0.06857238 0.100455664 -0.12970959
-0.03638403 0.027334033 -0.10963137 0.015112262 -0.0459004 -0.014900621 0.13486023 0.09759204
0.12551048 0.00037912323 -0.100254245 -0.06351214 0.036946703 0.09127709 -0.032531675 -0.026003636
0.10539157 0.022977466 0.06108278 0.11027314 0.107943244 0.10431121 -0.047757793 0.03848842
0.1126275 0.12316274 -0.08167362 0.105272494 -0.08120098 -0.039071277 -0.03216403 -0.031380836
-0.011862442 -0.0065051066 -0.031401444 0.109201975 -0.03174165 0.12362526 -0.08146914 0.030551087
-0.09748543 -0.077541366 -0.009556374 -0.016726937 0.017269516 0.011633411 -0.07873888 -0.039537273
0.038312912 0.017256124 -0.003330033 0.07092041 -0.0061932905 0.08335625 0.036422163 0.042662356
-0.04525648 -0.057393853 0.088946246 0.032932624 0.110886686 0.035814386 0.019345516 -0.10016969
0.0634412 -0.022071077 -0.005648458 0.006729003 0.04463962 0.12070182 -0.05482636 -0.013374751
-0.09997496 0.055375714 -0.07267355 -0.07310374 -0.092126004 -0.0089578545 0.039869037 -0.051173825
0.033108514 -0.042077065 -0.03726814 -0.026553214 -0.030547064 0.037295666 -0.05645469 0.014448764
-0.067842826 0.010379341 0.12569076 0.030547038 0.042494107 -0.08397699 -0.07056551 0.12347837
0.097693294 0.003458566 0.105993584 -0.045586336 -0.07654039 0.099881925 -0.05366519 0.022927918
-0.08905031 0.08518945 0.041386753 -0.03813628 -0.090532444 0.027901301 -0.10065242 0.06385984
0.09789624 -0.06640247 -0.03285831 0.02439399 -0.05205209 -0.09898658 0.08116483 -0.041230034
0.040042087 -0.014721294 -0.07090208 -0.033321943 0.039952457 -0.10633159 -0.020332785 -0.011302751
-0.030811273 0.10340694 -0.053529825 -0.11092014 -0.117418155 0.083784945 -0.10864658 0.07957764
0.10553244 0.09258906 0.12055056 0.054720413 -0.06491769 2.1303673e-05 0.009679013 -0.0244506
-0.043599956 0.085263364 0.03929422 0.07824137 0.016556187 -0.07707312 0.1047508 -0.039729692
-0.043290775 0.049851745 -0.036369376 0.11529905 0.047962442 -0.011899934 0.02716193 0.051687572
-0.0031464817 0.07456326 0.018146308 -0.032288793 -0.038025092 -0.08253385 -0.0025944547 0.0021243317

layers.2.weight f4 [128, 256]
00000000: 421d c23d d227 c8be bf47 34bd 298a 6cbd
00000010: 70da 0fbd 0e7f 6d3e 5528 71be 95e2 063e
00000020: 4838 2e3d d164 7dbe ba4d 9cbd 9449 163d
00000030: 622e 193e e186 88be e89c c03e ff01 22bd
00000040: ba15 3fba 82ef ecbc db88 aa3e bb50 dbbc
00000050: 28f0 40be 53b8 eebd e89d fabd 197f db3c
00000060: 0a0e 9dbe b85d 183e eb0e 02be abc5 edbd
00000070: 6855 3bbe f989 e3bd d1c8 b83c 3cbe 083d
00000080: bacc 5b3e 350f 0c3e ed92 743c 3656 ebbe
00000090: c002 243d d4bf 71bc f568 bebe a35b 37be
000000a0: 472f eabd cc71 213e 81d2 c83c 481b cd3c
000000b0: a64f adbe 967c 853c 17dc 2f3e 9a1d 91bd
000000c0: 6ec8 893e 2f04 d33d 95af 07bf 2181 503c
000000d0: 7800 b6be 2024 92bd 750d 5bbd 23d6 76be
000000e0: 0e2f 0abe 1beb 2dbe 35a3 cd3e d8b3 c03e
000000f0: b789 163d 81ec 87be d13b a4be 4e13 803e
00000100: 9e1f 103c 0bc5 4b3e b38a 9b3e ac0a 9abd
00000110: 0625 6dbe cf60 9e3e 999f 5dbd 0a4b 723d
00000120: c6f9 8abd c3ec 783e 24e3 65be c71b 9c3d
00000130: d907 223e a9ff d63d a4d9 a83c ff74 063e
00000140: 979f 973c c44a 5abe 1272 623d 104f 41bd
00000150: e837 2d3d 7f51 91be a57f bfbc 5953 a73d
00000160: d9e1 bbbc 3a30 c13e ed4c c83e 30ad ce3d
00000170: 9f6c 84bd b8a2 673e 32f2 23be ca0a 823e
00000180: 4e10 f03c 9cbe 913e 48a8 bc3d f3c0 e23c
00000190: f869 003c 23c6 f03d f10b 383e f619 783e
000001a0: 1043 8bbd 8ec5 9b3e a270 d53c 8e62 b63a
000001b0: 3cf3 f9bc b37c b73c 35ca 99be 4334 f5bd
000001c0: c931 363d 09c1 3f3c 9cc3 c9be 2289 be3d
000001d0: a0a9 9abd abd7 bcbd 9d1c 923e 9600 fd3d
000001e0: 4081 d8bd 2701 09bd 557b 0a3d f9e7 01be
000001f0: 1e6a 9f3e f877 8ebb f97b 1cbe 0605 c3bc
00000200: 7a60 493e b7e2 2e3e ce8a 1abe 25d7 17bd
00000210: 4e19 6cbe b0ca e0bd cdcb fe3d ae52 193e
00000220: 233d 1b3e 3ff4 fb3d e11d cd3d c34e d63b
00000230: 0ef3 2abe 5e64 e53d ab94 223e 958c 553e
00000240: 4af0 22be f410 1e3e 11bb 933c a903 bb3b
00000250: 3716 563e 70c1 1abe 0cb7 26bd 904d 24be
00000260: 3180 b23d 65a5 933e 96cc 733c 27a0 1abd
00000270: a0b1 d53c 28ea f0bd a8ed 97bd 12c7 b73b
00000280: 7318 283e 64d8 87bd 6f45 973d 67fd c83c
00000290: 77d5 553e 1e16 e33d ef69 da3d 0fc3 0a3e
000002a0: cfa9 bf3d c595 553e 02f9 423d 1e1b ae3d
000002b0: fe5b ddbd a61c 7e3e fb60 e0be 2d0f 20be
000002c0: 3e9e 5d3e 8726 843e e387 423d 08c0 a0bd
000002d0: f33b f53d 7b08 ea3e 728b 46bf 0e7c 2ebd
000002e0: a583 923e 7eb7 18bd 71ad 03bd b53b 8e3d
000002f0: 1dc2 a2bd ee47 453e fc1c ce3c 00fd 833d
00000300: 656b 3fbc b04b 5f3d 6825 003e 4862 d7bd
00000310: 3968 a13e 9a6b 283e cca2 7cbd 4ed7 95bd
00000320: dd1a 1e3d 02bf 543e 32fd 8cbe 6eb0 49be
00000330: 1104 523e 076a 50be 6853 e83c fbda 4fbe
00000340: fe0d ff3b b829 003c f01e 593e 4d79 c33d
00000350: de63 a73d 012b 633e 5097 4cbe ac27 5f3c
00000360: f03a 3b3c fa46 83bd 3b1d 8e3e 9e60 a43e
00000370: 6f6e 85be 4868 043e 5b62 76be 4b8d 693e
00000380: c6b8 b5bd a05e 12be 1252 a6bd e810 62bd
00000390: 2df5 cc3d 2b2c 5abe 108c 6e3b 3eb4 a53e
000003a0: 62f5 df3e 417e 0bbe 4fbb 883e 56dc 3abe
000003b0: 38f0 d0be 3d8f b1bd dfd2 bcbc 1d9f 99be
000003c0: fd63 ed3d 84b3 5abd cafc acbc 664c ec3d
000003d0: 17b8 8abe 9468 b2bc e573 47be eb30 c03c
000003e0: 921e 5e3c 72f7 55bd bddf 0bbf 5825 ccbe
000003f0: bce6 ae3d f4b7 113c 8210 9e3e ba76 313e
0.09478237 -0.3909288 -0.044013735 -0.057748947 -0.035120428 0.23192999 -0.23550542 0.13172372
0.042534143 -0.2474549 -0.07632013 0.036691263 0.149591 -0.26665404 0.3761971 -0.039552685
-0.0007289309 -0.0289228 0.33307537 -0.026771894 -0.18841612 -0.11656251 -0.122371495 0.026794003
-0.30674773 0.14879501 -0.12701003 -0.11609968 -0.18294299 -0.111103006 0.022556694 0.033384547
0.21464816 0.13677676 0.014927608 -0.4596421 0.040041685 -0.014755208 -0.3718945 -0.1790605
-0.11434799 0.15766066 0.024514439 0.025037423 -0.3384983 0.016294759 0.17173801 -0.07085724
0.26910728 0.10303532 -0.5300229 0.012726099 -0.35547233 -0.071357965 -0.05347963 -0.24105124
-0.13494512 -0.16984217 0.4016358 0.3763721 0.03675243 -0.26547626 -0.32076886 0.25014728
0.008796601 0.19899385 0.30379257 -0.07521567 -0.23158655 0.30933234 -0.054107282 0.059153594
-0.06785922 0.24309067 -0.22449929 0.076224856 0.15823306 0.10497982 0.020611592 0.13130568
0.018508716 -0.21317583 0.055284567 -0.04719454 0.042289644 -0.2838249 -0.023376295 0.08170194
-0.022934841 0.37732106 0.3912119 0.10091627 -0.0646603 0.22620666 -0.16010359 0.25398856
0.02930465 0.28465736 0.092117846 0.027679896 0.007837765 0.117565416 0.17973305 0.24228653
-0.067999005 0.3042416 0.026054684 0.001391487 -0.030511491 0.022398328 -0.30037084 -0.11972859
0.044481073 0.011703738 -0.3940705 0.093035 -0.07551885 -0.09220823 0.28537455 0.123536274
-0.105715275 -0.033448365 0.033809025 -0.12686147 0.31135648 -0.0043477975 -0.15281667 -0.023806106
0.19665709 0.17078672 -0.15092012 -0.037070412 -0.23056528 -0.109761596 0.12441216 0.14972946
0.1516004 0.123024456 0.100154646 0.006540151 -0.1669428 0.11200784 0.15877025 0.20854409
-0.15911976 0.15436155 0.018033536 0.0057072234 0.20906912 -0.15112853 -0.04070191 -0.16045213
0.08715857 0.28837124 0.01488032 -0.03775039 0.026085675 -0.11763412 -0.07418376 0.005608448
0.16415577 -0.0663307 0.0738629 0.024534894 0.20882212 0.11088203 0.106647365 0.13550971
0.0935856 0.20857914 0.047600754 0.08501266 -0.10808562 0.24815616 -0.4382399 -0.15630789
0.21642396 0.25810644 0.047492873 -0.07849127 0.11974325 0.45709595 -0.77556527 -0.042598777
0.28616062 -0.037284367 -0.03214783 0.06944982 -0.079471804 0.1926572 0.025160305 0.0644474
-0.01168332 0.05451554 0.1251427 -0.105167925 0.31524828 0.16447297 -0.061678693 -0.07316457
0.038599838 0.20775989 -0.27536923 -0.19696209 0.20509364 -0.20352946 0.028360084 -0.20298378
0.0077836504 0.0078224465 0.21203208 0.09544621 0.08173345 0.22184373 -0.19979596 0.013620298
0.011427626 -0.06410022 0.27756676 0.32104963 -0.26060817 0.12930405 -0.24060957 0.22807805
-0.08873133 -0.14293909 -0.081211224 -0.055191904 0.10007701 -0.21305911 0.0036399402 0.32364076
0.437419 -0.13622381 0.26705405 -0.18248114 -0.40808272 -0.08669899 -0.02304977 -0.30004206
0.11591337 -0.053393856 -0.021116633 0.11538009 -0.27093574 -0.021778382 -0.19477804 0.023460826
0.013557093 -0.052237935 -0.5463827 -0.3987224 0.08540103 0.0088939555 0.3087197 0.17330447

layers.2.bias f4 [128]
00000000: d878 c13a ec55 213d 3e71 8b3c bd8b 5e3d
00000010: f86b e8bc 7c9c 283d 7645 303d 6262 69bd
00000020: a44d 2d3d af06 89bc e8eb 943d d01e 7cbb
00000030: 626b 4ebd d8e9 8a3c 5965 73bc b510 643d
00000040: f76e 5a3d 62e3 823d 5a49 273c e3fc e839
00000050: 4ad3 943c 9b50 7c3c ed6e d43d f26e 1bbb
00000060: ab2f 59bd 5c26 583d 8bcd 183d 88e2 cc3c
00000070: 3009 15bd 93ab 81bd 522c da3d 5150 9d3d
00000080: e59e 75bc 1e5a 3abd ceb7 c43d 9bf3 46bd
00000090: acb7 1c3e c6d9 193c 7b36 bebc 0497 c03c
000000a0: 91b9 ce3d f632 5a3d 66fe b93d 602a 4fbc
000000b0: ad91 90bc 082c 103d 99bb 66bd 58e1 cd3d
000000c0: 6d6d e6bb d0b1 b83b 0b2d 12bc e4ab 3e3b
000000d0: 3d88 083d d470 ac3c 65db 863d 62fb c7bc
000000e0: 9a3d 9d3d 1cd6 f7bc 41bc 75bd 6b21 69bd
000000f0: 7e74 dbbc 70b4 21bb 6422 dbbc 46db 82bd
00000100: 0f6b debc 640b 223d a529 863c f279 603c
00000110: f4b4 e13d 34b9 683c 6fa1 a03c c67a 49bd
00000120: 63c7 333d 791b 7fba 380d 403d a3e1 2e3d
00000130: d143 e9bc 3728 44bd acc8 b73c c048 80bb
00000140: 444c 10bd 2ca6 86bd 7d66 fe3c 176a 4ebc
00000150: 5b98 2ebd 802e 9c3d bd11 893d 92c6 2dbd
00000160: 00fc 873c d127 843d c0fd 72bc d71f 3fbd
00000170: 36cf 22bd 7ff9 5cbd d7d3 d43c 0837 fd3d
00000180: 40f3 4e3d e1b2 8a3d 9bf9 1b3b 246b a83d
00000190: 4b73 543d e78e a53d bcfb 1abc 5ad9 9a3c
000001a0: a8b2 1d3d 660c ca3d 337c 423d 5ee2 8d3d
000001b0: be87 903d 271a 773d b8ac ab3d 6a1d f63b
000001c0: 494c 233d 2257 813d b076 8a3d d90a 6abd
000001d0: a566 68bd 60ad 773d 3a5f c63c 9da4 373c
000001e0: 241e 4e3d b2a1 333c a2c2 39bc faa2 01bb
000001f0: 759a 8d3c cf20 803d 4a55 78bd faa8 13bd
0.0014760746 0.039388582 0.017021772 0.054332484 -0.028371796 0.04116486 0.043034993 -0.05697859
0.042310372 -0.01672682 0.07271558 -0.0038470514 -0.050395377 0.016957209 -0.014855706 0.055679996
0.05332848 0.06391026 0.0102103595 0.00044438904 0.018167157 0.015400077 0.1037272 -0.0023717252
-0.053023975 0.052770957 0.037305396 0.025010362 -0.036385715 -0.06331553 0.10652985 0.07681335
-0.014991497 -0.0454961 0.096053705 -0.048572164 0.1530444 0.0093903 -0.023219338 0.02350951
0.10093988 0.053271256 0.09081726 -0.01264438 -0.017647589 0.03519824 -0.05633125 0.100527465
-0.0070320875 0.0056364313 -0.008921872 0.0029094154 0.033333052 0.021049894 0.06584815 -0.02441186
0.07677765 -0.030253462 -0.059993986 -0.056916635 -0.026788946 -0.00246742 -0.026749797 -0.06389479
-0.027150659 0.039561644 0.01637728 0.013700949 0.11020842 0.014204312 0.019608228 -0.04918935
0.043891322 -0.0009731572 0.046887606 0.042695653 -0.02847472 -0.047889914 0.022434555 -0.0039149225
-0.035228983 -0.065746635 0.03105473 -0.012598536 -0.042625766 0.07626057 0.066928364 -0.0424257
0.016599655 0.06452907 -0.0148310065 -0.046661224 -0.039748393 -0.053948876 0.02597992 0.12364012
0.05052495 0.067724 0.00237999 0.082235605 0.051867764 0.08083897 -0.009459432 0.01890247
0.038500458 0.09865646 0.047481727 0.06927942 0.07057141 0.060327675 0.08382553 0.0075108306
0.039867673 0.063154474 0.06760919 -0.05713925 -0.056738514 0.060468078 0.02421533 0.01120868
0.050321713 0.010963844 -0.011337908 -0.001978098 0.017285565 0.06256258 -0.060628213 -0.03604982

layers.4.weight f4 [4, 128]
00000000: d7c8 4b3d 312b d53e 7d48 1ebe 3dfb 32bf
00000010: e7fe babe 0ddc 68be 2e90 8dbe 1704 143e
00000020: ee57 bebe a23a 04be 099d 373e 6b7d 68be
00000030: 48b0 90bd 1396 73bd 4c5a 773c cdcf 78be
00000040: 134c eabb 4c38 f03e 8b30 a83e e353 563d
00000050: 0b15 e53d 5dda 853e d3a4 94be b131 9abf
00000060: 711b 373e b392 a4bc e09d 6ebf ee05 9bbe
00000070: 8e2a 383e 48ca 1cbe 9f1a 20be 7a8c a63e
00000080: b26e 02bf 8a1f c4be 53ce 9bbc f6c8 96bd
00000090: a5e0 fabd cff2 29be ed6b a73e 87f3 a13e
000000a0: 113b 3dbe bddf 34bf b478 75be a3c1 90bc
000000b0: 74b9 e43e b1a7 d03e c53d 453e 2da5 9cbd
000000c0: 7621 bdbd 0531 0d3e 27be b5bd bb8b 3abd
000000d0: 8f02 6dbd 0ba9 89be 59bc 06be 22fa 19be
000000e0: 8412 88be a9c4 57be b92c 683d 16c7 eebe
000000f0: 9f6a 2ebd 1006 363e 68e7 903c 6b17 223e
00000100: 041e afbe 59e5 a6be 1d73 8bbe c830 9bbe
00000110: 1d55 653e bac2 a53e bdfb 893d 9567 4f3d
00000120: 80c0 973e e578 8b3e 039f 5e3e df9e 92bd
00000130: f7e8 8dbe cdc1 d0be dd4f 8c3e e457 d1be
00000140: dde7 b43d 752a e4bd 1a6b 56bf 412b 3ebe
00000150: adc0 733e 3aeb 573e da51 0d3e a2df 3bbd
00000160: de7d 583e de95 b7be 51bc 2c3e d021 923e
00000170: ae4f 813e 30f9 e13d 93f0 ed3c d36e d63e
00000180: 68bc f4be 660e 023d b497 f43d 345b 7dbe
00000190: 481c a4be e714 8abe e845 2ebe a491 8cbd
000001a0: be94 0c3f b6dc 573d 5853 0bbf 2dde dc3e
000001b0: 4d02 253d c5db c1be 9c5f 943e 55fa f9bd
000001c0: 2701 adbe 0e63 48bd 2d1a 183d 20e2 c63e
000001d0: 3e61 e4be 02f6 42bd bfa1 55be beb8 da3d
000001e0: 842d e03e 56f5 883e ffad 823e 2f18 c4bd
000001f0: 5479 8fbe 6182 423e 657a 853e b294 833e
00000200: a5f3 153e 7b30 c83e 9d53 50be 5971 473d
00000210: c7e1 883e 447e a33c 6cf8 4e3c 7dc8 213e
00000220: 21c2 af3d a09f 82bf e6c6 07bf 3ee5 d13d
00000230: d293 a4bd 7014 423e 73c6 c0be 96a6 e03d
00000240: 9e45 b53d 372c 7cbe bf65 42bf ce90 df3c
00000250: 202d 0e3e 1228 e8be 9c32 8abd 43a2 063e
00000260: d676 e5bf b839 4d3e c33b 0a3e a581 c5bd
00000270: 5943 b5bd 59f5 33bf 8602 833e 08cf e13c
00000280: 1abc 67bf ca64 88bd 8a1e 1cbe 4e2f 84bf
00000290: d251 8c3e dddb 93be 7053 bbbd a2b5 b73d
000002a0: da90 d03d 61ee fc3e 9ca8 4cbe 4dc6 56bd
000002b0: 2737 13bf 8640 943d 00e7 d6be aa2c f13e
000002c0: cccd c23d 1f6a 90be bbd3 6dbf f0f6 58be
000002d0: c9ef 003e 60bf 90bf ccae e93e 03a4 403e
000002e0: 6fe1 acbd dde4 b1bd 025f 233c 33fe 2abf
000002f0: a1c0 ce3c 3e99 54bf e53c 4ebe f2f8 4abe
00000300: f665 6d3e df79 3bbd 0488 e0bd 6805 89be
00000310: 6bda 1f3e 98e9 833e 2c9f e0bd ed85 4a3d
00000320: 78d0 383e 6455 bebf 7e74 da3e 5265 0e3e
00000330: 20f1 353e 39bf 673e c941 4a3e f8f2 67bf
00000340: 3dfa 983b 6d4d 25be aeea 183c d63b fe3d
00000350: 7318 c4bd b1b7 8dbe 9eda 6e3e bb85 b6bf
00000360: 7987 773e b17a 81be 2239 1cbf 5894 81bd
00000370: a470 97bf 5a0e 4f3e b0ac 88bf 271d a03e
00000380: 337e a53d 2767 443e 4297 a4bf 1fe2 c2bd
00000390: 8d54 51be ca4f 27be a877 713e 9f06 34be
000003a0: a6d0 45bd 31fb 8b3e 336d 91be 33cb 27be
000003b0: 2f65 15bf 49dc e6bd 6b81 3b3e 4c08 bebe
000003c0: 3483 95be fbf5 ef3e 8854 ce3e d4be e53e
000003d0: 4918 143e 6494 10bd cfd9 f4bd 8c50 9b3e
000003e0: 3a4e 28be 2975 4a3e 447d b3bf 9a6b dbbe
000003f0: 8835 ce3e b65a d23d b5ff f2bd ebd8 adbe
0.049752083 0.41634515 -0.1545734 -0.6991461 -0.365226 -0.22740193 -0.27649063 0.14454685
-0.3717646 -0.12912992 0.17930998 -0.22704093 -0.07064873 -0.059469294 0.015097212 -0.2429802
-0.007150182 0.4691795 0.32849535 0.052326094 0.11185654 0.2614316 -0.29032 -1.2046415
0.17881562 -0.020089483 -0.9320965 -0.30277961 0.17984983 -0.15311539 -0.15635155 0.3252905
-0.5095016 -0.38305312 -0.019019281 -0.07362549 -0.12249879 -0.1659653 0.32699528 0.3163111
-0.18479563 -0.706539 -0.23971826 -0.017670458 0.4467274 0.40752938 0.19261844 -0.07648692
-0.09234898 0.1378823 -0.08874159 -0.045543414 -0.05786377 -0.26886782 -0.13157786 -0.15036824
-0.26576626 -0.21071114 0.056683276 -0.46636266 -0.04258215 0.1777575 0.017688468 0.15829246
-0.34202588 -0.32596853 -0.27236262 -0.30310655 0.2239575 0.32375127 0.067374684 0.050635893
0.29639053 0.27240673 0.21740346 -0.071592085 -0.277168 -0.40772858 0.2740468 -0.40887368
0.08833287 -0.111409105 -0.83757174 -0.18571188 0.23803969 0.21085826 0.13800755 -0.04586757
0.21141765 -0.35856527 0.16868712 0.28541422 0.25256103 0.11033857 0.029045379 0.41881427
-0.47799993 0.031752013 0.119429976 -0.24741822 -0.32052827 -0.26969072 -0.17018855 -0.06863716
0.5491446 0.05270072 -0.5442405 0.43138257 0.040285397 -0.37862983 0.28979194 -0.1220595
-0.33789942 -0.04892259 0.03713434 0.38844395 -0.4460544 -0.047597893 -0.20862482 0.10679768
0.43784726 0.26749676 0.25523373 -0.09574925 -0.28022254 0.18995048 0.26069942 0.25699383
0.14643724 0.39099488 -0.20344396 0.04869208 0.26734754 0.01995767 0.012632471 0.15799136
0.08581949 -1.0204964 -0.5303787 0.102488026 -0.08036007 0.18953109 -0.37651405 0.10969274
0.08851169 -0.24626242 -0.759365 0.027290728 0.13884401 -0.4534307 -0.06747934 0.13147835
-1.7926891 0.20041549 0.1349936 -0.09643868 -0.08850736 -0.70296246 0.25587863 0.02756454
-0.90521395 -0.06659849 -0.15246025 -1.0326936 0.27406174 -0.2887868 -0.09146774 0.089701906
0.10183878 0.4940062 -0.19986194 -0.052435208 -0.5750603 0.07238869 -0.41973114 0.47104388
0.09511909 -0.28205964 -0.929012 -0.21187949 0.12591471 -1.1308403 0.45641172 0.18812566
-0.084414355 -0.0868623 0.009971382 -0.6679413 0.025238337 -0.8304633 -0.20140417 -0.19821528
0.23183426 -0.045770522 -0.10963443 -0.26761937 0.15610664 0.25764155 -0.109678596 0.049444128
0.18048275 -1.4869809 0.42667 0.13905838 0.17767763 0.2263154 0.19751658 -0.90605116
0.0046685026 -0.16142817 0.009333296 0.124137565 -0.09574976 -0.27679208 0.23325583 -1.4259561
0.24172772 -0.2528892 -0.6102468 -0.063271224 -1.183125 0.20220318 -1.06777 0.3127224
0.08080711 0.19179974 -1.285866 -0.095157854 -0.2044241 -0.16339031 0.23580801 -0.17580651
-0.048294686 0.2734008 -0.28403625 -0.16386108 -0.5835752 -0.11272485 0.18311088 -0.37115705
-0.29201663 0.46867356 0.40298867 0.44872153 0.14462389 -0.035297766 -0.11955606 0.3033489
-0.16436091 0.19771256 -1.4022603 -0.4285553 0.40275216 0.10271208 -0.118651785 -0.33954558

layers.4.bias f4 [4]
00000000: 6987 cd3c fadb 303c 1c53 1cbd 6ef0 ed3c
0.025088983 0.010794634 -0.038165197 0.02904531
