models/dqn_[256,128]_best_model_1.94.pt (torch, 341463 bytes, 6 tensors)

layers.0.weight f4 [256, 200]
000000 63 0c 3e 3d 3d ca 3b 3e 2e 26 b1 3d 76 07 86 3d
       0.04639853 0.18338867 0.0864986 0.06544392
000010 28 17 1e 3d 7f 5b ec bb 56 67 08 be 6a 89 c9 3d
       0.038596302 -0.0072130556 -0.1332067 0.09840663
000020 2e df 20 3e 50 2e 93 bd b5 99 6f be d8 8c e9 be
       0.15710136 -0.07186568 -0.23398478 -0.45615268
000030 6e 6b 91 3d 4e 74 e4 3d c2 b0 24 be c3 49 40 be
       0.07100569 0.11154996 -0.16083053 -0.18778138
000040 bc c4 1f be e6 72 83 3a e4 24 f1 bc aa 0f 90 be
       -0.15602392 0.0010028749 -0.029436536 -0.2813695
000050 8f 71 05 bd 07 dd 07 bc a5 45 eb bc fd 21 40 3d
       -0.032579 -0.008292443 -0.028719733 0.046907414
000060 44 a0 64 bd 52 ad 97 3d ab ca b3 bb 78 e9 8f bd
       -0.055816904 0.07406105 -0.0054868064 -0.070269525
000070 1d 4d 97 3d 18 72 14 be 59 22 39 3d b5 cd a0 bd
       0.07387755 -0.14496648 0.045198772 -0.078517355
000080 d5 58 04 3d 0a 28 c7 3d 5c 52 ff bc fa df 93 3d
       0.03231128 0.09724434 -0.031167202 0.072204545
000090 ec a6 e5 bc 6a 1e f2 3d 26 3e 2d bd 8e c1 b2 bd
       -0.028033696 0.11822207 -0.042295597 -0.08728324
0000a0 2c c1 09 bd ee 21 52 bd 1b fb af 3b 0f 0f 57 3d
       -0.03363149 -0.05130189 0.0053705103 0.052504595
0000b0 e7 cb 47 3d cf 53 8e bd 99 c8 57 3d 94 11 02 3d
       0.04877844 -0.06949579 0.05268154 0.031755045
0000c0 3e 74 2a 3c df 8d 58 bd 4c e2 06 be 34 7f 1c 3d
       0.010403691 -0.052869674 -0.13172263 0.038207248
0000d0 cb 46 88 3b d0 99 12 3d a0 7a 4f 3d d7 f8 84 3d
       0.00415883 0.03579122 0.050654054 0.06492775
0000e0 81 4c 8c 3d e8 b4 07 3d c0 d1 8e 3d bd 1f a5 3c
       0.068505295 0.03313151 0.069736004 0.020156736
0000f0 21 23 a5 3d 7d dd 3a be b9 e8 a4 bd 8e 94 d3 3d
       0.08063341 -0.18248554 -0.08052201 0.10331069
000100 fc 4d 8d 3c 43 94 1d bc 42 31 20 3d 43 4a 00 be
       0.0172491 -0.009617868 0.039109476 -0.12528329
000110 2f 6d 38 bd bb e2 a5 bd 47 20 03 3e a8 f6 1c 3d
       -0.045026 -0.08099886 0.12805282 0.038321167
000120 16 b4 5f 3e 0e 33 42 3b fa 12 d6 3b c5 98 62 bd
       0.21846041 0.0029632482 0.006533024 -0.055321474
000130 08 90 79 bd 2f 7b 3d 3d d2 b8 1b bd 0f 13 1a 3d
       -0.060928375 0.046260055 -0.038018055 0.037615832
000140 bb c2 35 3d 63 0a 97 3b 40 83 30 3e f3 ba 6c 3d
       0.044375163 0.0046093925 0.17237568 0.057795476
000150 6e 72 e6 bc 5d 1d 7b bc 26 e5 44 be 86 cf fb bd
       -0.028130736 -0.015326825 -0.19228038 -0.12295441
000160 1a 08 34 3e 65 79 95 3d 69 d0 d3 bd f9 4c 9e be
       0.17581216 0.07298545 -0.103424855 -0.309181
000170 a5 06 2c 3d 06 21 72 3e ca ef 0f bc 9a 90 b3 3c
       0.041998524 0.2364541 -0.0087851975 0.021919537
000180 04 44 e5 3c 30 89 83 bd bd 11 bd 3d f7 53 0c 3c
       0.027986534 -0.06422651 0.09231899 0.008564941
000190 ef dc 25 bd a6 b3 90 3c a7 c6 a6 bb 32 3d 52 bd
       -0.0404939 0.017663788 -0.005089599 -0.05132789
0001a0 ae 66 d9 3a 70 d7 45 bd d0 b8 75 bd 2b 7d 1f bd
       0.0016586387 -0.04830116 -0.059990704 -0.03893773
0001b0 0f 7d 7d bd 47 6b 38 bd 43 c2 90 3d ee d0 5a 3c
       -0.061886843 -0.045024183 0.070683025 0.013355477
0001c0 53 81 b2 3c 2f 11 87 bd d6 38 3e bd 8a cf c0 bc
       0.021790182 -0.065950744 -0.04644092 -0.023536462
0001d0 e0 28 35 3c 3a da 7e bd 9d 96 f9 bc 98 64 2d bd
       0.011057109 -0.062219836 -0.030467326 -0.04233226
0001e0 f5 79 4d 39 93 8b d7 bc c4 8f a0 bb 36 43 44 bd
       0.00019595756 -0.026311671 -0.0048999507 -0.04791566
0001f0 21 cd 46 bd 5c ca 1c bd b4 28 6b 3d a5 99 64 bd
       -0.04853547 -0.038278922 0.057411864 -0.05581059
000200 b0 1a 60 3c 32 98 c6 3c bd 80 29 bd 48 06 3f bd
       0.013678238 0.024242494 -0.04138254 -0.04663685
000210 0a 20 13 3d c4 da 80 3d 02 26 ef 3c 62 5e 97 bd
       0.035919227 0.06291726 0.029192928 -0.07391049
000220 71 95 1f 3d a2 83 b6 bd 3a 01 1f bc 73 a7 33 bd
       0.038960878 -0.08911826 -0.009704882 -0.043860864
000230 c6 87 19 3d a6 17 be bd a0 7f 53 3d 9e 9f b3 3d
       0.037483 -0.09281854 0.051635385 0.08770679
000240 22 64 f7 bd b3 3d bf 3d bc 86 26 3d 2d d4 49 3e
       -0.12079646 0.0933794 0.040655836 0.19709845
000250 4d d5 cf 3c 0b b8 05 3c 54 d3 72 bd b6 96 64 bc
       0.025370264 0.008161555 -0.05928357 -0.013951948
000260 c9 e9 fd bb 8a 1b c2 bc 31 c5 0e 3e 70 9f b9 3a
       -0.0077488166 -0.023694772 0.1394241 0.0014161896
000270 a4 14 f0 3c c7 d0 a3 3a 52 c3 ca 3d 27 de 1b 3d
       0.029306717 0.0012498134 0.09900536 0.038053658
000280 81 65 00 be ce 8e 3c 3d f7 6d 4c bd bc 25 53 3d
       -0.1253872 0.046034627 -0.04990956 0.05154966
000290 5b b5 4e bd d0 0e 57 bd ad d0 d2 3c 74 bc ad 3d
       -0.050465923 -0.05250436 0.02573427 0.0848321
0002a0 ee 0e f3 3c 37 2a 82 3d 6a ef 20 bc 05 c9 3e 3b
       0.029670205 0.06355708 -0.009822706 0.0029111516
0002b0 81 4f bd 3d 51 e3 e1 bd d4 8c dc bc ac f4 1c 3d
       0.0924368 -0.11029685 -0.02692262 0.038319275
0002c0 11 c9 a7 bd 67 95 ce 3c 0f 20 e2 3c 6f 60 92 bb
       -0.08192647 0.025217725 0.027603177 -0.004467062
0002d0 ab 52 9c bd 8e b1 a9 3d a7 c3 80 3d 0e b8 0f bd
       -0.07632955 0.08285819 0.06287318 -0.035087638
0002e0 49 aa ad bb f8 09 c1 3c 26 99 5d 3d 65 43 49 3d
       -0.0052998406 0.023564324 0.05410113 0.049136538
0002f0 4b d1 41 3d af 1e c4 3d ae 98 14 bd 12 93 c4 bc
       0.047318738 0.09576165 -0.03627842 -0.02399591
000300 36 a6 81 bb 17 8a 79 3d b9 af 62 bd 17 52 7f bd
       -0.0039565815 0.06092271 -0.055343363 -0.062334146
000310 5a 18 0a 3e 12 cc 04 3c ae 66 aa 3d 67 af 8f bc
       0.13485852 0.008105295 0.08320366 -0.017539693
000320 3a de f1 3c f6 fd a0 3b 9c 14 c0 3d 9b e5 aa 3d
       0.029524911 0.004913087 0.09378931 0.08344575
000330 84 91 3b 3d 1b ce e1 bd 04 16 59 3b c3 f7 94 bb
       0.04579307 -0.110256396 0.0033124695 -0.004546137
000340 60 75 b9 3d c3 e2 09 be 87 66 9d be 3f 5c 51 3e
       0.09055591 -0.13465409 -0.30742285 0.20445345
000350 d6 f1 48 3d e7 af 99 bc 3e 71 a8 be 5e 4b 37 be
       0.049058758 -0.018760635 -0.32898897 -0.17899844
000360 82 65 2e 3e c4 3e 71 be 87 e2 36 bd 56 7a b1 be
       0.1703091 -0.235591 -0.044649627 -0.34663647
000370 1c 77 3b bd df 65 53 3d 1a b2 03 bd d9 3e 68 bc
       -0.04576789 0.051610824 -0.032152273 -0.01417514
000380 24 10 90 bd ca de 00 3d 5c e2 87 3d 99 25 09 3d
       -0.070343286 0.03146247 0.066349715 0.03348312
000390 b0 1b 0a 3d 56 69 1e bd 6f 5a ca bd b0 bf da 3c
       0.03371781 -0.038674675 -0.0988053 0.026702732
0003a0 6c 91 02 3b ef 70 20 3e 5d e8 bc bb 96 dc dc 3d
       0.0019923104 0.15668081 -0.0057650045 0.10784261
0003b0 54 0d d0 bd 27 22 da 3c af 6f 86 bd 5b e4 82 bd
       -0.10158792 0.026627613 -0.06564271 -0.063912116
0003c0 4d 0e d5 3c 8d 60 0a 3b 42 b1 0d 3c 01 79 10 bd
       0.026007796 0.0021114678 0.008648219 -0.03527165
0003d0 58 fa 51 bd e3 c0 28 bc 86 fb bd bc 75 e5 2a 3d
       -0.051264137 -0.010299894 -0.023191225 0.041722734
0003e0 1b d3 2b bd 3c cd 32 3d d4 ca 9d 3b 7a bb 7e be
       -0.041949373 0.043652758 0.0048154388 -0.24876204
0003f0 3e 29 d3 bc 54 8b 6b bd a5 26 4a bc ab cb 00 be
       -0.025776502 -0.05750592 -0.012338315 -0.12577693

layers.0.bias f4 [256]
000000 80 a2 ec bc 4e 71 0e bd d9 f6 32 3d 9d 56 77 3c
       -0.02888608 -0.034776025 0.043692444 0.015096334
000010 9d c9 cf bc 4f 5b 9b bb e4 af 15 3d d2 55 66 bd
       -0.025364691 -0.0047411094 0.036544695 -0.05623419
000020 f3 d6 61 bd 80 30 38 3d e5 38 4a bd a1 07 87 3c
       -0.055136632 0.04496813 -0.049370665 0.01648313
000030 2c c8 3e 3b 7c a1 25 bd 3e 7b 1a 3d 65 e4 1d bd
       0.002911101 -0.040437207 0.03771519 -0.038547892
000040 6f ad 4c 3c 5d be a9 bc 7a da 9b 3c 5d d6 c3 3d
       0.012492522 -0.020720655 0.019025076 0.09562371
000050 b4 67 99 3d 7f 23 15 bd 86 da 65 bc 06 81 a5 3d
       0.07490483 -0.036410805 -0.014029151 0.0808125
000060 f1 98 bc bc 00 84 77 3c 86 23 63 3d d2 dd ab bc
       -0.023022147 0.015107155 0.0554538 -0.020979796
000070 7b ff 94 bd 89 a7 83 3d ec 6f 1d bd e2 fb 5a bd
       -0.072752915 0.06428439 -0.038436815 -0.05346287
000080 7d e9 a3 3c 79 05 50 3d d3 6c 89 bd 37 12 06 bd
       0.020008797 0.05078647 -0.0671021 -0.032732215
000090 da 70 85 3c a8 87 3a 3d 2d d4 5e bd 7e c2 ac 3b
       0.016289163 0.045539528 -0.054401565 0.0052722087
0000a0 1e af 57 bc 97 5d 3d bd 03 1b 06 3e 03 02 18 bd
       -0.01316431 -0.046231832 0.13096242 -0.037111294
0000b0 ca 23 01 3d 14 64 11 3d 2f e5 15 bd 8f 59 03 bd
       0.03152827 0.035495833 -0.03659552 -0.03206783
0000c0 b7 d2 41 bd d5 85 04 3d 20 45 b2 bb a7 0e 1b bd
       -0.047320094 0.032354195 -0.0054403692 -0.03785577
0000d0 6f 31 d1 3c cb 5d d4 3b 84 95 0c bd 84 26 4c bd
       0.025536267 0.0064809076 -0.034322277 -0.04984142
0000e0 33 7c 86 bc 9c 94 bd 3c 62 3e 41 bd 9f 9e 66 3d
       -0.016416645 0.023142152 -0.047178634 0.056303617
0000f0 57 8c ae 3b 13 dc aa 3d 7e d4 9b 3d 2c ec 4b 3d
       0.0053267884 0.08342757 0.07608889 0.049785778
000100 25 3d 9a 3c 5d 66 78 bb e3 1c 34 bc 98 61 72 bc
       0.018827984 -0.003790281 -0.010993215 -0.014793776
000110 d2 6e 1b 3d eb 82 ef 3c dd 94 24 bd de 67 49 3c
       0.037947483 0.029237231 -0.04018103 0.01229283
000120 16 28 9f bd 41 76 93 bd 33 95 c0 3d b1 ef 6e 3b
       -0.07771318 -0.072002895 0.094034575 0.0036458785
000130 0d d5 61 3c 03 e1 de bc 91 cb 82 3d c7 24 01 3c
       0.013783705 -0.027206903 0.063864835 0.007882304
000140 b1 e9 0b 3d 50 63 14 bd 0c 74 5b bc 64 0a 56 bd
       0.034158412 -0.036227524 -0.013394367 -0.052256003
000150 bd 46 a2 bd 45 7e 33 3d 8a 0e b4 3d af 06 fb 3c
       -0.079236485 0.043821592 0.087918356 0.030642835
000160 0f 01 a8 bc d4 74 68 bd 7e 30 01 bd e0 ff dd 3c
       -0.020508317 -0.05675204 -0.031540386 0.02709955
000170 a7 a4 d0 3c d8 b0 86 bc df 9a dd 3c 62 9a b0 3d
       0.025469137 -0.016441748 0.027051387 0.08623196
000180 ab 72 28 bd 13 08 8b 3d 81 1a 73 bc 15 20 b8 3d
       -0.04112498 0.067886494 -0.014837862 0.08990494
000190 09 95 b0 bd 09 71 d9 3d c3 b1 3d 3d a2 e5 07 3d
       -0.08622176 0.10617263 0.046312105 0.03317798
0001a0 a9 9c 14 3b 90 cc 0b bd 60 81 1c 3d 8a da 1c 3d
       0.0022676385 -0.034130633 0.03820932 0.038294353
0001b0 dc 57 80 3d 74 3d 30 3d 0b 31 7e bd 9a f9 24 3d
       0.06266758 0.043027356 -0.06205849 0.0402771
0001c0 e3 03 18 3b f5 21 88 3c cb 56 e9 b8 53 82 3b 3c
       0.0023195676 0.016617754 -0.00011126472 0.011444646
0001d0 6e 33 88 3d 44 d2 83 3c 8d 04 9d 3c d0 85 d3 bc
       0.066504344 0.016091473 0.019167209 -0.025820643
0001e0 54 a7 a0 3c 0a a8 77 bd 5f 85 26 3c d9 37 7c 3d
       0.019611038 -0.06046299 0.010163634 0.061576698
0001f0 6e 7e e8 ba 35 80 31 bc e0 0b a8 3d 86 d6 97 bc
       -0.0017737874 -0.01083379 0.0820539 -0.01853491
000200 de 92 80 3c 1e 8d bb bc 96 2f 1d 3d f7 4c ed 3c
       0.015695032 -0.022894438 0.03837546 0.028967364
000210 ef f5 82 bd c0 48 4d bd 76 8d 04 3d 10 3e a1 bd
       -0.06394564 -0.050118208 0.03236147 -0.078731656
000220 88 e2 dc 3d 50 90 38 bd 6a f1 31 bd 65 4b e4 bc
       0.10785395 -0.045059502 -0.04344312 -0.027867982
000230 d8 2d 9b bd 6a 30 a8 bc 17 15 92 3c e7 83 bf bb
       -0.075771034 -0.020530898 0.017832322 -0.0058445814
000240 c9 7f 46 3d 7f 42 f7 3c 9a 52 15 3c 37 34 05 3e
       0.04846171 0.030183075 0.009113932 0.130082
000250 4e d0 56 3d b9 d9 cd bc 09 a7 99 3c 45 e1 31 3c
       0.05244475 -0.025128232 0.018756406 0.010856931
000260 f1 70 85 bd a6 12 b4 bc 91 97 1b 3b f4 03 b7 bc
       -0.065156825 -0.021981549 0.0023741464 -0.022340752
000270 aa af 70 bd da 55 85 bc 56 04 e5 bc 2d d2 15 bc
       -0.058761276 -0.016276289 -0.02795617 -0.009144348
000280 6a d1 84 bc 31 11 9d 3d 12 39 57 3c 67 5d cc bc
       -0.016213138 0.076692946 0.013136165 -0.024946881
000290 3f 51 8a bd 02 8e d0 bc a2 8b 33 3c aa 57 43 bc
       -0.06753778 -0.02545834 0.010958584 -0.011922756
0002a0 8f fd 7e 3d c7 1e 80 3d 2b 35 10 3c 09 56 8d bd
       0.06225353 0.0625587 0.008801739 -0.069011755
0002b0 c9 e7 10 3d 0f 2a 2c bd ce b1 10 3d b7 42 8d 3c
       0.035377298 -0.042032298 0.035325818 0.017243726
0002c0 c8 32 71 bd 28 59 f1 3c d7 74 bf b9 b6 04 51 bd
       -0.05888632 0.029461458 -0.0003651741 -0.051029883
0002d0 7f 14 69 bd 60 02 8b bd c4 9d 3b 3c 20 10 06 bd
       -0.056904312 -0.06787562 0.0114511885 -0.03273022
0002e0 a6 b1 6d 3d f6 15 f0 3d 09 06 d2 3d 11 2c 52 3d
       0.058030747 0.11722939 0.10255057 0.051311556
0002f0 5c ec 8f 3d ee 5c ae bc 52 5c 99 3a 65 a6 03 bd
       0.07027504 -0.021284547 0.0011700487 -0.032141108
000300 30 99 2d 3d a7 5f df 3c ad 08 06 bd 43 02 c1 3d
       0.04238242 0.02726729 -0.032723118 0.094242595
000310 b9 b9 a3 3a 6f 53 33 3e 7c 70 f0 bc 69 ad d9 3b
       0.0012491263 0.17512296 -0.029350512 0.0066429866
000320 d0 ee e9 3c 90 d6 c9 3c 66 08 c2 bd bb 96 b3 3c
       0.028556257 0.024638444 -0.09474258 0.02192246
000330 0a 3c 67 bc ca 0a 23 bd 87 70 fe 39 a8 44 59 bd
       -0.0141134355 -0.03980521 0.00048530495 -0.05304399
000340 16 7d 4a bd 20 78 b9 bc 87 ac 0d bc f2 eb 1b bd
       -0.049435697 -0.022640288 -0.008647091 -0.03806681
000350 2f 3c 0d 3d 8d 99 a5 bd 4f fa 58 bd 3b c9 b3 3d
       0.034481224 -0.08085928 -0.052973088 0.08778616
000360 cf b3 4e 3c 85 93 aa bb 80 48 9d 3d bb 97 3b 3d
       0.012616112 -0.005205574 0.07679844 0.045799
000370 44 0e fc 3d 6f 56 24 3d 3b 9b c4 bd 75 5c 6c 3c
       0.123074085 0.040121492 -0.0959992 0.01442634
000380 33 84 4e 3d 6a ff 71 3b f7 8a 9d bd 0e db 72 3d
       0.050419044 0.003692592 -0.07692521 0.059290938
000390 a7 34 39 3d 8d 66 53 bc dd 28 29 3d 02 55 28 bc
       0.04521623 -0.012902868 0.041298736 -0.010274174
0003a0 30 64 e5 3d 04 72 08 3e e2 c5 65 3d f4 e3 58 3d
       0.1120075 0.13324744 0.05609692 0.052951768
0003b0 4d 60 fd 3b da d6 0a 3d 1f 26 51 bc 9b 4d d4 3c
       0.007732427 0.033896305 -0.012765436 0.025915911
0003c0 36 1f ce 3c 98 14 90 3d 36 49 07 bb 46 a2 82 bc
       0.025161367 0.07035178 -0.0020643002 -0.015946519
0003d0 c3 07 2b 3d 3b 50 af 3b 29 37 81 bd 09 0f b1 3d
       0.04175545 0.0053501404 -0.06309349 0.08645446
0003e0 82 47 72 bd aa 0a 92 bc 5c e9 c0 bc a2 3a 49 bc
       -0.059150226 -0.01782735 -0.023548774 -0.012282046
0003f0 5a 1f 7b 3b ea 52 12 bc 03 49 b3 3d d4 e4 21 bc
       0.0038318248 -0.008930901 0.0875416 -0.009881217

layers.2.weight f4 [128, 256]
000000 8e 68 04 3e 53 ad d7 bd 2f 93 03 bd 77 c7 6c 3e
       0.1293051 -0.10531106 -0.032122787 0.23122965
000010 0b f6 b5 3b 53 68 76 3d da 1c 00 3e 01 f5 92 bd
       0.0055530122 0.060158085 0.12511006 -0.07175637
000020 24 c0 5a 3e ba b7 7a bc d9 8b 59 bd aa ce cd 3d
       0.21362358 -0.015302593 -0.053111885 0.10049184
000030 5a f1 b8 3b 6b ae aa 3b 16 0c 09 bc 23 d9 25 3d
       0.0056440057 0.0052087805 -0.008364698 0.04049028
000040 af a5 a1 3e 2a 9c 3d 3d f5 04 2b 3d 5c c0 dd 3b
       0.3157172 0.046291508 0.041752774 0.006767316
000050 c5 5e 52 bd 82 a3 39 3e 45 5e 42 3d f6 18 6e 3d
       -0.05135991 0.1812878 0.047453184 0.058129273
000060 5e f6 f3 bd e5 3d 3a be f6 98 45 3d 16 59 c7 3d
       -0.11912225 -0.18187673 0.048241578 0.09733789
000070 58 72 0b bd a5 4e ae bc 09 93 04 3e 6b 90 1a 3e
       -0.034044594 -0.021277735 0.12946714 0.15094154
000080 39 3a 30 bc e1 c3 08 bc da 12 52 bc 5e 9b 0d 3e
       -0.010756069 -0.008347482 -0.012821877 0.13828799
000090 03 e4 1a 3d 6a ae 08 3c 15 0c e2 3c fc 91 f0 3d
       0.037815105 0.008342365 0.027593652 0.11746594
0000a0 e6 ce 01 be 07 8a 35 be c5 30 f0 ba 82 f4 52 3d
       -0.12676582 -0.17728435 -0.0018325081 0.051502712
0000b0 d0 56 c5 bb c1 5b 78 3c 5d a0 5b 3e 39 41 29 3e
       -0.0060223117 0.015158595 0.21447892 0.16528787
0000c0 2d bf 41 3e 7c 71 57 3d b0 1d 4d 3d f7 1e 63 bd
       0.18920584 0.05259846 0.05007714 -0.055449452
0000d0 0d 57 c2 3d ee e2 87 bd bf 56 e7 bd 48 be 87 3d
       0.0948926 -0.0663508 -0.112958424 0.0662809
0000e0 51 13 6a be 32 19 13 3e 1e 0b 04 bd 0a 3d 80 bd
       -0.22858931 0.1436508 -0.032237165 -0.06261642
0000f0 b3 01 88 bd 05 75 e5 bd d8 dd 81 3d bf 4f d0 3c
       -0.06640949 -0.1120396 0.063411415 0.02542865
000100 24 f8 92 bc 7c fd 5e 3a e6 32 37 be fd d5 40 3d
       -0.017940588 0.00085064 -0.1789051 0.047079075
000110 00 1b 6c be e1 26 a2 3d 41 ef 87 3d 89 19 a1 3e
       -0.23057175 0.07917572 0.06637431 0.31464794
000120 ef 34 6a be 00 1a 19 be fb ce eb 3c c4 82 06 3e
       -0.22871755 -0.14951324 0.02878522 0.1313582
000130 92 46 46 3e 00 44 c5 3d 2e b4 bb 3d af 7a 96 bd
       0.19362858 0.096321106 0.09165226 -0.07347619
000140 ca de 66 3d 94 9b 1b bd 7d ce 7c bd 03 92 46 bd
       0.056364812 -0.037990168 -0.06172036 -0.04847909
000150 23 c9 9c be ca 4e 25 be 4e bd e8 3c 45 a5 dc bc
       -0.30622205 -0.16143337 0.02841058 -0.026934275
000160 ff b9 66 bb 52 15 8f 3d 5c 23 db 3c 40 c0 a7 3c
       -0.0035206077 0.069864884 0.02675026 0.020477414
000170 34 7d 8e be 9c 33 41 bd 84 02 39 3d e8 83 cb 3c
       -0.27829897 -0.04716836 0.045168415 0.024843171
000180 29 6f 10 3d 74 bc 00 3e c3 24 54 bd 46 f1 59 3d
       0.03526226 0.12571889 -0.05179287 0.053208612
000190 ab ba f4 3d 55 b3 19 3e 01 2d 54 bd b8 93 38 3d
       0.119496666 0.15009816 -0.05180073 0.04506275
0001a0 d3 c4 32 3d f1 c0 37 3e 32 bc 6f 3b 9d a5 2c bc
       0.043644737 0.17944695 0.003658068 -0.010537532
0001b0 f2 30 63 3d 50 de 18 3e d1 10 a8 3d 68 1c 24 bd
       0.0554666 0.14928555 0.082063325 -0.040066153
0001c0 27 23 10 3d 2e 2b 3c be 73 c7 8a 3e 11 45 da bd
       0.035189774 -0.18375847 0.27105293 -0.106577046
0001d0 e1 b9 c7 bd 5f 4f 3d be 2b cc 9a bd 33 27 7d 3e
       -0.097522505 -0.18487309 -0.07558473 0.24721985
0001e0 22 b7 03 3e f1 42 2e 3e db 71 3a 3e 8b df dc 3c
       0.12862828 0.17017724 0.18207495 0.026962062
0001f0 e2 37 01 3d 46 b7 52 3d e4 b9 f1 bc e1 81 3d bd
       0.031547435 0.051444314 -0.029507585 -0.04626644
000200 20 3f d5 bd 25 61 3d bd 00 78 a4 3d da be 9f 3e
       -0.10412431 -0.046235222 0.08030701 0.31200296
000210 e0 10 e6 bd da 2a 53 3d 19 23 94 3e b2 5a dd 3c
       -0.112336874 0.05155454 0.28933027 0.027020786
000220 06 3d 8f 3d dc 2a a2 bd eb a2 4b 3b f7 59 03 bd
       0.06994061 -0.07918331 0.0031072448 -0.03206822
000230 da 34 f7 3d f1 3b 61 3e d4 d1 4c 3e 0e d4 87 3e
       0.120706275 0.21995522 0.20001918 0.26528972
000240 3b fa a7 bd d0 c6 0a bd 09 8a 2d 3e 0f 0f af bd
       -0.082020245 -0.03388101 0.16947187 -0.08547794
000250 4b c2 20 bd 28 e0 e3 3d 5b 4c 94 3c 3c 8f 6a 3e
       -0.039247792 0.11126739 0.018102815 0.22906202
000260 00 0e 31 3d 30 56 72 3e 48 16 c3 3c 3b 12 98 3e
       0.043226242 0.2366569 0.023814335 0.2970141
000270 ab 2a 59 3e fe 6c aa 3e d6 50 c2 3e 36 d8 17 bd
       0.21207683 0.3328628 0.37952298 -0.03707143
000280 f7 c5 d2 3d e9 27 e9 bc 18 03 57 3e 4d 5c 00 3e
       0.10291665 -0.028461413 0.20997274 0.1253521
000290 51 86 93 3d 0c 42 09 be 0b c5 3b 3d a1 b3 99 3e
       0.07203353 -0.13404101 0.04584221 0.30019858
0002a0 67 ec b3 bd 3c 74 a1 3c ef 32 9d 3d 00 9a 63 be
       -0.087853245 0.019708745 0.076757304 -0.22226715
0002b0 3b 51 18 3e a4 39 42 bd ca 31 ee 3d d8 96 6b 3e
       0.14874737 -0.04741825 0.1163059 0.23006761
0002c0 78 fc 3a 3e 7d 0e 8d 3d db f6 a4 3d a4 64 b3 bd
       0.18260372 0.06887529 0.080548964 -0.0875943
0002d0 5b 13 be bd c1 64 26 bd 29 44 0a bc 8e 8a 47 be
       -0.092810355 -0.04062343 -0.008439102 -0.19486448
0002e0 0e 9b b2 3d 2f ad 87 3d 29 55 ad 3c 3c 59 9b bd
       0.087209806 0.06624829 0.021158772 -0.075853795
0002f0 c2 19 9a 3c 5e b6 d7 3c 1d cc b8 bd fa 50 21 3d
       0.01881111 0.026332077 -0.090233065 0.039383866
000300 b3 d3 e0 3c 32 a6 d8 bd 0a 9f bd 3e fc 0f ef 3d
       0.027444696 -0.10578574 0.370354 0.11672971
000310 94 d3 b4 bd 79 b8 ba 3c 26 d0 92 bc 9d f3 25 3d
       -0.08829418 0.022793042 -0.017921519 0.04051553
000320 03 89 44 3c b9 37 47 3e 8a bf 31 3e e2 21 0d 3e
       0.011995557 0.1945485 0.17358223 0.13782457
000330 3a a6 1f bc 2a f8 13 3e 2e a9 18 3e b0 3c f3 bc
       -0.009744221 0.14450136 0.14908287 -0.029692024
000340 27 95 98 3e 30 a9 19 be ef ef 40 3d de a0 87 be
       0.29801294 -0.15005946 0.04710382 -0.2648992
000350 1c 02 5c be 92 a7 99 3c de 27 d6 3c fc df 10 bd
       -0.2148518 0.018756662 0.026142057 -0.03536986
000360 26 11 1c ba b8 02 8b 3d 4a 85 3d be 71 b0 44 be
       -0.0005953483 0.06787628 -0.18507877 -0.19207932
000370 04 b5 58 3d 6b c7 e1 3d 68 20 21 bf d6 76 ab 3d
       0.052907005 0.11024364 -0.62940073 0.083722755
000380 5d 4f e4 3d 73 99 88 3d 25 dc d4 3d f1 31 85 bb
       0.1114795 0.06669893 0.10393552 -0.0040647914
000390 7a 1a 03 3e 97 bc 10 3d 1d a0 ed 3c a8 44 84 bd
       0.12803069 0.035336103 0.029007012 -0.06458408
0003a0 d1 ec 4d 3c e1 80 a9 3d 98 e1 76 bc 56 85 1a bd
       0.012568668 0.08276535 -0.015068434 -0.037724815
0003b0 7d c2 ae bd b6 34 dd 3d 0a 08 bd bd 6e bd 0c 3e
       -0.085331894 0.108010694 -0.09230049 0.13744137
0003c0 f2 c8 14 3e 86 55 09 bd 2e ec 0f 3e 1d 78 98 bd
       0.1452978 -0.033528827 0.14054939 -0.07444785
0003d0 00 4b 14 be a9 d0 33 3e 1c 77 c3 bd 52 a2 bf 3d
       -0.14481735 0.17560066 -0.09544203 0.09357132
0003e0 0a 6e 84 3d 39 cb 5a be 9c e6 16 bd d6 80 e3 bd
       0.06466301 -0.21366586 -0.03684102 -0.11108558
0003f0 1b 98 2e 3d ae 59 a2 3d 19 94 da 3d 2e 23 b6 bd
       0.042625528 0.07927261 0.10672779 -0.08893429

layers.2.bias f4 [128]
000000 3d df 61 bd 56 83 d5 bd ac 5c a1 3c 1a e7 74 3e
       -0.055144537 -0.10425441 0.01969751 0.23916283
000010 18 30 d3 bc d6 5e 29 3e c1 88 aa bd 44 e8 91 bd
       -0.025779769 0.16540083 -0.08326865 -0.07124379
000020 1d d2 c7 3d e9 91 cb bd d7 77 d4 3d 18 c3 4a 3b
       0.09756873 -0.099399395 0.1037442 0.003093904
000030 ed 5f 95 bd 2e 7c e4 ba 83 bb a4 3c e0 3c f1 bc
       -0.07293687 -0.0017432028 0.020108944 -0.029447973
000040 78 3f 86 3b 01 e3 07 3e 33 ca a2 bc ae e2 93 3c
       0.0040969215 0.13270189 -0.019871807 0.018052425
000050 e4 f0 d3 bd da 2d a4 bb b2 5c 96 3c 84 93 7d 3c
       -0.103486806 -0.0050103487 0.018354747 0.015477065
000060 8c 18 04 3c 97 66 95 3b b7 d9 44 bd b0 86 b4 3d
       0.008062493 0.004559349 -0.04805919 0.08814752
000070 78 a1 09 bd f9 aa 23 bd 95 c4 80 bd b3 4a 5b 3b
       -0.033601254 -0.039957974 -0.06287495 0.0033461272
000080 d8 d4 a7 bc 95 68 7e 3d c8 6c 39 bc f0 f7 27 bc
       -0.020487234 0.062111456 -0.011317439 -0.010251984
000090 07 f2 a3 3d ad ac 58 bd b6 dd 4c bd 1f 5f 6c bd
       0.080051474 -0.05289905 -0.050016128 -0.057707902
0000a0 8d b7 70 bc 56 5a 20 3e c7 e9 d6 bc 2f f5 f5 3c
       -0.014692199 0.1565946 -0.02623452 0.03002414
0000b0 37 a3 f0 3b dd 57 62 bc 31 51 21 bd 3d cf 19 bd
       0.0073436755 -0.013814894 -0.03938407 -0.037551153
0000c0 68 fa 6d 3d 83 7d e6 3d 61 cf b0 3d 59 73 7b 3b
       0.058100134 0.11254408 0.086333044 0.0038368313
0000d0 65 92 ad bd 66 b1 8f bd 45 7c 08 3e 10 d7 c9 3c
       -0.08475188 -0.07016258 0.13328655 0.024638683
0000e0 ae 42 74 bc 4d bb af 3d 33 42 d2 bc 91 ef 42 bc
       -0.014908476 0.08580647 -0.025666332 -0.011897937
0000f0 30 5c 9c bd d9 b8 8c bc df 06 90 bd 11 32 77 3e
       -0.07634771 -0.017177986 -0.070325606 0.24140193
000100 04 e7 a4 bd 47 58 01 bd 97 81 35 3d 66 5b bf 3d
       -0.08051875 -0.03157833 0.04431304 0.09343605
000110 ba 30 b0 3d 7d 92 e1 bc 0f 4c bc bc 56 16 68 bd
       0.08603044 -0.027535671 -0.022985486 -0.056661926
000120 78 84 38 bc bb 6b 10 3e d3 b6 e9 b9 b6 9e fe bb
       -0.011262052 0.14103596 -0.00044577438 -0.0077703847
000130 01 2a b7 39 cb 7b 84 bd 52 54 3c bb b1 81 39 3e
       0.00034935775 -0.06468924 -0.0028736782 0.1811588
000140 cc ae 4a bd 07 ba 9d 3d 79 98 29 3e ab f0 8d bd
       -0.049483106 0.077014975 0.1656207 -0.069306694
000150 ca 53 71 3d b9 5c 88 bd 03 e6 2a 3e f3 6e 45 3d
       0.058917798 -0.066583104 0.16689305 0.048201513
000160 77 af 25 bd a3 ef 62 3e de 1c d6 bc 18 22 31 bd
       -0.04045054 0.22161727 -0.026136812 -0.043245405
000170 90 95 92 bd aa 96 d5 bb b7 6c 15 38 56 c9 d5 bc
       -0.07157433 -0.0065182047 3.5625617e-05 -0.026096981
000180 17 77 6b 3d 94 6e 84 bc c0 20 b3 bc 5a 42 17 bd
       0.05748662 -0.016166009 -0.021866202 -0.036928512
000190 28 73 15 bc e0 07 6f bd de 9a bb 3b 6c 2f 09 3e
       -0.009121694 -0.05835712 0.0057252487 0.13396996
0001a0 58 ed 8a bd 39 05 e0 3d 3c 0b 2a 3c 24 c1 8b 3a
       -0.06783551 0.10938496 0.010378655 0.0010662419
0001b0 65 2f 17 bc b4 35 89 bb a8 4e 03 bd 50 3a 4a bd
       -0.009227608 -0.00418731 -0.032057434 -0.049372017
0001c0 f5 db cf bd d4 b6 40 bd 4e 03 63 3d 5a 58 5d 3d
       -0.10149375 -0.04704936 0.055423073 0.054039337
0001d0 6a ce 43 3b 88 05 96 3d ca 27 bd b9 b5 17 fe 3a
       0.002987767 0.07325274 -0.00036078534 0.0019385727
0001e0 b0 73 ad bd 05 a3 5d 3e ce e0 65 bd 76 fb 10 bd
       -0.08469331 0.21644218 -0.056122594 -0.03539606
0001f0 d2 a0 7f bb ee 8f da bd b0 ed 54 bc 3c 0d 13 bd
       -0.0039005768 -0.10671984 -0.012996122 -0.035901293

layers.4.weight f4 [4, 128]
000000 79 26 af 3e 39 46 39 3e a7 79 8c be 5b 3a 71 3e
       0.3420904 0.18093194 -0.27436563 0.23557417
000010 95 c9 b6 bd 8c 7f 9c 3e 48 d3 c5 be d1 fa 81 3d
       -0.089251675 0.3056606 -0.38637757 0.063466676
000020 45 9e ad 3e 73 b2 3a 3e 27 7a b7 3e a0 45 c0 bd
       0.33909813 0.18232135 0.35835382 -0.0938828
000030 15 20 86 be 5c 1f 55 bf 5c 8a 2d 3f c5 2a 67 bd
       -0.26196352 -0.83250976 0.67789245 -0.056437273
000040 d4 05 e8 3c 18 51 6c be 4a f4 91 be 6a 08 90 3e
       0.028323092 -0.2307781 -0.2850669 0.2813142
000050 a0 e2 08 be 00 16 2e 3f e8 af 9d be c2 8c 87 3e
       -0.133677 0.6800232 -0.30798268 0.26474577
000060 03 83 31 3c 8f 62 05 3e cb 75 81 be 57 24 9a 3d
       0.010834458 0.13025878 -0.2528518 0.075264625
000070 df 25 6e 3e 47 97 c8 3d 51 4e ac 3c 1c 05 b9 be
       0.23256634 0.09794479 0.021033438 -0.3613671
000080 5a e0 21 3e 61 25 c5 3d c6 55 c8 bd 6a fa 0f bf
       0.1580824 0.0962627 -0.09781985 -0.56241477
000090 7f 63 22 be 3f 49 13 bf f8 80 f6 3d 8a f6 80 3c
       -0.15858267 -0.5753364 0.120363176 0.015742559
0000a0 2a 29 17 3e e0 21 71 be 7a 23 1d be 44 a2 12 3e
       0.14761797 -0.23548079 -0.15345564 0.14319712
0000b0 c2 39 51 3e b6 ed c5 3e 84 4b 32 be 83 e9 a1 3d
       0.20432189 0.38657922 -0.1741162 0.07905867
0000c0 b0 e4 5b be ec 89 9f 3e d9 27 7b be 48 b0 58 3e
       -0.21473956 0.31159914 -0.2452692 0.21160996
0000d0 78 3c 77 bd 68 2a 9d 3e ad a0 b7 3e 0e ce 38 be
       -0.060360402 0.30696416 0.35864773 -0.18047354
0000e0 b4 1c 93 be 9d 56 08 3e 98 82 9a be f8 4b 82 3e
       -0.28732836 0.1331429 -0.3017776 0.25448585
0000f0 de 74 b9 3c 23 e7 85 3d 64 07 66 3e 4e f9 3b 3e
       0.022638734 0.065382265 0.22463757 0.18356821
000100 55 73 9e be 21 7d ec 3e 5b 9e 2f be 2f 0f da bd
       -0.30947366 0.46189216 -0.17150252 -0.10647427
000110 c5 f9 b9 bd d4 28 40 bd c7 c4 bc bd ac 5b fb bd
       -0.09080843 -0.046913937 -0.0921722 -0.122733444
000120 5a 7d 6f 3c 4b f3 9c be 59 bb d1 be 2a a2 81 3d
       0.0146172885 -0.30654368 -0.40963247 0.063297585
000130 9f a2 f2 3d 79 8e 9c 3d ee 98 8b bf f8 4e 9f 3e
       0.11847424 0.07644362 -1.0906045 0.31114936
000140 37 4d aa be 1b 3d b0 be a0 13 2b be e2 6b 9e 3e
       -0.33262035 -0.3442162 -0.16706705 0.30941683
000150 f4 8a cb 3e cf a0 a0 be 5f 79 b4 3d ee 71 4c 3e
       0.3975445 -0.31372687 0.08812212 0.19965336
000160 9e 3f ed bf 08 81 04 bb 61 f0 c6 3e 9a 74 19 bf
       -1.853504 -0.002021851 0.3885527 -0.59943545
000170 f3 49 b9 bc 80 d9 92 3d 21 6a 27 3e 8c e4 c4 be
       -0.02261827 0.07170391 0.16349079 -0.38455617
000180 ae 59 95 be 6a c1 a7 be ba 6a eb bd 21 5d 23 3e
       -0.29169983 -0.3276475 -0.11494966 0.15953495
000190 9c b3 80 be 9b 58 25 be 39 54 88 3e e7 fa f2 3e
       -0.2513703 -0.16147082 0.26626757 0.47457048
0001a0 07 e2 9f bf b0 c7 38 3e f3 f2 4f be 73 0b 6e be
       -1.2490853 0.18044925 -0.20307522 -0.23246555
0001b0 58 e7 ca be 14 06 b3 3e 05 04 7b be 34 e1 41 3d
       -0.39629626 0.34965575 -0.24513252 0.04733391
0001c0 d9 c0 cd bd ff 1b b3 be 2f f2 e3 3e 55 b8 f0 3e
       -0.100465484 -0.34982297 0.4452071 0.47015634
0001d0 49 2f 86 bd f8 58 7a be da 44 16 3e 33 8a 83 bd
       -0.06551988 -0.24448001 0.14674702 -0.06422844
0001e0 44 ad 9a be 9a 77 96 3e da e7 ae bc f3 9f 45 bc
       -0.30210316 0.29388124 -0.02135079 -0.012062061
0001f0 58 76 c2 be 0b bb 80 3e d0 ee ce bf 4b 83 83 3e
       -0.37980914 0.25142702 -1.616663 0.25686106
000200 77 9a 6a 3d 8b d0 87 3d 1b c9 91 be 36 fd 1c 3e
       0.057276215 0.06631573 -0.28473744 0.15330967
000210 38 ef c8 bd 87 39 47 3e 18 e8 54 bd 9a c7 dc be
       -0.09811252 0.19455539 -0.051979154 -0.43121034
000220 6f d3 cf bc ec b5 d7 3d 77 e1 80 3e 7d fb d2 bf
       -0.025369374 0.10532746 0.25172016 -1.6482998
000230 fb c7 3d 3e 52 77 a8 3d 20 a4 69 3e e2 6e cf bf
       0.18533318 0.082258835 0.22816515 -1.6205714
000240 cc 32 e3 bf b1 c0 85 3e 5f 26 fe 3c 2b 62 83 3e
       -1.7749877 0.26123574 0.031024156 0.25660834
000250 3b 3e bd be 7f fa 4c bf 58 97 64 be e8 82 52 3e
       -0.3696154 -0.80069727 -0.22323358 0.2055775
000260 4b 11 02 bf 95 ca ce bf a7 d8 7e 3d 54 e0 25 3e
       -0.50807637 -1.6155573 0.062218335 0.16198856
000270 50 81 85 bf cc fc 85 3a fa 22 90 be 77 5c 4b be
       -1.0430088 0.0010222434 -0.28151685 -0.19859491
000280 7a 36 6e 3c cb b9 a2 3e d2 2b 0b 3e 01 d0 c4 bd
       0.014539355 0.31782374 0.13590935 -0.09609986
000290 f1 6d 78 3e c6 a8 10 bf ad 4a 0d be 11 94 1b bf
       0.2426069 -0.5650753 -0.13798018 -0.60772806
0002a0 c2 48 16 bf de 1c b5 3e c4 18 dd be 8d e7 6d be
       -0.5870477 0.35373586 -0.43182957 -0.23232861
0002b0 e4 99 e8 be cb 72 a6 3e ea c6 4b 3e d1 a3 3a 3e
       -0.4542991 0.32509455 0.19900098 0.18226553
0002c0 d1 97 0b 3e eb 10 28 bd 61 cb 3a be 4f e0 59 be
       0.13632132 -0.04103176 -0.18241645 -0.21276973
0002d0 3d 1b fe bd 4e 0f 04 be ff d8 04 3e 07 f0 8f be
       -0.12407539 -0.12896463 0.12973402 -0.28112814
0002e0 83 52 34 be 14 ac 46 3e cb 11 5f 3e b5 6a 12 be
       -0.176096 0.1940158 0.21784131 -0.14298518
0002f0 6e 55 2d bf d7 5e 54 3e 79 b7 6a 3d af 85 ca bd
       -0.6770848 0.20739304 0.05730388 -0.09888779
000300 a1 dd ee bd 95 a7 b1 bf a5 59 21 3e 98 45 aa 3e
       -0.11663366 -1.3879267 0.15756853 0.3325622
000310 79 dd d5 bd 65 65 c2 bd 08 eb 55 bf 2e 88 25 bd
       -0.10442633 -0.09491996 -0.83561754 -0.040413074
000320 7f 75 77 bf f2 49 35 3e c5 2e 80 3e 46 bd cc 3a
       -0.9666366 0.17703989 0.25035682 0.0015620373
000330 57 56 de bf 85 44 43 bd d0 89 a4 3d c6 c6 d2 bc
       -1.7370099 -0.047672767 0.08034098 -0.025729548
000340 bf 71 28 be 05 61 b9 3e 9a d3 aa 3e 5f f8 28 bf
       -0.1644964 0.36206833 0.33364564 -0.66003984
000350 ad 49 86 3e 02 fc e8 3d 3a 0d a9 3b ca 15 6d 3e
       0.26228085 0.11376192 0.0051590474 0.23152843
000360 84 bf b6 3e 9c 22 3f 3e 19 7c 87 bd 5d 1b 1e bf
       0.3569299 0.18665546 -0.066154666 -0.61760503
000370 0d fc 49 3e a2 1b 47 bf 5c fb 30 bf 1e 17 ec 3d
       0.19725056 -0.7777654 -0.69133544 0.11527847
000380 57 8f 57 be d9 80 fd be a1 68 7c be 48 16 41 3e
       -0.21050774 -0.49512365 -0.24649288 0.18856156
000390 fd c0 50 be fd 92 8d be 90 8a 42 3e 4b c2 2b bf
       -0.20386119 -0.27651206 0.1899817 -0.6709334
0003a0 9c 09 5d 3d c8 2a 8b 3e 7f 1c 54 be 33 c9 33 be
       0.053964242 0.27181077 -0.20713995 -0.1755722
0003b0 8d d2 02 3e a7 4e bd be ed e6 9c bf a0 94 70 be
       0.12775631 -0.3697407 -1.2257973 -0.23494196
0003c0 f8 d7 80 be 38 89 33 be 8f a9 8e 3e 80 17 7b 3e
       -0.2516477 -0.17532814 0.27863738 0.24520683
0003d0 16 e3 b0 3e 13 1e 8b 3e 37 1d 3c bd 3b 08 7c 3d
       0.34548253 0.27171382 -0.0459263 0.061531287
0003e0 1e 3f 2f be 86 85 e3 3d da 47 36 bf 1b ff a4 be
       -0.17113921 0.11109452 -0.71203387 -0.3222588
0003f0 2b 53 2b be d1 ae d6 3d 1b 5e 0e 3e e8 fc 38 bd
       -0.16730945 0.10482562 0.13903086 -0.045163065

layers.4.bias f4 [4]
000000 22 b0 8f bc 29 a5 1d bd 87 24 16 3e 15 92 f8 3d
       -0.017540041 -0.038487587 0.14662372 0.12137238
