models/dqn_best_model_1.95.pt (torch, 106527 bytes, 4 tensors)

layers.0.weight f4 [128, 200]
000000 7c 4f b0 be 4c e6 c0 3d 6e e9 1e bd cc 4b ca 3e
       -0.34435642 0.09418926 -0.038796835 0.39510953
000010 6c ca d0 bd 4a 51 f8 bd dd d2 fc 3d 48 dd c2 3e
       -0.10194859 -0.1212488 0.123449065 0.3805945
000020 a5 4a 79 3e d8 ce ef be c2 fb fa be c0 df c3 bd
       0.24344881 -0.46837497 -0.490202 -0.09564161
000030 98 81 3b 3e 8d 8b 95 be c5 7b f5 be 80 b7 d4 be
       0.18311155 -0.2920803 -0.4794599 -0.4154625
000040 d5 8f 5f 3e 40 be 74 3d da ce 8f be 6a 56 d2 be
       0.21832211 0.05975175 -0.28087503 -0.41081554
000050 8f 71 05 bd 07 dd 07 bc a5 45 eb bc fd 21 40 3d
       -0.032579 -0.008292443 -0.028719733 0.046907414
000060 44 a0 64 bd da 85 05 bd a5 91 a3 bc 4e 2e b2 3d
       -0.055816904 -0.032598354 -0.01996691 0.08700238
000070 b0 b0 da 3b fe 07 8f bd 98 4a f4 3d 44 08 76 bd
       0.006673895 -0.06983946 0.1192829 -0.060066476
000080 db 4d a2 3d 51 d1 e6 bd ce d5 41 be 29 52 0c 3e
       0.07925006 -0.11270393 -0.18929216 0.13703217
000090 4e b4 0b 3e de 02 6a 3d 5e 20 81 3d 05 af b6 bc
       0.13643 0.05713164 0.06305002 -0.022300253
0000a0 04 bd 00 3c 3c 6c 71 3c 68 c9 f3 3c aa 28 fb 3d
       0.007857565 0.014735278 0.029759124 0.122636154
0000b0 87 6c 27 3d cf 3d f7 bc 28 64 66 3d 73 2b 08 3c
       0.040874984 -0.03018084 0.05624786 0.00831114
0000c0 a2 9b 13 bc 12 88 30 bd a4 5a 8f bd cf cd df bc
       -0.009009274 -0.043098517 -0.0699971 -0.027319817
0000d0 50 27 5e bd 49 a7 6d 3d 78 d8 a6 3c 29 f0 ef 3c
       -0.05423671 0.058020864 0.020366892 0.029289322
0000e0 b3 32 b7 3c ac 3a a1 ba e6 aa 62 3d 52 d5 a9 3b
       0.022363042 -0.0012300811 0.055338763 0.0051829005
0000f0 d4 e3 91 3b 77 b1 73 bd 2c bf 16 3e cf 7c c7 bc
       0.004452208 -0.059495416 0.14721364 -0.024351506
000100 f1 5e ae bc 5a 5e 71 bc b1 37 70 3d 16 12 03 bc
       -0.021285506 -0.014731968 0.05864686 -0.0079999175
000110 3e bc 2c bd 00 7b 83 bc d4 40 82 3d 4c 56 1a 3d
       -0.04217171 -0.016049862 0.06360021 0.037679955
000120 66 f2 aa 3d b7 c6 d5 bd 96 a3 8f bd c5 98 62 bd
       0.08347015 -0.104382925 -0.070136234 -0.055321474
000130 e2 d4 42 bd d4 9f ea 3c 72 6b cf 3c 53 a9 70 3d
       -0.047566302 0.028640665 0.025319789 0.05875523
000140 a1 92 15 bd e1 71 45 bd fe ab 19 3d e8 23 ea bc
       -0.03651679 -0.048204307 0.03751754 -0.028581575
000150 af c8 2f 3d 8f 75 89 bc a5 ae 25 3d 4d 1f 40 3e
       0.042915996 -0.01677969 0.040449757 0.1876194
000160 d4 89 42 bc 73 9a b0 3c b1 eb 74 3c 5b fe a5 bd
       -0.011873681 0.021558022 0.014948771 -0.08105155
000170 ef 42 15 3e 68 c1 ce bd 5c 08 52 bd f0 9f 1a bd
       0.14576314 -0.10095483 -0.051277503 -0.037750185
000180 68 77 fe 3d b9 65 4b bd d4 89 95 3c a5 84 e5 bd
       0.12425119 -0.049657557 0.018254198 -0.112069406
000190 ef dc 25 bd a6 b3 90 3c 40 1d 92 bc 32 3d 52 bd
       -0.0404939 0.017663788 -0.017836213 -0.05132789
0001a0 ae 66 d9 3a 70 d7 45 bd d0 b8 75 bd 2b 7d 1f bd
       0.0016586387 -0.04830116 -0.059990704 -0.03893773
0001b0 0f 7d 7d bd 47 6b 38 bd 43 c2 90 3d ee d0 5a 3c
       -0.061886843 -0.045024183 0.070683025 0.013355477
0001c0 53 81 b2 3c 2f 11 87 bd d6 38 3e bd 8a cf c0 bc
       0.021790182 -0.065950744 -0.04644092 -0.023536462
0001d0 e0 28 35 3c 3a da 7e bd 9d 96 f9 bc 98 64 2d bd
       0.011057109 -0.062219836 -0.030467326 -0.04233226
0001e0 f5 79 4d 39 93 8b d7 bc c4 8f a0 bb 36 43 44 bd
       0.00019595756 -0.026311671 -0.0048999507 -0.04791566
0001f0 21 cd 46 bd a2 f8 28 bd a5 47 c6 bc a5 99 64 bd
       -0.04853547 -0.04125274 -0.024204085 -0.05581059
000200 c9 d8 72 3d e1 ec 65 bc 91 32 79 3d d6 7c b4 3c
       0.059288774 -0.014033527 0.06083924 0.022032183
000210 35 42 75 bd 50 6f 48 3d 83 61 9f bc d2 0b de bc
       -0.059877593 0.04893428 -0.019455677 -0.027105246
000220 03 6a 70 bd 48 f8 8f bd a5 bb a5 3c 8a 12 7d bc
       -0.05869485 -0.07029778 0.020231077 -0.015446315
000230 22 85 e1 3c 85 b0 6d bd cc 07 57 3d cc 9a 54 bd
       0.027529303 -0.05802967 0.05249767 -0.05190544
000240 d2 0b 48 bc b8 68 ac 3d 5d 71 47 3e 27 d7 3c bc
       -0.012209849 0.08418411 0.19476838 -0.011525906
000250 bb ec 6e bd a1 a7 65 bd 00 c8 91 3c d4 27 f9 bc
       -0.058331233 -0.056068067 0.017795563 -0.0304145
000260 c9 e9 fd bb 31 c9 58 bd 0c e8 83 3d 25 93 54 bd
       -0.0077488166 -0.052926246 0.06440744 -0.05189814
000270 2b cb 1a 3d 58 93 cb 3c 0e 3c bc 3c 7f 96 1c bd
       0.037791412 0.024850532 0.022977855 -0.03822946
000280 58 a1 83 3d 09 96 7e 3c 56 08 15 3c 19 3d 7f bd
       0.06427258 0.015538701 0.009096226 -0.062314127
000290 e0 2a f3 3c 6c cd 2d bc dd af 04 bd 0b c7 78 3d
       0.02968353 -0.010608058 -0.03239428 0.060736697
0002a0 4f 25 81 3c f8 3e 20 bd ef 97 12 bd 28 75 94 be
       0.01576486 -0.03912255 -0.035789426 -0.28995633
0002b0 ec 7d 4a 3e 84 e9 17 3d 93 41 25 bd 36 5d c6 bc
       0.19774598 0.037087932 -0.04034574 -0.024214368
0002c0 41 60 58 bd 67 95 ce 3c 9e 2f 60 3d cb 55 88 bd
       -0.05282617 0.025217725 0.05473291 -0.06656989
0002d0 b3 88 86 3c f8 9e 15 3d 0b 13 52 3c 18 4a ce bc
       0.016422605 0.036528558 0.012821923 -0.025181815
0002e0 ac 2b 17 3d 73 34 18 3d 10 9a d8 3c d3 93 4b bc
       0.036906883 0.037159394 0.02644065 -0.012425381
0002f0 a8 63 99 bc 40 e1 f7 3b 71 a8 4c bc e3 9e ac bc
       -0.018724278 0.0075646937 -0.012491331 -0.021071857
000300 54 22 39 3d a1 e8 78 3d af 61 e5 bb e6 b1 81 bc
       0.045198753 0.060768727 -0.00700017 -0.015831899
000310 7f 3e 87 3a d6 14 cd 3d 48 e8 28 3e 47 d0 83 bd
       0.0010318308 0.1001374 0.16494858 -0.0643621
000320 9f e9 20 3e 30 08 ca 3e 0f 81 a8 3e 72 44 7d 3c
       0.1571412 0.39459372 0.32910964 0.015458213
000330 1e 62 4e 3d 45 6a 1a be da 6c 8f 3e f3 99 b1 be
       0.05038654 -0.15079601 0.28012735 -0.34687766
000340 b1 9a 52 3e cb a4 17 bf 21 db b3 3e 68 3a 7a be
       0.20566823 -0.5923583 0.3512812 -0.24436343
000350 63 2e 62 3e 8f 46 f7 3c 5f dc 8d 3e 1f 4e 18 bf
       0.22088008 0.030185012 0.27707192 -0.59494203
000360 e0 7c 62 be 6e 24 02 bf f1 d2 f1 bd 06 0e 1e bf
       -0.22117949 -0.5083684 -0.11807812 -0.6174015
000370 1c 77 3b bd df 65 53 3d 1a b2 03 bd d9 3e 68 bc
       -0.04576789 0.051610824 -0.032152273 -0.01417514
000380 24 10 90 bd 6c d7 41 3d 38 6f 5b 3d 96 f9 d7 3d
       -0.070343286 0.047324583 0.053572863 0.105456516
000390 c3 f3 49 bd 97 ec 8e bd b2 5e 7e 3c 56 fa 57 3d
       -0.049304735 -0.0697872 0.015525507 0.052728973
0003a0 71 3c d9 3d 0c 0d 4c bd 11 7c 05 3e 6a e7 36 3d
       0.106072314 -0.04981713 0.13035609 0.044654287
0003b0 bd 51 bb 3d 1e 44 5c bd 07 61 1e be f5 73 87 bd
       0.0914645 -0.0537759 -0.154667 -0.06613914
0003c0 bd b5 14 3e 94 85 2c bd e9 27 69 bc 0b c5 42 be
       0.14522453 -0.042119578 -0.014230707 -0.19020478
0003d0 3f 1c 53 bc ef b5 69 ba 51 d8 89 bc bb e7 21 bc
       -0.012885152 -0.0008915355 -0.01682678 -0.009881909
0003e0 4e 05 b0 3d 3c cd 32 3d 11 d5 b9 bc ba 76 54 bd
       0.08594762 0.043652758 -0.022684606 -0.05187104
0003f0 a0 68 4c bc da 65 0c bd 66 38 b1 bc 1b dd 89 bd
       -0.012476116 -0.03427682 -0.021633338 -0.06731626

layers.0.bias f4 [128]
000000 87 9d 98 bd 3e 2c b4 3b 69 f1 6b 3d c6 b9 a1 bd
       -0.07451921 0.005498438 0.057603274 -0.078967616
000010 a7 77 85 bc 23 f3 f8 3d 1c 3e a6 3d 43 a1 52 3e
       -0.016292406 0.1215575 0.08117315 0.20569329
000020 88 79 1b bd 7d 13 4a 3d 5d 1d e1 3c 0b aa 18 3e
       -0.037957698 0.04933499 0.027479822 0.14908616
000030 5b e4 b9 3c 2b 6f 1e 3d ac 42 97 3d a7 b5 75 3e
       0.022691896 0.038680237 0.073857635 0.23995076
000040 64 ea 5c bd 2f ee cc 3d b2 bc 09 3e 3c bd 7d bc
       -0.05393447 0.100063674 0.13450888 -0.0154870115
000050 65 3d 6e 3c 39 37 05 3e aa 3f 0e 3d 6e 0a 6c 3e
       0.014541005 0.13009347 0.034728684 0.23050854
000060 ef d5 3e bd 86 ee d4 3b ab 69 01 bc 54 ec 88 3d
       -0.04659074 0.006498161 -0.007898728 0.06685701
000070 86 1b 49 3c 20 52 e5 3d 13 8c 19 3d a0 78 16 3e
       0.0122746285 0.11197305 0.0374871 0.14694452
000080 05 29 f7 3d 96 da 10 3d 4f d4 69 bd 79 a0 aa 3c
       0.12068371 0.03536471 -0.05708724 0.020828472
000090 d6 12 2f bc 6a 25 2e bd 50 eb 30 bd 47 f2 3f 3c
       -0.010685643 -0.04251615 -0.04319316 0.011715478
0000a0 31 73 8d bc 7e 14 f0 bc ab 5b cf 3c ba bf 21 3c
       -0.017266842 -0.029306646 0.025312265 0.009872371
0000b0 cf e9 a6 bd db aa e2 3c 10 9a ca 3b 2e 20 9f 3c
       -0.08150064 0.02766936 0.0061829165 0.019424524
0000c0 50 ae b0 3e 55 3f 57 3e 44 4c c3 bc 41 15 3c 3d
       0.3450799 0.21020253 -0.023840077 0.045918707
0000d0 64 8f cb 3d 86 e8 03 bc 79 5e 13 3c 70 39 ed bc
       0.09939459 -0.008051043 0.008994692 -0.028958052
0000e0 55 e0 d3 bd a8 be e3 3d e8 8e ec 3d 1e e7 93 3d
       -0.10345522 0.11120349 0.11550695 0.072218165
0000f0 c7 7e 29 bd ec 47 f2 bc c5 91 55 3d 15 85 fd 3d
       -0.04138067 -0.02957531 0.05214097 0.12378899
000100 d8 52 e8 bb fc 03 8b 3d c3 57 9f 3e 70 10 27 bb
       -0.007089954 0.06787869 0.31121644 -0.0025491975
000110 0d d7 ac 3d 28 d3 79 3b 10 ed 12 bd 2e e4 17 3d
       0.08439455 0.0038120244 -0.03587061 0.037082843
000120 39 35 67 bd 4c 32 15 3d ce 87 c6 3c b9 1b 1c 3d
       -0.05644724 0.03642492 0.024234679 0.038112376
000130 f4 e0 ad 3c d4 34 b4 bc 95 10 e6 3a 3c 3a 2f 3e
       0.02122543 -0.021997847 0.0017552549 0.17112058
000140 a2 07 23 3b 39 72 30 3b fa 15 a7 3d 99 68 fd bb
       0.0024876376 0.002692355 0.081584886 -0.0077334163
000150 ba d8 12 3e 9a 9f 0b 3d f7 a0 cb bb 64 fd 58 bc
       0.14340487 0.034087755 -0.006214257 -0.013244007
000160 a4 40 6d bd 43 7f 39 3d 60 85 35 bd d7 f4 8e 3e
       -0.057922974 0.04528738 -0.04431665 0.27921173
000170 5e 8b d0 39 d3 30 96 3c 2e 5a 9d 3c 32 45 73 3d
       0.00039776688 0.018333828 0.01920804 0.05939216
000180 42 4f 09 3d cf f4 b0 3d d9 2a bf 3a c9 42 48 3e
       0.03352285 0.086404435 0.0014584913 0.19556727
000190 8b e2 08 3d 7f bc 25 3d 00 0d 27 3e ca f4 69 3d
       0.033419173 0.040462967 0.16313553 0.057118215
0001a0 2e a3 a3 3b c6 88 fa 3c 5d 9b 86 bc 98 94 82 3d
       0.004993818 0.030582797 -0.016431505 0.06375998
0001b0 a4 a6 4b bc 30 b2 87 3d 65 ac 97 3c 5d b1 70 3c
       -0.012429867 0.066257834 0.018514821 0.014690724
0001c0 30 91 d0 3d 63 ad 49 3d 4c 7f d4 3e c5 fc 87 bd
       0.10183942 0.04923762 0.4150337 -0.06640009
0001d0 a5 67 67 3e 16 99 54 bd 7b 80 01 bd 00 b5 0a 3d
       0.22598131 -0.051903807 -0.03161667 0.03386402
0001e0 1a 2e d4 3d 81 73 ad 3d 70 6c cb 3d 99 5f f6 3d
       0.10360356 0.08469296 0.09932792 0.120299526
0001f0 47 f1 fc 3d f9 5e 6d 3d 1a 2e 8e bb f8 d1 4f 3d
       0.123507075 0.0579519 -0.004338992 0.05073735

layers.2.weight f4 [4, 128]
000000 c2 a6 e8 be 82 25 2f be 54 0b 92 bd 09 1b 81 bd
       -0.45439726 -0.17104152 -0.07131067 -0.06303985
000010 88 c0 28 bf 2b 28 96 3e 01 97 66 3f c9 93 22 be
       -0.6591878 0.2932752 0.90074164 -0.15876688
000020 db 05 4f be 5f 81 1c be 72 09 f0 bd f1 aa 43 3d
       -0.20217077 -0.15283726 -0.117205516 0.047770444
000030 98 69 ad be 4c 85 85 3d 73 13 fc 3d f3 53 2b 3e
       -0.33869624 0.06519565 0.12308397 0.16731243
000040 e4 86 18 bf c8 47 b8 be 7f f2 49 39 47 4d a8 bc
       -0.59580827 -0.35992265 0.0001925919 -0.020544661
000050 7f fc b6 be 01 42 97 3e 72 be 9f be ae 08 64 3e
       -0.35739514 0.29542544 -0.31199986 0.22268936
000060 17 77 33 3e 57 20 30 bf 0f 16 46 be 1a 59 25 3e
       0.17525898 -0.68799347 -0.19344352 0.16147271
000070 58 21 e4 3e 61 7e 14 be 30 c9 8b 3e 06 ab 98 3e
       0.4455669 -0.14501335 0.2730193 0.2981798
000080 0c dc cc bd 01 f7 c1 be ea 29 79 3e 76 1e e3 3e
       -0.10002908 -0.37883762 0.24332395 0.44359177
000090 4e 74 20 bd da 43 ea bc e4 4c eb be 28 5c 7a be
       -0.039173417 -0.028596807 -0.459571 -0.24449217
0000a0 36 fc 8f be ab 4a 98 be af 4e 2c be aa ff aa bd
       -0.2812211 -0.29744467 -0.1682689 -0.08349545
0000b0 c1 32 85 3d f8 01 6a 3d 1c 7d 8b 3d b5 83 6b be
       0.06503821 0.057130784 0.06810972 -0.22999461
0000c0 4e 12 fc 3d 45 a8 b5 bd 49 fc 32 be db fa 6f 3d
       0.12308179 -0.088699855 -0.17479052 0.058588844
0000d0 27 15 02 bf 70 5a e8 3e cd 5e df bd 15 6f c5 b9
       -0.50813526 0.45381498 -0.10906754 -0.0003765753
0000e0 51 35 8c 3e 40 2d a6 be aa 26 8c 3e 97 a3 c2 3e
       0.27384427 -0.32456398 0.27373248 0.38015434
0000f0 07 38 e7 be c8 3a 77 3d 3c a8 48 be a3 3f 97 3e
       -0.45159933 0.060358793 -0.19595426 0.29540738
000100 47 58 d6 bc 75 41 ac bd af 95 a3 3e 8c 0a 8c 3d
       -0.02616514 -0.084109224 0.31950137 0.06837949
000110 55 81 65 be 57 90 2b 3e 13 30 72 3d 9f eb f4 3e
       -0.22412618 0.1675428 0.05912788 0.47836015
000120 52 9f 5c 3d c5 09 30 be 76 85 0e 3d 5c 2b 31 be
       0.053862877 -0.17191227 0.034795247 -0.17301697
000130 43 bf bc 3d bb 97 36 3e 16 96 69 be 72 57 a9 3e
       0.09216168 0.17831318 -0.2281116 0.33074528
000140 b5 3c 1e 3e d8 94 35 3e 72 78 bb 3e 8b b6 ac be
       0.15452845 0.1773256 0.3661533 -0.3373302
000150 3d 0a 68 3e 5c 51 6e be 88 e1 9e bd f7 36 8c 3e
       0.22660156 -0.23273224 -0.077578604 0.27385685
000160 2a 2c 36 bf d6 a4 58 bd 77 72 59 3d 70 70 dd 3d
       -0.7116114 -0.052891575 0.053087678 0.108124614
000170 78 e8 52 3e aa e1 00 bf 56 a6 20 3d 13 82 06 3f
       0.20596492 -0.50344336 0.03922113 0.5254223
000180 42 36 f3 be 0e 52 1a be 1e 74 c1 3d 62 63 db 3e
       -0.47502333 -0.15070364 0.09445976 0.4284926
000190 5e 38 38 be 14 89 33 be 16 fc 57 3f 2b d2 eb bd
       -0.17990252 -0.1753276 0.8436903 -0.11514696
0001a0 e6 37 dc be 8c 77 e6 be 4d 26 d4 3e c4 93 0e bd
       -0.43011397 -0.45013082 0.4143547 -0.03480889
0001b0 94 46 16 be 93 7d f9 be 72 77 59 be 6f c9 da bc
       -0.14675361 -0.48728618 -0.21236971 -0.02670738
0001c0 e7 8e 62 3e 0f 7e 10 bf 93 99 b8 3e d8 27 ec bd
       0.22124825 -0.5644235 0.36054668 -0.11531037
0001d0 f4 44 77 bd 8c 65 3a be 82 ef 60 3d 4b 2c 1c 3e
       -0.060368493 -0.182028 0.054915912 0.15251271
0001e0 e3 76 8a 3e cf 11 f5 3e 09 fe 91 3e 92 bc 4a bd
       0.27043828 0.4786515 0.28514126 -0.04949624
0001f0 20 4e 07 3f 85 ff 92 be 80 ce a2 3d bb eb 00 bf
       0.52853584 -0.2871057 0.07949543 -0.50359696
000200 e8 ac 31 3d cb 5c f7 be f2 3c d1 3e 49 6d 37 be
       0.043377787 -0.48312983 0.4086681 -0.17912783
000210 bc 11 11 3e 90 ed a8 3f 52 06 4c bf fb 00 d2 bd
       0.14166921 1.3197498 -0.79697144 -0.10254093
000220 29 2b 61 bf 1a 0f 8b bf 6f 2d fa 3d d0 92 e6 3f
       -0.8795648 -1.0863984 0.12215697 1.8013554
000230 13 09 18 bf c3 b5 89 be a8 4c 13 3d 65 c0 a0 3e
       -0.59388846 -0.26896486 0.035961777 0.31396785
000240 7e 39 19 3f 3c b4 8c bf ea d0 2d bc e6 1e c6 bd
       0.5985335 -1.0992503 -0.010608891 -0.09673862
000250 cb e2 c5 3d 30 07 97 3f a6 80 a7 be 1e 87 9f 3f
       0.09662398 1.1799068 -0.32715338 1.246311
000260 1b 3f fd be ac 86 1f 3c 35 6b 7b be 89 92 10 bf
       -0.49462208 0.009736698 -0.24552615 -0.56473595
000270 ec 30 18 3c 77 70 ba be 8a bc 57 be c9 5e 9c 3d
       0.009289008 -0.3641393 -0.21068016 0.07635266
000280 6b c1 8a 3e 16 4b f0 be 7d 14 92 be 4b df 80 bf
       0.2710069 -0.46932286 -0.28531256 -1.0068144
000290 6a 72 16 bf 91 13 ed be f3 6a 3b be 00 cf 29 bf
       -0.5876833 -0.4630399 -0.18302517 -0.6633148
0002a0 f7 c5 1c 3d 9a bf 42 be 5a f2 3a 3e 14 7b cd 3d
       0.03827473 -0.19018403 0.18256512 0.10033241
0002b0 9c 69 0c 3d 73 87 0b bf ba 41 9d be 2f 2d 9d 3d
       0.034280404 -0.54503554 -0.30714208 0.07674634
0002c0 b9 aa 40 3d 84 67 37 bd d0 c2 d4 3e b9 9e 6e be
       0.047037814 -0.044776455 0.4155488 -0.23302735
0002d0 0b e5 a1 3f bd a7 f5 bc a7 d3 42 3e 67 a0 94 3e
       1.2648023 -0.02998721 0.19026051 0.29028627
0002e0 ba 5a 0b be 86 a8 4a 3e dc 44 2d be f6 3f 2b 3d
       -0.13608828 0.19790849 -0.16920799 0.041809045
0002f0 a9 d1 d7 3d 31 c4 c7 3c e2 71 63 be 10 39 88 3f
       0.105380364 0.024385544 -0.22211412 1.0642414
000300 49 ab 5d 3d d7 cf d6 3f ad e9 aa be 2f 13 14 3f
       0.05411843 1.6782178 -0.33381405 0.5784177
000310 7d d0 db 3e 45 a5 0f bf 87 1e bc be b0 54 36 3f
       0.429325 -0.56111556 -0.3674204 0.7122297
000320 fb f6 b8 bb c0 9e 8b 3f e4 75 48 3e f9 2a 8b 3e
       -0.0056446767 1.0907822 0.19576222 0.27181223
000330 3b 82 a2 be e4 66 09 bf 86 da 06 bf f8 ef 81 bf
       -0.31739983 -0.53672624 -0.5267719 -1.0151358
000340 df d8 ee 3e 15 36 bb be ef 70 df bd 71 be 02 bf
       0.46649835 -0.365647 -0.10910212 -0.5107184
000350 79 df e2 3e 47 b3 27 bf e3 79 d8 be 53 19 d6 be
       0.4431112 -0.6550793 -0.42280492 -0.41816196
000360 5d 65 88 3e 17 20 16 bf ad 25 00 3d 01 24 68 be
       0.26639834 -0.58642715 0.03128593 -0.22669984
000370 cd a9 8c be a3 ea c3 bc 56 ca 8b bf 97 56 e6 be
       -0.27473298 -0.023915594 -1.0921123 -0.44987938
000380 4d bb 43 3f 92 4b a6 3f 90 c1 8c be 04 30 99 bf
       0.76457673 1.2991812 -0.27491426 -1.1967778
000390 cf 35 b5 be 7b dc 0d bf 9f 16 50 bf 56 06 89 3e
       -0.35392615 -0.5541455 -0.8128452 0.26762646
0003a0 06 68 f6 be 3b b5 33 3f d5 a7 9d 3d 63 d6 8b bd
       -0.4812624 0.7019841 0.07698027 -0.068280004
0003b0 8f 62 f2 3e 33 1a 8b be 96 b5 38 3e 49 03 87 3e
       0.4734082 -0.27168426 0.1803802 0.26369694
0003c0 89 d0 d6 be b1 7f 7f 3e ad 06 e4 ba 1e 39 0c bf
       -0.41955975 0.24951054 -0.0017397009 -0.54774654
0003d0 f0 aa 5f 3f ad c2 de bb 76 66 12 be b9 87 0f bf
       0.87370205 -0.0067981095 -0.14296898 -0.5606647
0003e0 3f 46 c1 3f 7d 65 b1 bd 6c d4 c4 be d6 a9 86 be
       1.5099562 -0.086619355 -0.38443315 -0.2630145
0003f0 9d 61 06 bf 95 d0 cc be 39 94 c5 3c 95 51 fe be
       -0.52492696 -0.40002885 0.02411853 -0.49671617

layers.2.bias f4 [4]
000000 e0 88 e0 3d fc 72 98 3d 1c 69 19 3d a6 49 ff 3d
       0.10963607 0.074438065 0.037453756 0.12465219
